models/ENO_ECO_HEAWIHTQ__08_08_01__314.pt (torch_old, 4167 bytes, 5 tensors)

fc1.weight f4 [50, 4]
0	0xbf48f360	-0.7849636
1	0x3ea8dece	0.32982486
2	0xbf3f21bb	-0.74660844
3	0x3eb67fb4	0.35644305
4	0x3f0e64b5	0.55622417
5	0xbdea9e8e	-0.11456023
6	0xbfad78b6	-1.3552463
7	0x3ecae2b0	0.39626074
8	0x3ebbeffd	0.36706534
9	0x3f132459	0.5747734
10	0xbf6b7dfb	-0.91989106
11	0x3f54bdc0	0.83102036
12	0xbfbe6f63	-1.4877743
13	0xbee1b999	-0.44086912
14	0x3de89205	0.11355976
15	0x3e60e98a	0.21964088
16	0xbe3ccd70	-0.18437743
17	0xbf3bed7a	-0.73409235
18	0xbf25f691	-0.64829355
19	0x3f9d97d8	1.2311964
20	0xbcc278ba	-0.023739208
21	0xbedef193	-0.43543682
22	0xbf8c8deb	-1.098081
23	0xbf9520d3	-1.1650642
24	0xbc9d6105	-0.019211302
25	0xbe5c34b4	-0.2150448
26	0xbf7d1a5b	-0.9886834
27	0xbe65bf58	-0.22436273
28	0xbf84d4ab	-1.0377401
29	0x3e23cd85	0.15996368
30	0x3f294cd3	0.6613285
31	0x3e7133a1	0.23554851
32	0xbe8481e4	-0.2588035
33	0x3f56ff6d	0.839835
34	0xbf8d4944	-1.1037984
35	0xbf40b063	-0.75269145
36	0x3f118318	0.5684066
37	0xbed68bf8	-0.41903663
38	0xbf2ba6a8	-0.6705117
39	0x3f232500	0.6372833
40	0x3ef1457f	0.47123334
41	0x3fa85d87	1.3153542
42	0x3f85ca65	1.0452391
43	0xbf1013fc	-0.56280494
44	0xbf109b86	-0.5648731
45	0xbf3ccb39	-0.73747593
46	0x3e8a5777	0.27019855
47	0xbf78453d	-0.9698065
48	0xbee3d463	-0.44497976
49	0xbf16d6a8	-0.5892129
50	0x3d1ab012	0.03776557
51	0xbf54735e	-0.82988536
52	0x3f74d9f6	0.9564508
53	0x3f7b02da	0.98051226
54	0x3f39a8cf	0.72523206
55	0xbf9bff8a	-1.2187359
56	0xbf642c9a	-0.89130557
57	0xbfe57782	-1.7927096
58	0x3eab4b98	0.3345611
59	0xbd6baa2d	-0.05753534
60	0x3fbe8de0	1.4887047
61	0x3f3b1f99	0.7309509
62	0x3f2268f9	0.63441426
63	0xbfab9416	-1.3404567
64	0xbf8cb7f4	-1.0993638
65	0xbdeb001c	-0.1147463
66	0xbee9b9e3	-0.45649633
67	0xbe95fd43	-0.29294786
68	0xbfb37300	-1.401947
69	0x3ebf9f5c	0.3742627
70	0x3db9df16	0.090757534
71	0xbec52fcb	-0.38513026
72	0x3f1acd14	0.60469174
73	0x3d503340	0.050830126
74	0xbe012d10	-0.12614846
75	0x3f3f1568	0.7464204
76	0xbf4de85a	-0.80432665
77	0xbe80470c	-0.25054204
78	0xbf61741f	-0.8806781
79	0xbe813e32	-0.25242764
80	0xbf349a41	-0.7054787
81	0x3f92ae0c	1.1459365
82	0x3f346114	0.7046063
83	0xbed0a09e	-0.4074754
84	0x3f8da5ff	1.1066283
85	0x3f82140d	1.0162369
86	0xbf87fc9d	-1.0623966
87	0x3edc5379	0.43032435
88	0xbe236b4f	-0.15958904
89	0xbe71249a	-0.23549119
90	0x3f1c0154	0.60939527
91	0x3fa22c93	1.2669853
92	0x3f8cf495	1.101214
93	0x3f1b0110	0.60548496
94	0x3f435594	0.76302457
95	0x3f2df798	0.67955923
96	0x3eea576a	0.45769817
97	0x3e8ed895	0.27899614
98	0xbf90a203	-1.1299442
99	0xbf6c6c92	-0.92353165
100	0xbec20361	-0.37893203
101	0xbf2323d8	-0.6372657
102	0xbf366d49	-0.71260506
103	0x3dc1aae9	0.09456427
104	0x3f570a47	0.84000057
105	0x3f4bb8cc	0.7957885
106	0xbd55940b	-0.052143138
107	0x3e87d7d1	0.26531842
108	0x3f21dded	0.63229257
109	0xbf95a770	-1.1691723
110	0xbe2079fa	-0.1567153
111	0xbf6cfe7d	-0.9257582
112	0xbf67feeb	-0.9062335
113	0x3d0b7007	0.034042384
114	0xbd87be35	-0.06628076
115	0x3f83da0a	1.0300915
116	0xbf1ba113	-0.60792655
117	0xbefbed60	-0.4920454
118	0xbf9cc19a	-1.2246583
119	0xbd8a3fdd	-0.06750462
120	0x3fab19ab	1.3367208
121	0xbf491756	-0.7855123
122	0xbef86df9	-0.48521402
123	0x3ede3948	0.43403077
124	0x3f1f2d95	0.6217893
125	0x3e0b5531	0.13606717
126	0x3ca5d5c0	0.020243526
127	0xbf686e7b	-0.9079358
128	0xbc6671b4	-0.014065195
129	0xbf0fed83	-0.5622179
130	0xbf5f3144	-0.8718455
131	0xbf38fa2b	-0.72256726
132	0xbe35dfd9	-0.17761172
133	0x3f9ec058	1.2402449
134	0x3f10b9fc	0.5653379
135	0xbf043a1d	-0.51651174
136	0x3f919e0d	1.1376358
137	0x3fa040c1	1.2519761
138	0x3e4d2bfc	0.2003631
139	0xbee351ed	-0.44398442
140	0xbbe155cc	-0.006876683
141	0x3e10e8a2	0.14151242
142	0xbf462398	-0.7739806
143	0x3f9ab9b3	1.2087921
144	0xbe2df70a	-0.16988769
145	0x3dc1b0bf	0.0945754
146	0xbf5d9394	-0.8655331
147	0xbf5b2671	-0.8560553
148	0xbfd9b9c2	-1.7009814
149	0xbfae61f9	-1.3623649
150	0x3f29e5df	0.6636638
151	0x3f124f14	0.57151914
152	0x3ed0d680	0.4078865
153	0xbef540ca	-0.47900993
154	0x3f37ce96	0.717996
155	0x3f85938d	1.0435654
156	0x3f1e1944	0.617573
157	0x3e9af8bb	0.3026789
158	0xbf92bf7b	-1.1464685
159	0xbf3bd4a1	-0.7337132
160	0xbfc05982	-1.5027316
161	0xbfdb1142	-1.7114642
162	0x3e3b92ad	0.18317671
163	0x3f19fc44	0.6015055
164	0xbe9ee55d	-0.31034365
165	0x3e0c08d4	0.13675243
166	0xbe79743a	-0.24360743
167	0xbf934940	-1.1506729
168	0xbe85e684	-0.26152432
169	0xbfa604df	-1.2970237
170	0xbf2d43ad	-0.6768139
171	0xbee2ffc7	-0.44335768
172	0xbfcfc456	-1.6231792
173	0xbf4d3ed0	-0.8017397
174	0x3f04c830	0.5186796
175	0x3f305d3a	0.6889225
176	0xbf1e2142	-0.617695
177	0xbfe62790	-1.7980824
178	0xbe81b08f	-0.25330016
179	0x3d4f353e	0.050587885
180	0x3f2c5e41	0.6733132
181	0xbea60ed2	-0.32433182
182	0xbf1b5d39	-0.6068912
183	0xbe1a3c80	-0.15062141
184	0xbeabccd0	-0.33554697
185	0x3ec001c3	0.37501344
186	0xbf55ed30	-0.83565044
187	0x3f0b05e7	0.5430588
188	0xbfaf8b0d	-1.371431
189	0xbfcc2524	-1.5948834
190	0x3f84a7e9	1.0363742
191	0xbf1626e3	-0.58653086
192	0x3ef685cf	0.48148963
193	0x3f9c29d3	1.2200264
194	0x3f873147	1.0561913
195	0xbf6fc3f6	-0.9365839
196	0xbe9ac0c0	-0.30225182
197	0xbeab1f15	-0.3342215
198	0xbf91ad22	-1.1380961
199	0xbf8645ca	-1.0490048

fc1.bias f4 [50]
0	0x3e9f7006	0.31140155
1	0x3d33ba2c	0.04387872
2	0x3e40c94f	0.18826793
3	0xbe217d9d	-0.15770574
4	0x3e2de35e	0.16981265
5	0x3d9c896e	0.076434
6	0xbe8c8393	-0.27444133
7	0x3e583bcc	0.2111656
8	0xbebedc5f	-0.37277505
9	0x3f4ea4ae	0.8072003
10	0x3db5b637	0.08872645
11	0x3f08aaa5	0.5338538
12	0x3d02d005	0.031936664
13	0x3e8b6cda	0.27231485
14	0x3c838778	0.016055807
15	0x3f379887	0.71717113
16	0xbe899f1a	-0.26879197
17	0x3e4a93a4	0.19782883
18	0xbe87a88c	-0.2649578
19	0x3e10c47f	0.14137457
20	0xbdda5a1f	-0.106617205
21	0x3f09de3c	0.5385473
22	0xbee8e2b4	-0.4548546
23	0xbedea5c0	-0.43485832
24	0xbe0a8a9f	-0.13529442
25	0x3f10d13a	0.56569254
26	0x3f511d77	0.81685585
27	0x3e241753	0.16024522
28	0x3ea5e397	0.324002
29	0x3cb96d8a	0.02263524
30	0x3e04ce6b	0.12969367
31	0x3e3c2978	0.18375194
32	0xbecfba3d	-0.40571776
33	0x3e9dcaff	0.30818936
34	0x3f496f9e	0.7868594
35	0xbedc1880	-0.42987442
36	0x3defe475	0.117134966
37	0x3e1f177c	0.15536302
38	0xbe64a518	-0.22328603
39	0xbe70d335	-0.23518069
40	0x3e7a1170	0.24420714
41	0x3c8c6f5d	0.017142946
42	0xbd4fba3c	-0.050714716
43	0x3e7940ff	0.243412
44	0x3e7359c0	0.23764706
45	0x3ef83053	0.48474368
46	0x3ed2f46c	0.41202104
47	0xbdb54098	-0.08850211
48	0x3e860fdb	0.26183972
49	0x3f04e0a7	0.5190529

adv.weight f4 [10, 50]
0	0xbeb5774b	-0.35442576
1	0x3e1bbb3f	0.15208147
2	0x3ec79a0b	0.38984713
3	0xbec6b9b6	-0.3881356
4	0xbe82d2cf	-0.2555146
5	0x3da88fd0	0.08230555
6	0xbdd58006	-0.10424809
7	0xbdbfee03	-0.09371569
8	0xbe357890	-0.17721772
9	0xbdcddcde	-0.10051893
10	0x3cba8ae4	0.022771306
11	0xbe51354a	-0.20430484
12	0xbee3911f	-0.44446656
13	0x3ec6fcb5	0.38864675
14	0xbe017cbb	-0.12645237
15	0x3edc53fc	0.43032825
16	0x3c7130a5	0.01472107
17	0xbdc62e83	-0.0967684
18	0x3e862b3d	0.26204863
19	0xbe5d0f58	-0.21587884
20	0x3e0e1684	0.13875777
21	0x3efc6a38	0.49299788
22	0x3eaf0ab8	0.34187865
23	0x3e8595eb	0.2609094
24	0x3dc4bbdd	0.096061446
25	0xbd9a7c83	-0.0754328
26	0x3eb14228	0.34620786
27	0xbce8c028	-0.02841194
28	0xbef16eb6	-0.47154778
29	0xbe31944d	-0.17341729
30	0x3d1dd658	0.038534492
31	0xbd45a722	-0.048255093
32	0xbe4827d3	-0.19546442
33	0xbe57651f	-0.21034668
34	0x3f2c5ae3	0.6732618
35	0xbdc9c01a	-0.098510936
36	0xbec27870	-0.37982512
37	0xbe7dc11a	-0.24780694
38	0xbe8f7f14	-0.2802664
39	0x3e34a2e9	0.1764027
40	0xbdd4d4fb	-0.10392185
41	0x3e130ece	0.14361116
42	0x3cdf4e45	0.027259002
43	0xbe26dabd	-0.1629438
44	0xbe40be23	-0.18822531
45	0x3d922b55	0.07137171
46	0x3e29b0fd	0.16571422
47	0xbf0597a1	-0.5218449
48	0x3e9cde69	0.30638435
49	0x3e729833	0.23690872
50	0x3e06b37a	0.13154402
51	0x3f0fbcc1	0.5614739
52	0xbc037b79	-0.008025044
53	0xbeaf96a1	-0.34294608
54	0xbf00fed0	-0.50388813
55	0xbdd3f163	-0.10348775
56	0x3d09dd21	0.03365815
57	0xbe5a8193	-0.21338491
58	0xbdfcdf65	-0.123472966
59	0x3ed19813	0.40936336
60	0x3ea0016e	0.3125109
61	0xbb81773b	-0.003950981
62	0x3e26d295	0.16291268
63	0x3e5cb299	0.21552505
64	0xbefb155e	-0.4903974
65	0x3ed99563	0.42496786
66	0xbedacfc3	-0.42736635
67	0x3da10d68	0.07863885
68	0x3e0b8602	0.13625339
69	0xbed1fcd7	-0.41013214
70	0xbe13d6e5	-0.14437445
71	0x3d702b2e	0.05863493
72	0x3e94ff7d	0.29101172
73	0x3e1e7ae8	0.15476573
74	0xbdd1ea80	-0.102498055
75	0xbe0840ba	-0.13305941
76	0x3f242b4d	0.6412857
77	0xbe92638a	-0.28591567
78	0xbdbef43b	-0.09323927
79	0xbd095191	-0.033525053
80	0xbe47f4a3	-0.19526915
81	0x3e779569	0.24178089
82	0x3d9eebbd	0.07759807
83	0xbd08a9f3	-0.0333652
84	0x3f266732	0.65001214
85	0x3d9dd2de	0.07706235
86	0x3e1bfed6	0.15233931
87	0xbea92e97	-0.33043358
88	0x3e03e466	0.12880096
89	0xbdeeef11	-0.11666692
90	0xbe43aa33	-0.19107895
91	0x39ec1102	0.000450261
92	0xbeb46777	-0.35235187
93	0xbefa2dcd	-0.48863068
94	0x3d8dd718	0.069257915
95	0x3eb72e57	0.35777542
96	0xbd63a4fa	-0.055577256
97	0xbee13e66	-0.4399292
98	0x3edac9fe	0.42732233
99	0xbd0be819	-0.034156892
100	0x3df6a7e4	0.12043741
101	0x3e958c81	0.29208758
102	0x3f09cc67	0.5382752
103	0xbed2bc55	-0.4115931
104	0xbe8db718	-0.27678752
105	0xbcba4388	-0.02273728
106	0xbe6e0867	-0.23245393
107	0xbf062aaa	-0.5240885
108	0xbd6a5d71	-0.05721802
109	0xbc3db889	-0.011579641
110	0x3e980d8e	0.2969784
111	0x3d89f75f	0.067366354
112	0xbeb43229	-0.3519452
113	0x3f053a1c	0.5204179
114	0xbdf4b8d6	-0.11949317
115	0x3eab6785	0.33477417
116	0xbe85aca8	-0.2610829
117	0x3c92f7c3	0.017940408
118	0xbe54bebc	-0.20775884
119	0xbe980023	-0.29687604
120	0xbe650115	-0.22363694
121	0x3f1b22f8	0.60600233
122	0xbe89c088	-0.26904702
123	0x3e98ec1d	0.2986764
124	0xbd52e1c6	-0.051484846
125	0xbbf2ec42	-0.007413418
126	0x3eb5c8dc	0.35504806
127	0xbda2759c	-0.079325885
128	0xbe94a4b5	-0.29031911
129	0xbdc77004	-0.09738162
130	0x3ebac3a9	0.36477402
131	0x3e9e5425	0.30923572
132	0x3e3ac4ae	0.1823909
133	0x3e4f3c46	0.20237836
134	0x3ee3f39b	0.44521794
135	0x3e919d25	0.28440204
136	0xbd9fdaa6	-0.07805376
137	0xbe54fe8e	-0.2080023
138	0xbd2fb658	-0.042898506
139	0x3e669adb	0.2252001
140	0xbe8790af	-0.26477572
141	0x3e8549c6	0.26032847
142	0xbec6926e	-0.38783592
143	0xbec31f61	-0.38109878
144	0x3d0ecec9	0.034865174
145	0x3e5a355c	0.21309417
146	0x3e74c008	0.23901379
147	0xbe2ecef7	-0.17071138
148	0x3c90ac93	0.017660415
149	0xbe97046b	-0.29495558
150	0x3e41a718	0.18911397
151	0x3ef7ead9	0.48421362
152	0x3ea4b8e2	0.32172304
153	0xbec41556	-0.38297528
154	0xbd5a3445	-0.053272504
155	0xbe2be55a	-0.1678671
156	0xbd189a47	-0.037256505
157	0xbeac00ba	-0.33594304
158	0x3dc441e6	0.09582882
159	0x3cf492c8	0.029855147
160	0xbd26852b	-0.040654343
161	0x3d23af70	0.039962232
162	0xbe860767	-0.26177523
163	0x3e986d29	0.29770783
164	0xbe35b41a	-0.17744485
165	0x3e6c0581	0.23048975
166	0x3d9c5f5b	0.07635375
167	0xbe5cf6eb	-0.21578567
168	0xbe716d9e	-0.23576972
169	0xbe6b1f2f	-0.22961114
170	0xbe917486	-0.28409213
171	0x3ddd2e57	0.10799854
172	0x3e7fb99e	0.24973151
173	0x3cdb96a0	0.026805222
174	0x3ed37960	0.4130354
175	0x3e724a32	0.23661116
176	0x3f0af27a	0.5427624
177	0xbdd0f71b	-0.10203382
178	0xbebc18e9	-0.36737755
179	0xbd78c948	-0.06073883
180	0xbd8b481a	-0.06800862
181	0x3f17bfc0	0.5927696
182	0xbea0800b	-0.3134769
183	0xbdc8ee78	-0.09811109
184	0x3e83bbba	0.25729162
185	0xbdb8b1c1	-0.09018279
186	0xbe14d1db	-0.14533179
187	0xbeef2e14	-0.46714842
188	0x3df4be54	0.11950365
189	0x3ece6341	0.403101
190	0xbede712d	-0.4344572
191	0xbe1ae2bd	-0.15125556
192	0xbe583bb9	-0.21116532
193	0xbe0b833d	-0.13624282
194	0xbebee8c6	-0.37286967
195	0xbc57351c	-0.013135221
196	0x3d0f6c3f	0.03501534
197	0x3d837d4b	0.06420382
198	0x3ef02323	0.46901807
199	0xbe8599f5	-0.26094022
200	0xbe869562	-0.26285845
201	0x3e0a72b1	0.13520314
202	0x3d5e6c77	0.05430266
203	0x3c814e43	0.015784388
204	0x3cd65fdd	0.026168758
205	0x3d903b02	0.07042505
206	0x3df633c1	0.1202159
207	0xbe4bdb4c	-0.19907874
208	0xbeb78a03	-0.35847482
209	0x3d100393	0.03515966
210	0x3f0b7fb9	0.54491764
211	0xbd0c22bd	-0.034212817
212	0xbececadf	-0.40389153
213	0x3ea7493a	0.32673055
214	0xbf018794	-0.505975
215	0x3e17e515	0.14833482
216	0xbe985cda	-0.2975834
217	0xbe85562f	-0.26042315
218	0xbdaec13c	-0.0853295
219	0x3ddd7316	0.108129665
220	0x3d561441	0.05226541
221	0x3dc98306	0.09839444
222	0x3ec4a5a4	0.38407624
223	0xbd496398	-0.049167246
224	0xbe5e2418	-0.21693456
225	0x3e807d2b	0.25095496
226	0x3f53e9f3	0.82778853
227	0x3d3d7ae7	0.046259787
228	0xbec79b8d	-0.38985863
229	0x3d2f240a	0.04275898
230	0x3e3ef924	0.18649727
231	0x3eaa7cf3	0.33298454
232	0xbd3ea454	-0.046543434
233	0xbe029d96	-0.12755427
234	0x3f447b79	0.76750904
235	0x3dac9e63	0.08428647
236	0x3d549433	0.051899146
237	0xbee33e97	-0.4438369
238	0x3e6e93fa	0.23298636
239	0x3e9f411b	0.3110436
240	0xbee5a4ce	-0.44852298
241	0x3dfe3277	0.12411969
242	0xbe9151c0	-0.28382683
243	0xbd2e5118	-0.042557806
244	0xbdc39c36	-0.09551279
245	0x3ea36f7f	0.31921002
246	0xbe11f694	-0.14254218
247	0xbe1da059	-0.15393199
248	0x3d3f64fb	0.04672716
249	0xbe0e6eb5	-0.13909419
250	0xbe7ad316	-0.24494585
251	0x3ebb4680	0.36577225
252	0x3e9aefe8	0.3026116
253	0xbdac3565	-0.08408622
254	0xbe65355e	-0.22383639
255	0x3e4af50a	0.19820037

adv.bias f4 [10]
0	0x3dd1f0f0	0.10251033
1	0x3d16a3a1	0.036777142
2	0xbe3505a4	-0.17677933
3	0x3e060985	0.13089569
4	0xbde63df8	-0.11242288
5	0xbccc63dd	-0.024949962
6	0x3c8e8806	0.017398845
7	0xbe15efc7	-0.14642249
8	0x3e1a5137	0.15070044
9	0xbe948ceb	-0.29013762

val.weight f4 [1, 50]
0	0xbc66b1da	-0.014080489
1	0x3f13b5cd	0.5769928
2	0x3e9397d1	0.28826764
3	0xbecda18e	-0.4016232
4	0x3c94e699	0.018176364
5	0xbe8fe8bb	-0.28107247
6	0xbd74cb13	-0.05976398
7	0xbec25506	-0.37955493
8	0x3bcf946d	0.0063348324
9	0x3e4fc3ff	0.2028961
10	0x3f16940f	0.5881967
11	0xbf018c9c	-0.5060518
12	0xbce97d3c	-0.0285021
13	0x3f120f91	0.57055
14	0xbee7dcb5	-0.45285574
15	0x3f89007c	1.0703273
16	0xbe7f28f9	-0.24917974
17	0xbef0a96f	-0.47004268
18	0xbead2971	-0.3382068
19	0xbf040d6b	-0.51582974
20	0xbd8ce030	-0.06878698
21	0x3f4acf8d	0.7922295
22	0x3e2378c7	0.15964042
23	0x3db1d140	0.086824894
24	0x3ea7fc08	0.32809472
25	0xbeec32da	-0.46132547
26	0x3f862ab5	1.0481783
27	0xbedda4f2	-0.43289906
28	0xbec6c449	-0.3882163
29	0xbee8a1d7	-0.45435974
30	0x3bf08106	0.0073395995
31	0x3f1d238b	0.6138236
32	0x3dc8a88e	0.09797774
33	0x3d9b0dd1	0.07570995
34	0x3f5c0867	0.8595032
35	0x3e94b8d6	0.2904727
36	0x3dfcdb00	0.123464584
37	0xbf27cfd4	-0.65551496
38	0x3eaa47ff	0.33258054
39	0x3e0b9774	0.13631994
40	0xbf4b17b5	-0.7933305
41	0xbec3fca8	-0.382787
42	0xbf183bbc	-0.5946615
43	0xbf5e1788	-0.86754656
44	0xbf3e9dc3	-0.74459475
45	0x3f013159	0.50465924
46	0x3dd11ef5	0.10210983
47	0xbf203b37	-0.62590355
48	0x3e07eee5	0.13274725
49	0xbe6ed334	-0.23322755
