models/ENO_ECO_HEAWIHTQ__08_20_57__314.pt (torch_old, 4167 bytes, 5 tensors)

fc1.weight f4 [50, 4]
0	0xbf62ed57	-0.886434
1	0x3ea014bb	0.31265816
2	0xbf438836	-0.76379716
3	0x3e8bf931	0.27338555
4	0x3f1e6f3f	0.618885
5	0xbe533871	-0.20627
6	0xbfb3047a	-1.3985741
7	0x3ee224bb	0.44168648
8	0x3ee2a84d	0.44269028
9	0x3eea9525	0.45816913
10	0xbf68d260	-0.90946007
11	0x3f67ff0b	0.9062354
12	0xbfd3aab8	-1.6536474
13	0xbefb29d1	-0.4905534
14	0x3dc0fc68	0.09423143
15	0x3dc9ece8	0.098596394
16	0xbf2bf4af	-0.6717023
17	0xbf4cef21	-0.8005238
18	0xbf2c2226	-0.67239606
19	0x3f3387fd	0.70129377
20	0xbde87d1e	-0.11351989
21	0xbed59419	-0.41714552
22	0xbf8e187a	-1.110122
23	0xbf9f18a8	-1.24294
24	0xbe2dc10a	-0.1696817
25	0xbda1afea	-0.07894881
26	0xbf8d082a	-1.1018116
27	0xbece0e1f	-0.4024515
28	0xbf9dd0ac	-1.2329307
29	0x3ce8e8c3	0.028431302
30	0x3f21aa95	0.6315091
31	0x3d60eea0	0.05491507
32	0xbecda4d7	-0.40164825
33	0x3f52609f	0.8217868
34	0xbf908516	-1.1290615
35	0xbf622531	-0.88338
36	0x3ee459f3	0.44599876
37	0xbfe816d6	-1.8131969
38	0xbe3b24fb	-0.18275826
39	0x3f40b38b	0.7527396
40	0x3f0569a6	0.5211433
41	0x3fb48697	1.4103574
42	0x3f80c6ae	1.0060632
43	0xbf185b60	-0.5951443
44	0xbf308585	-0.68953735
45	0xbf3dabdb	-0.74090356
46	0x3e84c1d8	0.2592914
47	0xbf889a7c	-1.0672145
48	0xbf088bb7	-0.5333819
49	0xbf0c0e83	-0.54709643
50	0xbc52b187	-0.012859709
51	0xbf67e570	-0.9058447
52	0x3f918509	1.1368724
53	0x3f872849	1.0559169
54	0x3f4d1a3e	0.8011817
55	0xbf93704c	-1.1518645
56	0xbf66b985	-0.9012683
57	0xc00b7b02	-2.1793828
58	0x3ed85c98	0.42258143
59	0xbe5c2e99	-0.2150215
60	0x3fc3560f	1.5260638
61	0x3f547e0d	0.8300484
62	0x3f11ad91	0.56905466
63	0xbfa6a377	-1.3018636
64	0xbf9f98d3	-1.2468513
65	0xbe623ede	-0.22094294
66	0xbed7db60	-0.42159557
67	0xbedd76fc	-0.4325484
68	0xbfc7126d	-1.5552498
69	0x3ec12141	0.37720683
70	0x3da10bd2	0.07863583
71	0xbef977f4	-0.4872433
72	0x3f1acd14	0.60469174
73	0x3d503340	0.050830126
74	0xbe012d10	-0.12614846
75	0x3f3f1568	0.7464204
76	0xbf6eaa2f	-0.9322843
77	0xbe998a44	-0.299883
78	0xbf60e9df	-0.8785686
79	0xbeb5d5b6	-0.3551461
80	0xbf59ebe4	-0.85125566
81	0x3f7399a6	0.95156324
82	0x3f2fdd4d	0.68697053
83	0xbf04f4d1	-0.5193606
84	0x3f96b4f8	1.1773977
85	0x3f805c8c	1.0028243
86	0xbf8665c3	-1.0499805
87	0x3ef041ba	0.46925145
88	0xbe73a1b3	-0.23792152
89	0xbf06b381	-0.5261765
90	0x3f21d518	0.6321578
91	0x3f8d3b15	1.1033655
92	0x3f8cf495	1.101214
93	0x3f1b0110	0.60548496
94	0x3f435594	0.76302457
95	0x3f2df798	0.67955923
96	0x3ef62a41	0.48079112
97	0x3e605da6	0.21910724
98	0xbf8933cc	-1.0718932
99	0xbf6c8f2f	-0.9240598
100	0xbef96078	-0.48706412
101	0xbf370d04	-0.71504235
102	0xbf374c61	-0.7160092
103	0xbbb14c53	-0.00541071
104	0x3f83089a	1.0237
105	0x3f610752	0.87901795
106	0x3d13ce2f	0.036085304
107	0x3e677230	0.22602153
108	0x3fc8c596	1.5685298
109	0xbecf1056	-0.4044215
110	0xbd88cc4f	-0.06679594
111	0xbf56dd1d	-0.8393114
112	0xbf8e9ad3	-1.1140999
113	0x3d2fa852	0.042885132
114	0xbd917286	-0.07101922
115	0x3f6784f4	0.90437245
116	0xbf2d47e6	-0.67687833
117	0xbeecbb00	-0.4623642
118	0xbfa0d303	-1.2564396
119	0xbe064a33	-0.13114242
120	0x3f86221d	1.047916
121	0xbeac7dfc	-0.33689868
122	0xbf6dbeb9	-0.92869145
123	0x3d8888a6	0.066666886
124	0x3f19f59c	0.60140395
125	0x3dfe97e5	0.12431315
126	0xbcbccc8b	-0.023046752
127	0xbf6ed563	-0.9329435
128	0x3cc43dcd	0.02395525
129	0xbf08fbca	-0.535092
130	0xbf4e9c5a	-0.80707324
131	0xbf3101f3	-0.691436
132	0xbe551aca	-0.20811
133	0x3fa13099	1.2592956
134	0x3f21498d	0.63002855
135	0xbf118c28	-0.56854486
136	0x3f8a3ec5	1.0800406
137	0x3f8e928b	1.1138471
138	0x3d2d7c9e	0.042355172
139	0xbf080eb5	-0.5314744
140	0xb9cf8f6d	-0.00039588977
141	0x3ad7d5a3	0.0016466867
142	0xbf7591a8	-0.9592538
143	0x3fa43d76	1.2831256
144	0xbe10e235	-0.14148791
145	0x3dcc3363	0.09970739
146	0xbf5ce211	-0.8628245
147	0xbf53b5d9	-0.8269935
148	0xbfe8556b	-1.8151067
149	0xbfbfc9fd	-1.4983517
150	0x3f504f28	0.8137078
151	0x3ebc1ea5	0.3674213
152	0x3eba0866	0.36334532
153	0xbefb1747	-0.49041197
154	0x3f47bbda	0.78021014
155	0x3f90d117	1.1313809
156	0x3f0ff69c	0.5623567
157	0x3eaa2178	0.3322866
158	0xbf8d9d26	-1.1063583
159	0xbf36c569	-0.71394974
160	0xbfd14327	-1.6348618
161	0xbfd8e421	-1.694462
162	0x3e6ab131	0.22919156
163	0x3f08ba48	0.5340924
164	0xbede5bc4	-0.43429387
165	0x3d752cb4	0.059857085
166	0xbe820d46	-0.25400752
167	0xbfa145bc	-1.2599406
168	0xbee3143c	-0.44351375
169	0xbfc979b4	-1.5740266
170	0xbf1509f6	-0.58218324
171	0xbf0c7b7a	-0.5487591
172	0xbfded35b	-1.740825
173	0xbf4ce3b1	-0.8003493
174	0x3f041294	0.5159085
175	0x3f191311	0.5979472
176	0xbf38a961	-0.7213345
177	0xbff7e535	-1.9366823
178	0xbe8c3bb2	-0.27389294
179	0xbd6aab7f	-0.057292458
180	0x3f3c0ed8	0.7346015
181	0xbebf5ab2	-0.37373883
182	0xbf0b8b14	-0.5450909
183	0xbddcfb5b	-0.1079013
184	0xbe89ab54	-0.26888525
185	0x3eadfb6c	0.33980882
186	0xbf5665b5	-0.8374894
187	0x3f12d769	0.5735994
188	0xbfbbe6c2	-1.4679797
189	0xbfdd8fd6	-1.730952
190	0x3f89aba8	1.075551
191	0xbf2b6716	-0.6695417
192	0x3f0124c0	0.504467
193	0x3fab1be6	1.3367889
194	0x3f977b10	1.1834431
195	0xbf54268a	-0.82871306
196	0xbeea25be	-0.4573192
197	0xbebee446	-0.37283534
198	0xbf92c12e	-1.1465204
199	0xbf91551b	-1.1354097

fc1.bias f4 [50]
0	0x3eb44637	0.3520982
1	0x3dfebcd7	0.12438362
2	0x3e4a3a85	0.19748886
3	0xbe4ae2db	-0.19813101
4	0x3e740101	0.23828508
5	0x3dabfb2e	0.08397518
6	0xbe8d7301	-0.27626804
7	0x3e4f71c3	0.2025824
8	0xbeb5b753	-0.35491428
9	0x3f155e46	0.58346975
10	0x3dfdbb24	0.1238921
11	0x3f0b6435	0.5444978
12	0x3d88327f	0.06650256
13	0x3ee6c5eb	0.45072874
14	0xbdb8c3ce	-0.09021722
15	0x3f788109	0.9707189
16	0xbeb05482	-0.34439474
17	0x3e598a4e	0.21244165
18	0xbe87a88c	-0.2649578
19	0x3e03d6dd	0.12874933
20	0xbdf4e2b5	-0.119573034
21	0x3f2001b5	0.62502605
22	0xbec9ee9d	-0.3943986
23	0xbedea5c0	-0.43485832
24	0xbdd992f3	-0.106237315
25	0x3f0f5974	0.5599587
26	0x3f855788	1.0417337
27	0x3e19e26b	0.15027778
28	0x3eab33d4	0.3343798
29	0xbbbfe9cb	-0.0058567277
30	0x3f1429b6	0.57876146
31	0x3ea4367f	0.32072827
32	0xbecb5ea8	-0.39720654
33	0x3e59bea0	0.21264124
34	0x3f829ceb	1.0204138
35	0xbe828d61	-0.2549849
36	0x3e145653	0.14486055
37	0x3e0e6184	0.13904387
38	0xbe164225	-0.1467367
39	0xbe6327ee	-0.221832
40	0x3e587d4a	0.21141544
41	0x3d1b1711	0.037863795
42	0xbd1ef530	-0.038808048
43	0x3e621960	0.22079992
44	0x3e777782	0.24166682
45	0x3f1291ea	0.572539
46	0x3ec3023c	0.38087642
47	0xbe138ab0	-0.14408374
48	0x3e5dac6f	0.2164781
49	0x3f0a5a88	0.5404439

adv.weight f4 [10, 50]
0	0xbecf1dda	-0.40452462
1	0x3e954549	0.29154423
2	0x3f0329e8	0.5123582
3	0xbef149a6	-0.47126502
4	0xbea76a8b	-0.32698473
5	0x3da2a8d2	0.07942356
6	0xbdc9288c	-0.09822187
7	0xbe3c0037	-0.18359457
8	0xbe2f97f8	-0.17147815
9	0xbeab1802	-0.33416754
10	0x3d156243	0.036470663
11	0xbe75cf6f	-0.24004911
12	0xbef1e2df	-0.472434
13	0x3f0a7292	0.5408107
14	0xbe2c4b9d	-0.16825719
15	0x3efe521c	0.4967202
16	0xbd11fb93	-0.03564031
17	0xbe231a5b	-0.15928023
18	0x3e862b3d	0.26204863
19	0xbe786747	-0.24258147
20	0x3d78bfb1	0.060729686
21	0x3f261770	0.6487951
22	0x3e569d3b	0.20958416
23	0x3e8595eb	0.2609094
24	0x3e0630f6	0.13104615
25	0xbdd000bf	-0.10156392
26	0x3ef19515	0.47184053
27	0xbed36bf7	-0.41293308
28	0xbf1378a2	-0.57605946
29	0xbe401f51	-0.18761946
30	0x3dbe0196	0.09277646
31	0x3cd0a640	0.0254699
32	0xbe38c88c	-0.18045253
33	0xbe8367ba	-0.25665075
34	0x3f2e3441	0.68048483
35	0x3e7dfa3c	0.24802488
36	0xbec8b0ce	-0.3919739
37	0xbeb49c3e	-0.35275453
38	0xbe8ff995	-0.28120103
39	0x3e5fe59c	0.21864933
40	0xbe168f8c	-0.14703196
41	0x3dffbcc8	0.12487179
42	0xbc18a9bc	-0.009317812
43	0xbe675829	-0.22592224
44	0xbe5fc1be	-0.2185125
45	0x3e185217	0.14875065
46	0x3e0f5996	0.13999018
47	0xbf19619a	-0.59914553
48	0x3eb4b09a	0.35290986
49	0x3e63e5a7	0.22255574
50	0x3e03b723	0.1286283
51	0x3f486e81	0.78293616
52	0x3d2097ad	0.03920715
53	0xbee67792	-0.450131
54	0xbed0d0e5	-0.40784374
55	0xbdf8663b	-0.12128874
56	0xbd8d857a	-0.06910224
57	0xbe6dc73e	-0.23220536
58	0xbe449633	-0.19197921
59	0xbc07a44a	-0.008278916
60	0x3ec9dc65	0.3942596
61	0xbcd0a8fc	-0.025471203
62	0x3da0e8c0	0.078568935
63	0x3ea360aa	0.31909686
64	0xbf300c4b	-0.6876876
65	0x3f080944	0.5313914
66	0xbf0e1307	-0.55497783
67	0x3ce94b7d	0.028478378
68	0x3e0b8602	0.13625339
69	0xbee12fa4	-0.4398166
70	0xbe71b4ee	-0.23604175
71	0x3e66b141	0.22528554
72	0x3de7ba35	0.11314813
73	0x3e1e7ae8	0.15476573
74	0xbe12aff2	-0.1432493
75	0xbde224bd	-0.110421635
76	0x3f895ead	1.0732018
77	0xbf8533a7	-1.0406388
78	0xbd95353d	-0.07285545
79	0xbd6d2ad3	-0.05790217
80	0xbd300acf	-0.042979058
81	0x3ea0b567	0.313884
82	0xbb8982b9	-0.0041964916
83	0xbdbcbd1a	-0.09215756
84	0x3f648c5c	0.8927667
85	0x3e35b66d	0.17745371
86	0x3e01a71f	0.12661408
87	0xbe96ac85	-0.29428497
88	0x3e4292ef	0.19001363
89	0xbdf15245	-0.1178327
90	0xbe79551c	-0.24348873
91	0xbd5d97a5	-0.054099698
92	0xbee411cf	-0.44544837
93	0xbf063d80	-0.5243759
94	0x3d0771c2	0.033067472
95	0x3f04d1fe	0.5188292
96	0xbc855c85	-0.016279468
97	0xbf1671ae	-0.5876721
98	0x3f03d1bb	0.514919
99	0xbd1cc5e0	-0.038274646
100	0x3dcc0258	0.099613845
101	0x3ec1e8e7	0.37873003
102	0x3f0a172e	0.5394162
103	0xbf014784	-0.5049975
104	0xbea32fb0	-0.3187232
105	0xbc2e1b4c	-0.010626625
106	0xbe952ee6	-0.29137343
107	0xbf14f2f3	-0.5818321
108	0xbd6fcd3d	-0.05854534
109	0xbe87c39b	-0.26516423
110	0x3ec2e1ea	0.38062984
111	0x3d3aa3a8	0.04556623
112	0xbec78dc6	-0.38975352
113	0x3f2d3680	0.67661285
114	0xbe611712	-0.21981457
115	0x3ef13be2	0.47116
116	0xbeaeb481	-0.3412209
117	0xbcfc39c4	-0.030789264
118	0xbe54bebc	-0.20775884
119	0xbea5ce55	-0.3238398
120	0xbe958b29	-0.29207733
121	0x3f42d7e2	0.7611066
122	0xbe69a61c	-0.22817272
123	0x3e98ec1d	0.2986764
124	0xbd239f9b	-0.039947134
125	0xbc4d021f	-0.012512713
126	0x3f14e254	0.5815785
127	0xbedaf387	-0.42763922
128	0xbeac7730	-0.33684683
129	0xbded1132	-0.11575545
130	0x3ec86175	0.39136854
131	0x3e968828	0.29400754
132	0x3e05cef8	0.13067234
133	0x3e391ec2	0.1807814
134	0x3f0ca328	0.54936457
135	0x3ed28d25	0.4112331
136	0xbd8fa78a	-0.070143774
137	0xbe7dfdb6	-0.24803814
138	0xbd0b4589	-0.03400186
139	0x3e537620	0.2065053
140	0xbead2ab3	-0.3382164
141	0x3e77390d	0.24142857
142	0xbed11577	-0.4083669
143	0xbee3af6e	-0.4446978
144	0xbc6670bd	-0.014064965
145	0x3e8c4fd7	0.27404663
146	0x3e803c8d	0.25046197
147	0xbe89f6d7	-0.26946136
148	0x3de6ae02	0.11263658
149	0xbe96b7b4	-0.2943703
150	0x3e0e0edd	0.13872857
151	0x3f0176d2	0.5057193
152	0x3e9fef89	0.31237438
153	0xbeec14b8	-0.46109557
154	0xbde0704d	-0.1095892
155	0xbe25579d	-0.16146703
156	0xbd329753	-0.043601345
157	0xbecd6a40	-0.40120125
158	0x3dd32778	0.103102624
159	0xbdcd8c6b	-0.10036548
160	0x3e378d09	0.17924894
161	0xbcaa2d2c	-0.020773493
162	0xbe9cd57f	-0.30631635
163	0x3f11a970	0.56899166
164	0xbe82589e	-0.25458235
165	0x3f003f17	0.5009627
166	0x3bf1f659	0.0073841033
167	0xbe8ec55e	-0.27884954
168	0xbe716d9e	-0.23576972
169	0xbe9019bd	-0.28144637
170	0xbe99dcf2	-0.3005138
171	0x3d89ee20	0.06734872
172	0x3e2ccff1	0.16876198
173	0x3cdb96a0	0.026805222
174	0x3edb9fbf	0.42895314
175	0x3e3811b0	0.17975497
176	0x3f330fe4	0.6994612
177	0xbe55e034	-0.20886308
178	0xbeedac8f	-0.46420714
179	0xbdabc238	-0.08386654
180	0x3e7a981b	0.24472086
181	0x3f4fc13a	0.81154215
182	0xbe7f00e5	-0.24902685
183	0xbe01dcd4	-0.12681895
184	0x3ebd48e8	0.36969686
185	0xbd9823f7	-0.07428735
186	0xbe1f28a2	-0.15542844
187	0xbeeecf04	-0.46642315
188	0x3d84dc62	0.06487347
189	0x3ebd9d91	0.37034276
190	0xbf055446	-0.52081716
191	0xbe3edfe7	-0.186401
192	0xbe60c427	-0.21949826
193	0xbe3a276f	-0.18179105
194	0xbee9dda7	-0.4567692
195	0x3cc3fe71	0.023925038
196	0xbb1d4ea1	-0.0024003165
197	0x3d1e988f	0.03871971
198	0x3f0f4362	0.55962193
199	0xbe9859c2	-0.2975598
200	0xbea56759	-0.3230541
201	0x3e11f0d7	0.1425203
202	0x3d5f1962	0.054467566
203	0xbd7e7df2	-0.06213183
204	0xbe08954a	-0.133382
205	0x3d871969	0.065966435
206	0xbccfa442	-0.025346879
207	0xbe9063ab	-0.2820104
208	0xbed26361	-0.41091445
209	0xbde8f73b	-0.113752805
210	0x3ecadd92	0.3962217
211	0xbd35f45d	-0.044422496
212	0xbed0dfb5	-0.40795675
213	0x3f021a00	0.5082092
214	0xbf0b65a6	-0.5445198
215	0x3e9cd9dc	0.30634964
216	0xbec1f25c	-0.37880218
217	0xbea33683	-0.31877527
218	0xbdaec13c	-0.0853295
219	0x3d8634d9	0.06553049
220	0xbbe77ee8	-0.007064689
221	0x3e0b5f12	0.13610485
222	0x3e98cb16	0.29842442
223	0xbd496398	-0.049167246
224	0xbe6d94c5	-0.23201282
225	0x3e65c9eb	0.22440307
226	0x3f742c6d	0.9538029
227	0xbe75d64d	-0.2400753
228	0xbeff1960	-0.49824047
229	0x3bcb07ec	0.0061960127
230	0x3eec8a87	0.46199438
231	0x3edea54c	0.43485487
232	0xbdb00ec2	-0.08596565
233	0xbe1f85b3	-0.15578346
234	0x3f4e5b01	0.8060761
235	0x3eb42cfd	0.35190573
236	0x3cecf360	0.028924644
237	0xbf001ddc	-0.5004556
238	0x3e7eb68f	0.24874328
239	0x3e82ad28	0.25522733
240	0xbefd7681	-0.49504474
241	0x3dd77352	0.105200425
242	0xbed75cf0	-0.42063093
243	0xbde6e1a4	-0.11273506
244	0xbdb0dda8	-0.086360276
245	0x3eb7a147	0.35865232
246	0xbe4404a0	-0.1914239
247	0xbe373e95	-0.17894967
248	0x3d875c8b	0.06609448
249	0xbe225fdb	-0.15856878
250	0xbe88b5ab	-0.26701102
251	0x3ef5c923	0.48005018
252	0x3eb82e2f	0.35972735
253	0xbe1116a3	-0.14168791
254	0xbe66b0f5	-0.22528441
255	0x3e3c7815	0.18405183

adv.bias f4 [10]
0	0x3da59399	0.08084793
1	0x3dd0ec0d	0.10201273
2	0xbe21fd0a	-0.15819183
3	0x3d9caf08	0.07650572
4	0xbdec2b63	-0.11531713
5	0xbd4e3781	-0.0503459
6	0x3c4e2c42	0.012583794
7	0xbe251ea9	-0.16124977
8	0x3e0b7086	0.13617143
9	0xbea94295	-0.3305861

val.weight f4 [1, 50]
0	0xbd88254e	-0.0664774
1	0x3f4afba1	0.79290205
2	0x3ea6bef3	0.32567558
3	0xbf0883a9	-0.533259
4	0xbd11d250	-0.03560096
5	0xbe9ebc09	-0.31002834
6	0xbe4a24a0	-0.19740534
7	0xbef82402	-0.48464972
8	0xbd78a94b	-0.060708325
9	0xbf159e96	-0.5844511
10	0x3f43a4e1	0.7642346
11	0xbf12984d	-0.5726364
12	0xbdee4224	-0.11633709
13	0x3f6f9c76	0.93598115
14	0xbf22546f	-0.63410085
15	0x3fb0ec74	1.382216
16	0xbec5698d	-0.3855709
17	0xbf104f8b	-0.5637137
18	0xbead2971	-0.3382068
19	0xbf163757	-0.5867819
20	0xbe50728b	-0.20356195
21	0x3f7cb835	0.9871858
22	0xbe1095a7	-0.14119588
23	0x3db1d140	0.086824894
24	0x3e8f58ab	0.27997336
25	0xbf00b611	-0.5027781
26	0x3fc81998	1.563281
27	0xbf85c96b	-1.0452093
28	0xbef2b06d	-0.47400227
29	0xbf01abcb	-0.5065276
30	0x3ebce071	0.36889985
31	0x3f2ab82f	0.6668729
32	0x3cdb8f19	0.026801633
33	0xbd0e53f9	-0.03474805
34	0x3f8f8b67	1.1214417
35	0x3f1dc99b	0.6163575
36	0x3dac4ccd	0.08413086
37	0xbf484818	-0.78235006
38	0x3ee42b84	0.4456445
39	0x3be9ca88	0.0071347393
40	0xbf6182a9	-0.88089997
41	0xbee7ff14	-0.45311797
42	0xbf349901	-0.70545965
43	0xbf74923e	-0.9553565
44	0xbf532734	-0.82481694
45	0x3f20f185	0.6286853
46	0x3db83424	0.0899432
47	0xbf466421	-0.77496535
48	0x3e981688	0.2970469
49	0xbe8d130f	-0.27553603
