models/ENO_ECO_HEAWIHTQ__07_45_11__314.pt (torch_old, 4167 bytes, 5 tensors)

fc1.weight f4 [50, 4]
-0.76544344 0.34883705 -0.7907194 0.34518212 0.52267075 -0.121952884 -1.3640262 0.45204327
0.229933 0.63014835 -0.94284326 0.76499754 -1.465263 -0.44851744 -0.004051177 0.06302574
-0.43493283 -0.6255963 -0.66965556 0.92163783 -0.024141636 -0.57970405 -1.086741 -1.1661857
-0.13344687 -0.27263677 -1.0094482 -0.18097776 -1.0192617 0.08747136 0.64183396 0.18481717
-0.2583103 0.8780805 -1.1052887 -0.7763908 0.7948572 -0.06901454 -0.37166363 1.0822941
0.6152369 1.6443468 0.683484 -0.61784494 -0.5592787 -0.8836406 0.27974924 -0.9343636
-0.4027272 -0.5715081 0.015454617 -0.82916224 1.03561 1.0384896 0.70080715 -1.2015703
-0.9729199 -1.7454543 0.31272903 -0.078803964 1.4009652 0.72258824 0.74810845 -1.3013433
-1.0835791 -0.13360164 -0.45565584 -0.31046233 -1.3755784 0.20669632 0.08991431 -0.36356983
0.60469174 0.050830126 -0.12614846 0.7464204 -0.78753406 -0.39730814 -0.8740454 -0.22235416
-0.6639069 1.2152128 0.6546769 -0.41759178 1.0642639 1.1007276 -1.0092707 0.4121117
-0.26644352 -0.2499323 0.71280265 1.2231724 1.101214 0.60548496 0.76302457 0.67955923
0.40907738 0.4331421 -1.1291986 -0.9969493 -0.3727246 -0.7798455 -0.7010719 0.10387884
0.96862125 0.90660435 -0.025242029 0.11729588 1.2599196 -0.38331097 0.010285803 -0.7586906
-0.88873297 -0.055895958 -0.11623141 0.95162255 -0.60584134 -0.65999323 -1.2145833 -0.10061556
1.0757744 -0.39373636 -0.91034305 -0.052389205 0.5269025 0.32717773 -0.00448089 -0.9475909
0.019789994 -0.6327532 -0.8503211 -0.7027092 -0.19249462 1.3530734 0.57169825 -0.56502736
1.031471 1.4943506 0.23318842 -0.4823559 -0.10475725 0.05196805 -0.8285518 1.1560473
-0.1571227 0.18954928 -0.89182633 -0.86630636 -1.7577755 -1.5174078 0.70275414 0.5478989
0.4078865 -0.47900993 0.717996 1.0435654 0.5200055 0.47763133 -1.0980585 -0.94547254
-1.5060292 -1.7208296 0.18027064 0.56312084 -0.29171747 -0.06168871 -0.22474656 -1.1214455
-0.17810267 -1.0971645 -0.6810017 -0.40984532 -1.6226939 -0.86929566 0.5063153 0.65290517
-0.6837571 -1.5993283 -0.33777082 -0.01065889 0.65759087 -0.26725715 -0.62235546 -0.18350358
-0.3632805 0.4317457 -0.85344464 0.5142652 -1.3794854 -1.5910546 0.96822333 -0.62160933
0.5751798 1.2982583 0.98627377 -0.9400198 -0.24348071 -0.3051304 -1.1195303 -1.0295218
00000000: 1af4 43bf c59a b23e 966c 4abf b6bb b03e
00000010: c0cd 053f 6fc2 f9bd 6998 aebf 3772 e73e
00000020: 8e73 6b3e 6751 213f 2d5e 71bf e1d6 433f
00000030: bd8d bbbf 14a4 e5be bcbf 84bb a413 813d
00000040: 84af debe 1427 20bf 8c6e 2bbf 75f0 6b3f
00000050: aec4 c5bc 7c67 14bf 541a 8bbf 9345 95bf
00000060: 4ca6 08be 0c97 8bbe 9935 81bf 3c52 39be
00000070: 2b77 82bf 2f24 b33d 3b4f 243f b640 3d3e
00000080: 3f41 84be e2c9 603f 1a7a 8dbf 8cc1 46bf
00000090: c37b 4b3f 7f57 8dbd b24a bebe 9d88 8a3f
000000a0: 2a80 1d3f f579 d23f cff8 2e3f 162b 1ebf
000000b0: e42c 0fbf 4536 62bf 4b3b 8f3e 7432 6fbf
000000c0: 4232 cebe 5b4e 12bf 5d35 7d3c fa43 54bf
000000d0: de8e 843f 3aed 843f 1968 333f 0ecd 99bf
000000e0: 4711 79bf 0c6b dfbf 051e a03e f963 a1bd
000000f0: d452 b33f 8bfb 383f 0984 3f3f 6b92 a6bf
00000100: b8b2 8abf dece 08be b94b e9be ebf4 9ebe
00000110: f412 b0bf 33a8 533e fe24 b83d d325 babe
00000120: 14cd 1a3f 4033 503d 102d 01be 6815 3f3f
00000130: d59b 49bf f96b cbbe 70c1 5fbf cfb0 63be
00000140: cdf5 29bf 188c 9b3f e898 273f 97ce d5be
00000150: cd39 883f a4e4 8c3f c82f 81bf 4e00 d33e
00000160: 496b 88be 41ee 7fbe 3c7a 363f ea90 9c3f
00000170: 95f4 8c3f 1001 1b3f 9455 433f 98f7 2d3f
00000180: 9772 d13e cdc4 dd3e 9489 90bf 1238 7fbf
00000190: c2d5 bebe f4a3 47bf 7379 33bf 6ebe d43d
000001a0: 90f7 773f 3917 683f 5fc8 cebc d338 f03d
000001b0: 0c45 a13f 5641 c4be c985 283c 8c39 42bf
000001c0: 0184 63bf 29f3 64bd bc0a eebd 899d 733f
000001d0: 6b18 1bbf 51f5 28bf 7777 9bbf 880f cebd
000001e0: fab2 893f d097 c9be 3e0c 69bf 1096 56bd
000001f0: 15e3 063f d783 a73e 6ed4 92bb 5195 72bf
00000200: a01e a23c 1dfc 21bf a5ae 59bf c0e4 33bf
00000210: 4f1d 45be 8231 ad3f d15a 123f a2a5 10bf
00000220: 3e07 843f e146 bf3f f2c8 6e3e 5af7 f6be
00000230: f88a d6bd 73dc 543d f91b 54bf 5cf9 933f
00000240: c6e4 20be 3519 423e bb4e 64bf 41c6 5dbf
00000250: cafe e0bf 6b3a c2bf b2e7 333f 1a43 0c3f
00000260: 80d6 d03e ca40 f5be 96ce 373f 8d93 853f
00000270: 151f 053f 188c f43e 2e8d 8cbf 7d0a 72bf
00000280: 91c5 c0bf 2544 dcbf de98 383e b028 103f
00000290: fe5b 95be 4dad 7cbd f623 66be 878b 8fbf
000002a0: 8c60 36be e36f 8cbf 2156 2ebf 3fd7 d1be
000002b0: 6fb4 cfbf 298a 5ebf e19d 013f cb24 273f
000002c0: b50a 2fbf cab6 ccbf 4cf0 acbe a0a2 2ebc
000002d0: e057 283f eed5 88be b052 1fbf 5de8 3bbe
000002e0: e7ff b9be c60d dd3e 597b 5abf e2a6 033f
000002f0: fa92 b0bf ada7 cbbf 7cdd 773f ca21 1fbf
00000300: fc3e 133f 542d a63f 707c 7c3f 23a5 70bf
00000310: 0253 79be 0d3a 9cbe c54c 8fbf 5fc7 83bf

fc1.bias f4 [50]
0.30666035 0.053916246 0.20956393 -0.05339029 0.29004225 0.08647522 -0.29646978 0.24120407
-0.32208064 0.4817025 0.32440695 0.5363657 0.04799374 0.32148466 0.08836215 0.70156276
-0.29484093 0.20439072 -0.2649578 0.12164176 -0.05776541 0.5679426 -0.36662805 -0.43485832
-0.080892906 0.56383425 0.90192115 -0.016793389 0.38162276 0.046322573 0.6249462 0.18368502
-0.41163164 0.3028744 0.6575935 -0.3788127 0.108017534 0.24790497 -0.22328603 -0.13073517
0.29368404 0.0093142465 -0.10332324 0.31175795 0.32561034 0.48561898 0.40378228 -0.028435195
0.23821998 0.52262425
00000000: 9602 9d3e 48d7 5c3d ed97 563e c7af 5abd
00000010: 6b80 943e ec19 b13d e3ca 97be 33fe 763e
00000020: c1e7 a4be b6a1 f63e ab18 a63e 434f 093f
00000030: 1595 443d a399 a43e 37f7 b43d 9e99 333f
00000040: 64f5 96be cd4b 513e 8ca8 87be 511f f93d
00000050: 6c9b 6cbd b064 113f acb6 bbbe c0a5 debe
00000060: 2eab a5bd 7157 103f 4ee4 663f 4a92 89bc
00000070: 0f64 c33e bdbc 3d3d 79fc 1f3f ed17 3c3e
00000080: 62c1 d2be 5a12 9b3e 0c58 283f bdf3 c1be
00000090: 4c38 dd3d cdda 7d3e 18a5 64be 71df 05be
000000a0: c15d 963e c89a 183c 239b d3bd bd9e 9f3e
000000b0: 66b6 a63e 0da3 f83e 8dbc ce3e edf0 e8bc
000000c0: f0ef 733e b4ca 053f

adv.weight f4 [10, 50]
-0.3212806 0.11584202 0.20786051 -0.33690378 -0.2897123 0.10360851 -0.12740685 -0.08746448
-0.118095845 -0.2219166 0.13521826 -0.20611967 -0.43059042 0.35852632 -0.11945491 0.3711945
0.04106116 -0.07869424 0.26204863 -0.20747863 0.20132437 0.5105682 0.35901284 0.2609094
0.112609416 -0.099499054 0.4272824 -0.13451512 -0.45713094 -0.21415432 0.2112938 -0.029208127
-0.1679552 -0.16330278 0.73662215 0.026230773 -0.3394811 -0.2684127 -0.2802664 0.12602873
-0.13222322 0.1732047 0.14734791 -0.16021416 -0.21624497 0.10454468 0.19148329 -0.5259418
0.3206327 0.2650296 0.15512589 0.65590066 0.065109864 -0.26402023 -0.42130092 -0.08935687
0.05786613 -0.18604468 -0.085756436 0.27375364 0.42480448 0.0044361977 0.18620877 0.38348678
-0.49797043 0.44896418 -0.40508133 0.087641366 0.13625339 -0.38784638 -0.109922685 0.012906433
0.28275666 0.15476573 -0.089296505 -0.11704977 0.6455342 -0.6211309 -0.08148114 -0.004874864
0.12479586 0.20894213 0.116144106 -0.035382047 0.62572986 -0.06949842 0.17860402 -0.3896685
0.12880096 -0.16333511 -0.23339176 0.004787395 -0.2600045 -0.51430863 0.058127366 0.38006738
-0.028864251 -0.40448776 0.499538 -0.01231326 0.13035226 0.24294549 0.37976223 -0.3182475
-0.2739755 -0.021812638 -0.26017267 -0.50486726 -0.0813543 -0.08861237 0.2659338 0.07534843
-0.31973004 0.593574 -0.1704441 0.39159226 -0.22111036 0.05032949 -0.20775884 -0.30482224
-0.19040516 0.49550974 -0.20268083 0.2986764 -0.078618065 0.003151268 0.27440545 -0.23148794
-0.25672618 -0.11837878 0.5298737 0.2210371 0.15774167 0.20314656 0.26617748 0.29718766
-0.07612863 -0.30360878 -0.042898506 0.16443641 -0.2228723 0.25231978 -0.28138018 -0.3642343
0.05699884 0.20237705 0.23829663 -0.2589384 0.018457735 -0.29824618 0.19699708 0.52703696
0.2597112 -0.34737992 -0.045505002 -0.17254478 -0.055859163 -0.3200095 0.12606764 0.11454064
0.09433045 0.00417295 -0.2893328 0.34462994 -0.15617724 0.27075 0.092321746 -0.2270819
-0.23576972 -0.23911782 -0.27762133 0.051006947 0.19418521 0.026805222 0.4096117 0.21506989
0.5727684 -0.20127082 -0.37103716 -0.062135898 0.051150683 0.7676082 -0.28579715 -0.1173432
0.23441184 -0.20832603 -0.14528365 -0.40323412 0.11950365 0.35293758 -0.45587647 -0.14580119
-0.1435963 -0.122036666 -0.35359496 -0.038200594 0.04491203 0.074828126 0.52281946 -0.27122545
-0.2325476 0.11343276 -0.0466705 0.06705202 -0.06939002 0.057166368 0.028070442 -0.18367587
-0.2913544 -0.10043242 0.57607746 -0.051148646 -0.38911307 0.45441416 -0.5340278 0.09523578
-0.2521859 -0.22686432 -0.0853295 0.14015591 0.13792047 -0.04729233 0.4682277 -0.049167246
-0.2061672 0.24567832 0.761404 -0.16114376 -0.38285545 0.0589441 0.38466486 0.19796942
-0.026156414 -0.060028117 0.6888612 0.1318404 0.08559193 -0.58258545 0.23298636 0.23645677
-0.47761568 0.14763066 -0.25776327 -0.02366147 -0.09878973 0.2620613 -0.12380285 -0.14836554
0.05792071 -0.118580654 -0.2517852 0.4000227 0.34250277 -0.0289861 -0.17265786 0.18812916
00000000: e47e a4be 953e ed3d 63d9 543e a77e acbe
00000010: 2c55 94be b330 d43d f176 02be 9420 b3bd
00000020: 3cdc f1bd 1b3e 63be a876 0a3e 0911 53be
00000030: 5976 dcbe c390 b73e c7a4 f4bd 350d be3e
00000040: bf2f 283d 722a a1bd 3d2b 863e 4775 54be
00000050: fa27 4e3e 99b4 023f 88d0 b73e eb95 853e
00000060: c49f e63d 29c6 cbbd c2c4 da3e 55be 09be
00000070: 110d eabe 454b 5bbe 675d 583e e245 efbc
00000080: 73fc 2bbe d838 27be 4593 3c3f ebe1 d63c
00000090: 77d0 adbe 646d 89be 147f 8fbe ad0d 013e
000000a0: 8665 07be 935c 313e 5fe2 163e 2e0f 24be
000000b0: 526f 5dbe 851b d63d 3214 443e 1fa4 06bf
000000c0: f829 a43e f6b1 873e 52d9 1e3e 1be9 273f
000000d0: 5258 853d a92d 87be c1b4 d7be bc00 b7bd
000000e0: 0905 6d3d 7f82 3ebe 12a1 afbd 7029 8c3e
000000f0: f97f d93e 865d 913b 83ad 3e3e 6158 c43e
00000100: fbf5 febe a2de e53e d266 cfbe 517d b33d
00000110: 0286 0b3e cd93 c6be 251f e1bd 8175 533c
00000120: 7bc5 903e e87a 1e3e 16e1 b6bd cab7 efbd
00000130: bb41 253f 6f02 1fbf 95df a6bd 53bd 9fbb
00000140: f994 ff3d edf4 553e f6dc ed3d c4ec 10bd
00000150: d52f 203f 3055 8ebd f9e3 363e a182 c7be
00000160: 66e4 033e 5241 27be 40fe 6ebe 94df 9c3b
00000170: 4f1f 85be bba9 03bf f616 6e3d 3198 c23e
00000180: b974 ecbc 0519 cfbe 72c3 ff3e 8ebd 49bc
00000190: 107b 053e b4c6 783e 3270 c23e 56f1 a2be
000001a0: 8446 8cbe 6bb0 b2bc 5a35 85be fb3e 01bf
000001b0: 159d a6bd 677a b5bd 7a28 883e 4750 9a3d
000001c0: a8b3 a3be 77f4 173f e688 2ebe c87e c83e
000001d0: c16a 62be 4c26 4e3d bcbe 54be a911 9cbe
000001e0: 92f9 42be 74b3 fd3e 908b 4fbe 1dec 983e
000001f0: 8202 a1bd 8185 4e3b df7e 8c3e 2d0b 6dbe
00000200: 9d71 83be 9370 f2bd cea5 073f 8d57 623e
00000210: 0887 213e a705 503e 6a48 883e fb28 983e
00000220: 54e9 9bbd 9c72 9bbe 58b6 2fbd 0562 283e
00000230: a338 64be 0f30 813e 1011 90be eb7c babe
00000240: 9e77 693d ee3b 4f3e 0804 743e 9393 84be
00000250: ad34 973c b9b3 98be 9ab9 493e e5eb 063f
00000260: def8 843e c8db b1be 7463 3abd 94af 30be
00000270: 94cc 64bd 49d8 a3be e017 013e 4894 ea3d
00000280: 5330 c13d 3ebd 883b 6e23 94be 5673 b03e
00000290: edec 1fbe be9f 8a3e 2f13 bd3d 2888 68be
000002a0: 9e6d 71be 4ddb 74be 6224 8ebe a9ec 503d
000002b0: 7dd8 463e a096 db3c a0b8 d13e 483b 5c3e
000002c0: f3a0 123f f019 4ebe 95f8 bdbe 3682 7ebd
000002d0: 6183 513d f981 443f 0154 92be a251 f0bd
000002e0: a809 703e 6b53 55be 3dc5 14be b474 cebe
000002f0: 54be f43d 3cb4 b43e a468 e9be e84c 15be
00000300: e90a 13be 5cee f9bd 660a b5be 3a78 1cbd
00000310: adf5 373d 7d3f 993d 7fd7 053f 10de 8abe
00000320: f520 6ebe 6f4f e83d 9129 3fbd 9252 893d
00000330: 5b1c 8ebd 4827 6a3d fcf3 e53c 8715 3cbe
00000340: 672c 95be 83af cdbd d079 133f 3e81 51bd
00000350: d439 c7be f9a8 e83e 0cb6 08bf fa0a c33d
00000360: 831e 81be 1f4f 68be 3cc1 aebd 0885 0f3e
00000370: 063b 0d3e 9ab5 41bd 8bbb ef3e 9863 49bd
00000380: 7f1d 53be 1993 7b3e 5feb 423f df02 25be
00000390: a105 c4be 5e6f 713d cbf2 c43e 7fb8 4a3e
000003a0: fa45 d6bc 0be0 75bd 3559 303f 2b01 073e
000003b0: d24a af3d 5224 15bf fa93 6e3e b921 723e
000003c0: 0b8a f4be 7e2c 173e 8cf9 83be b3d5 c1bc
000003d0: 4552 cabd e62c 863e 598c fdbd 23ed 17be
000003e0: 443e 6d3d 6ada f2bd fde9 80be c6cf cc3e
000003f0: 865c af3e 4274 edbc 39cd 30be eea4 403e

adv.bias f4 [10]
0.10958458 0.036615543 -0.16742398 0.10089028 -0.11717461 -0.03528114 0.02609237 -0.11420629
0.15893173 -0.2872399
00000000: e16d e03d 2efa 153d 3171 2bbe 909f ce3d
00000010: 3ef9 efbd f582 10bd aabf d53c fde4 e9bd
00000020: 00bf 223e 1c11 93be

val.weight f4 [1, 50]
-0.0012948825 0.61206764 0.19008121 -0.32493258 0.0066190916 -0.26958382 -0.092157975 -0.30841136
0.061226733 0.10575299 0.7518174 -0.5099924 -0.0122866 0.6315845 -0.4255974 1.0745276
-0.21848492 -0.45322466 -0.3382068 -0.5076484 0.00049758516 0.79064363 0.3617763 0.086824894
0.35009593 -0.47267783 1.1843994 -0.5615476 -0.3724418 -0.45642063 0.381364 0.5290151
0.11839727 0.12531537 0.88661295 0.29075587 0.14420386 -0.6947332 0.33258054 0.06051058
-0.8185426 -0.35869902 -0.43131426 -0.8700378 -0.76309633 0.51604223 0.104159854 -0.60715383
0.29592928 -0.20965949
00000000: 0cb9 a9ba 77b0 1c3f a6a4 423e 905d a6be
00000010: f7e4 d83b e406 8abe 52bd bcbd 18e8 9dbe
00000020: e2c8 7a3d 0695 d83d 1b77 403f dd8e 02bf
00000030: bc4d 49bc 86af 213f e7e7 d9be 1f8a 893f
00000040: 83ba 5fbe 100d e8be 7129 adbe 3ff5 01bf
00000050: 6070 023a 9f67 4a3f be3a b93e 40d1 b13d
00000060: c63f b33e d402 f2be 669a 973f 95c1 0fbf
00000070: b1b0 bebe f7af e9be 2442 c33e 896d 073f
00000080: 457a f23d ac52 003e 11f9 623f f4dd 943e
00000090: 2daa 133e 09da 31bf ff47 aa3e f1d9 773d
000000a0: 028c 51bf 66a7 b7be 39d5 dcbe ccba 5ebf
000000b0: 485a 43bf 581b 043f c351 d53d 6f6e 1bbf
000000c0: 0b84 973e fab0 56be
