models/ENO_ECO_HEAWIHTQ__08_24_14__314.pt (torch_old, 4167 bytes, 5 tensors)

fc1.weight f4 [50, 4]
0	0xbff9ef56	-1.9526165
1	0x3ec31a8c	0.3810619
2	0xbf388ea5	-0.7209266
3	0xbf213d87	-0.6298451
4	0x3f0a367a	0.53989375
5	0xbfad670a	-1.354707
6	0xbfa434c9	-1.2828609
7	0x3f04998d	0.517968
8	0xbe81d0f0	-0.2535472
9	0xbe05ab62	-0.13053659
10	0xbf26e9fa	-0.6520077
11	0x400866c9	2.1312735
12	0xc036631c	-2.8497992
13	0xbfd324d0	-1.6495609
14	0xbf013a80	-0.5047989
15	0xbec75338	-0.38930678
16	0xbd9b6887	-0.075882964
17	0x3e82d8db	0.25556073
18	0xc00673ce	-2.1008182
19	0x3f65967f	0.89682764
20	0xbee44acd	-0.44588318
21	0x3ee41438	0.44546676
22	0xbfe16514	-1.7608972
23	0xbf14d928	-0.58143854
24	0xbf0058e2	-0.50135624
25	0x3f677ed5	0.90427905
26	0xc0086e16	-2.131719
27	0xbede463c	-0.4341296
28	0xc0217dca	-2.5233026
29	0xbfa66e5a	-1.3002427
30	0xbde9df65	-0.11419562
31	0xbe967051	-0.29382566
32	0xbf9d59c2	-1.2293017
33	0x3fd1cca4	1.6390576
34	0xc000f6b6	-2.015058
35	0xbf21c910	-0.6319742
36	0x3ea0422b	0.31300482
37	0xc075a8e1	-3.8384326
38	0x3f7ef231	0.99588305
39	0x3e9433bb	0.28945717
40	0x3dabc80b	0.083877645
41	0x40097164	2.1475458
42	0x3fb5a283	1.419022
43	0x3f376390	0.71636295
44	0xbfffb209	-1.9976207
45	0xbf9b7edf	-1.2148093
46	0xbe9be899	-0.30450895
47	0xbfcb6d87	-1.58928
48	0xbff5e140	-1.9209366
49	0xbfda87f6	-1.7072742
50	0xbe52a165	-0.2056938
51	0xbf6f471b	-0.93467873
52	0x3e34a3ab	0.1764056
53	0x3f2a325d	0.664831
54	0x3eda6acb	0.42659602
55	0xc01855a0	-2.3802261
56	0xc0154d3f	-2.3328397
57	0xc02939ac	-2.644145
58	0x3e56ab37	0.20963751
59	0xbf6baee6	-0.9206375
60	0x3fbe5299	1.4868957
61	0x3f63973c	0.8890264
62	0x3f3f3c09	0.7470098
63	0xbfce1216	-1.6099269
64	0xc01a52d7	-2.4113061
65	0xbf8a1369	-1.0787174
66	0xbf50b721	-0.8152943
67	0xbf28ef19	-0.65989834
68	0xc02a2f52	-2.6591382
69	0xbf073801	-0.5281983
70	0xbf34c20e	-0.70608604
71	0xbf929db7	-1.1454381
72	0x3fef6aab	1.8704427
73	0x4058b682	3.3861394
74	0x3f6c95b8	0.9241595
75	0x3fce2e8a	1.6107953
76	0xbfe574d8	-1.7926283
77	0x3ccfc8a6	0.025364231
78	0xbf8d5b93	-1.1043571
79	0xbf52a905	-0.82289153
80	0xbfdf298e	-1.7434556
81	0x3f5b138a	0.8557669
82	0xbf350baa	-0.7072092
83	0xbf7d9b7a	-0.99065363
84	0x3faba6fe	1.3410337
85	0xbebe519c	-0.37171638
86	0xbf45a67e	-0.7720717
87	0x3f4edff2	0.80810463
88	0xbf905b78	-1.1277914
89	0x3f9ddab8	1.2332373
90	0x3f00f9d3	0.503812
91	0x4049deba	3.1542192
92	0x40024a31	2.0357783
93	0x40955945	4.667147
94	0x3efd57a6	0.49480933
95	0x40222fe6	2.5341735
96	0x3f8394fe	1.0279844
97	0xbfd8c5a0	-1.693531
98	0xbedbc333	-0.42922363
99	0xbfe6b2c6	-1.8023307
100	0xbf283a03	-0.6571352
101	0xbf11d286	-0.5696186
102	0xbfb538dd	-1.4157978
103	0xbe3674f3	-0.1781805
104	0x3fd6d455	1.6783549
105	0x3ebec357	0.37258407
106	0x3edb9b30	0.42891836
107	0x3f80e712	1.0070517
108	0x3f21ce37	0.63205284
109	0xc021336c	-2.5187635
110	0x3f86272f	1.0480708
111	0x3d85a5ba	0.065257505
112	0xc01a0a62	-2.4068837
113	0xbfbcd260	-1.4751701
114	0xbf1bbb04	-0.6083224
115	0x3eec2885	0.46124664
116	0xbfb05542	-1.3776019
117	0xbee4fbc5	-0.44723335
118	0xbfbf595f	-1.4949149
119	0xbf000615	-0.5000928
120	0x3f8d6334	1.1045899
121	0xbfa4e51b	-1.2882417
122	0xbf65f5fe	-0.8982848
123	0xbd8716ff	-0.06596183
124	0x3ef1114c	0.4708351
125	0x3e6bd829	0.23031677
126	0xbc97a188	-0.018509641
127	0xbfc401ab	-1.5313009
128	0x3f8097f5	1.0046374
129	0xbfd557e0	-1.6667442
130	0xbf130fda	-0.5744606
131	0xbfbced9e	-1.4760015
132	0xbe0885b4	-0.13332254
133	0x405cfe04	3.453004
134	0x3d98577c	0.07438561
135	0xbe06eefa	-0.131771
136	0x3f98e5cf	1.1945132
137	0x3ebf84b7	0.3740594
138	0x3e5f6054	0.2181409
139	0xbed037d8	-0.40667605
140	0xbf647122	-0.89235127
141	0x3f5a5039	0.8527866
142	0xbe27efdf	-0.16400097
143	0x4027d7c8	2.6225452
144	0xbf2db434	-0.67853093
145	0x3e99ecb5	0.30063406
146	0xbfe09d72	-1.7548048
147	0xbf5d9b40	-0.8656502
148	0xc03d698a	-2.9595666
149	0xc012c0a2	-2.2930074
150	0x3eae6a2f	0.34065387
151	0xbf0d6b95	-0.5524228
152	0x3f01f82c	0.50769305
153	0x3e0e41c9	0.13892283
154	0x3ec1d0b8	0.37854552
155	0x405343f3	3.3010223
156	0x3c3deee2	0.011592599
157	0x3f3fad4b	0.748738
158	0xc011a66e	-2.275783
159	0xbdbf9b7c	-0.09355828
160	0xc0397cc1	-2.8982394
161	0xc01a8dba	-2.4149003
162	0xbe82090c	-0.25397527
163	0xbe4eb1d2	-0.2018502
164	0xbfce4437	-1.6114568
165	0xbf539123	-0.82643336
166	0xbf9465f0	-1.1593609
167	0xbfc7e15c	-1.5615649
168	0xc002e931	-2.0454829
169	0xbff075f3	-1.8785995
170	0x3c1bc6de	0.009507863
171	0xbf7b2f4e	-0.98119056
172	0xc03c61b3	-2.943463
173	0xbfd6c28a	-1.6778119
174	0xbed6cf2b	-0.41954932
175	0xbd5305ce	-0.051519208
176	0xc00ab49a	-2.167273
177	0xc0010937	-2.0161874
178	0xbe72c218	-0.23706853
179	0xbf26a33f	-0.65092844
180	0x3f151c7f	0.58246607
181	0xbf94d48e	-1.1627367
182	0xbf135bfe	-0.57562244
183	0xbe1d2f69	-0.15350117
184	0xbf620019	-0.882814
185	0xbd9e3533	-0.07724991
186	0xbfc13f9b	-1.5097536
187	0x3ebf5580	0.3736992
188	0xc02e1b34	-2.7204103
189	0xc02670f8	-2.600645
190	0x3f34d3ce	0.7063569
191	0xbf8e1f25	-1.1103255
192	0xbdc30b49	-0.09523637
193	0x401a1727	2.407663
194	0x3fc8ebcc	1.569696
195	0x3f01eaef	0.50749105
196	0xbf77c736	-0.96788347
197	0xbd916571	-0.070994265
198	0xbfa71774	-1.3054032
199	0xbfc80e4e	-1.5629365

fc1.bias f4 [50]
0	0xbfc336f8	-1.525115
1	0x3f96b70c	1.1774611
2	0x3fbcc818	1.4748564
3	0xbfad5467	-1.3541383
4	0xbf14ff86	-0.582024
5	0xbfaa6ab7	-1.3313817
6	0xbfca5bba	-1.5809243
7	0xbf8ccaa0	-1.0999336
8	0xc00b36a9	-2.1752112
9	0x3fb3499f	1.4006842
10	0x3fb3b98e	1.4041002
11	0xbf28b5ac	-0.6590221
12	0xbf8474e9	-1.0348178
13	0x3f8347b3	1.0256256
14	0xbf9ca261	-1.2237054
15	0x400b9e70	2.1815453
16	0xbfc43a91	-1.5330373
17	0xbfab1306	-1.336518
18	0x3f9dafc0	1.231926
19	0xbfdef973	-1.7419876
20	0xbfd03e53	-1.626902
21	0x3feec56b	1.8653997
22	0x3f8daf06	1.1069038
23	0x3f253045	0.6452678
24	0xbf148d98	-0.58028555
25	0xbf784f0f	-0.96995634
26	0x400d9d0f	2.212711
27	0x3fad57c9	1.3542415
28	0xbf35f794	-0.710809
29	0xbfb14994	-1.3850579
30	0x3ff7f2ef	1.9371012
31	0x3f6ecd52	0.93282044
32	0xbf25c2ab	-0.64750165
33	0xbf17037f	-0.5898971
34	0x4019abe3	2.4011161
35	0x3f1eb6d9	0.61997753
36	0x3f4e0c24	0.80487275
37	0xbfa451e6	-1.2837493
38	0x3ea00419	0.31253126
39	0xbf918170	-1.1367626
40	0xbf866452	-1.0499365
41	0xbf9a55d8	-1.2057447
42	0xbf8f3767	-1.1188782
43	0xbf8bbeac	-1.0917563
44	0xbf7e06d6	-0.9922918
45	0x3fdcf198	1.7261229
46	0x3f53aff5	0.82690364
47	0xbfa3b2c6	-1.2788932
48	0x3fa05536	1.2526004
49	0xbf3ee1ca	-0.74563277

adv.weight f4 [10, 50]
0	0xbf4abda5	-0.79195625
1	0x3e938b5c	0.2881726
2	0x3eabb60d	0.3353733
3	0xbfe8d64e	-1.8190401
4	0xbf14ad65	-0.5807708
5	0xbe94372a	-0.28948337
6	0xbf91846c	-1.1368537
7	0xbf9cd5ba	-1.2252724
8	0xbfb4e9dc	-1.4133868
9	0xbf509051	-0.8147021
10	0xbdfff455	-0.124977745
11	0xbf30cadc	-0.6905954
12	0xbfd557dc	-1.6667438
13	0x3f84e7e0	1.0383263
14	0xbfb9e755	-1.4523722
15	0x3f453e3e	0.770481
16	0xbf9e81a7	-1.2383317
17	0xbf3fa42c	-0.7485988
18	0xbf904959	-1.1272384
19	0xbf76dc74	-0.96430135
20	0xbf849230	-1.0357113
21	0x3f01a198	0.506372
22	0x3f8f4685	1.1193396
23	0xbfe4d625	-1.7877852
24	0x3fadb393	1.3570427
25	0xbf0f106c	-0.5588443
26	0x3f497953	0.7870075
27	0xbf149d8f	-0.58052915
28	0xbfb59b30	-1.4187984
29	0xbf16d8bf	-0.5892448
30	0x3dc2c398	0.09509963
31	0x3e83626b	0.25661024
32	0x3eedb284	0.4642526
33	0xbfc67fce	-1.5507753
34	0x3f579f89	0.84227806
35	0x3ec7c0a8	0.39014173
36	0xbed5f751	-0.4179025
37	0xbfdc213b	-1.7197641
38	0x3e48987c	0.19589418
39	0xbf3eb201	-0.7449036
40	0xbfb4df13	-1.4130577
41	0xbef0c0a7	-0.47021982
42	0xbf58d9c8	-0.8470731
43	0xbf9d83d7	-1.2305859
44	0xbf805d30	-1.0028439
45	0x3e63df70	0.22253203
46	0x3d2a319d	0.04155122
47	0xc0020b25	-2.0319302
48	0x3eb9df0b	0.3630298
49	0x3d9ab264	0.075535566
50	0x3e9aeafc	0.30257404
51	0x3f507346	0.81425893
52	0x3eaf6fe5	0.34265056
53	0xbfeea8f3	-1.8645309
54	0xbfbf018d	-1.4922348
55	0xbfb43b3c	-1.4080577
56	0xc024ebce	-2.5768924
57	0xbf50ec8a	-0.8161093
58	0xc0250af6	-2.578794
59	0xbf96ce4b	-1.1781706
60	0x3f97ef04	1.1869817
61	0x3c003c5a	0.007826889
62	0xbfe53cfe	-1.7909238
63	0x3ef6580e	0.48114055
64	0xc008f6e2	-2.1400685
65	0x3e976aa3	0.29573545
66	0xc00ef0c8	-2.2334461
67	0x3d4ff556	0.05077108
68	0xc04e3ff5	-3.2226536
69	0xbfaec81f	-1.3654822
70	0xbf741b56	-0.9535421
71	0xbe4c7445	-0.19966228
72	0x3fbb6e17	1.4642972
73	0xc05b118b	-3.4229457
74	0xbf0c9ec2	-0.54929745
75	0xbf946f36	-1.1596439
76	0x3f932ff1	1.1499006
77	0xbfe677d9	-1.8005325
78	0xbf0e5e00	-0.5561218
79	0xbf871fb3	-1.0556549
80	0xbce64329	-0.028108196
81	0x3e794f45	0.24346645
82	0x3ebacf9a	0.36486512
83	0xbfb13485	-1.3844153
84	0x3f5d306b	0.86402005
85	0x3f587d37	0.8456606
86	0x3eafd890	0.34344912
87	0xbfbc7dd8	-1.4725904
88	0x3ea47706	0.32122058
89	0xc0191933	-2.392163
90	0xbf870c52	-1.0550635
91	0xbf1f25af	-0.62166876
92	0xc0018390	-2.023655
93	0xbf93bec9	-1.1542598
94	0xbf7fb842	-0.9989053
95	0x3f2c9b44	0.67424417
96	0x3e9ed4ef	0.3102183
97	0xc0204fe2	-2.5048757
98	0x3fd496c5	1.6608511
99	0x3dcf82fb	0.101324044
100	0xbf3b6dc1	-0.73214346
101	0x3ed4fb4d	0.41597977
102	0xbeb70ddd	-0.35752764
103	0xbfe03e9e	-1.7519109
104	0xbf5357fd	-0.82556134
105	0xbdd32b9f	-0.103110544
106	0xc00409b4	-2.0630922
107	0xbff8eb8e	-1.9446886
108	0xbffab727	-1.9587144
109	0xbf1c5e7a	-0.6108166
110	0x3f1839d6	0.5946325
111	0xbd78f007	-0.060775783
112	0xbee954df	-0.45572564
113	0x3f22927a	0.63504755
114	0xbf8888d5	-1.0666758
115	0x3f0def18	0.55442953
116	0xbf95aa7c	-1.1692653
117	0xbf2eac8b	-0.6823203
118	0xbf45133d	-0.7698248
119	0xbf589df3	-0.8461601
120	0xc00569f8	-2.0845928
121	0x3ee76ddd	0.45201007
122	0x3f531a00	0.8246155
123	0xbf356707	-0.7086033
124	0x3fa26348	1.2686548
125	0x3ee2bcdc	0.44284713
126	0x3e31cf93	0.1736434
127	0xbee4361a	-0.44572526
128	0xbfea411f	-1.8301123
129	0xbe1a817b	-0.15088455
130	0x3ef9b7d4	0.48773062
131	0x3f0ad5e7	0.5423264
132	0x3fe78a4b	1.8089079
133	0xbebe0eca	-0.37120658
134	0x3ecfaf29	0.40563324
135	0x3f053fdd	0.5205057
136	0xbe84e7bd	-0.25958052
137	0xbfd7e7d7	-1.6867627
138	0x3f2654a4	0.649729
139	0xbf952c28	-1.16541
140	0xbfcf42c8	-1.6192255
141	0x3c0d524d	0.008625579
142	0xbf6011c0	-0.87527084
143	0xbffbf2f6	-1.9683521
144	0xbedc79d8	-0.4306171
145	0x3edd891b	0.43268666
146	0xbe38794c	-0.18015021
147	0xbfb8e068	-1.4443483
148	0x3c86463f	0.016390918
149	0xbe84bcf3	-0.25925407
150	0xbed04c3b	-0.4068316
151	0x3eb1bd9e	0.3471498
152	0x3f3255c1	0.696621
153	0xbfbfbe29	-1.4979907
154	0xbf23b0a9	-0.63941437
155	0xbf7ed74d	-0.9954727
156	0xbf7fb6f7	-0.9988856
157	0xbf8d1afb	-1.1023859
158	0xbf326159	-0.6967979
159	0xbf55d232	-0.8352386
160	0x3ea36a1b	0.3191689
161	0xbf34195b	-0.7035119
162	0xbfc0ba99	-1.5056945
163	0x3eb2c632	0.34916836
164	0xbfda6f90	-1.7065296
165	0x3f54d5d1	0.8313876
166	0xbf647676	-0.8924326
167	0xbf598623	-0.849703
168	0xbff2cc50	-1.8968601
169	0xbf88813e	-1.0664442
170	0xbf38a279	-0.72122914
171	0x3d6587d0	0.056037724
172	0x3f4f6dd5	0.81026965
173	0xbfc9a62a	-1.5753834
174	0x3f513665	0.81723624
175	0xbf2f5241	-0.68484885
176	0x3f84145a	1.0318711
177	0xbf40cc4a	-0.7531172
178	0xbf6e6268	-0.93118906
179	0xbf7f53a3	-0.99736995
180	0x3e525ed2	0.20543984
181	0x3f5c6bd0	0.8610201
182	0xbe40ac1b	-0.18815653
183	0xbf48d199	-0.7844482
184	0x3f1cefed	0.613036
185	0x3ed0ecf6	0.40805787
186	0xbe024071	-0.12719895
187	0xbfbbf521	-1.4684182
188	0xbe7191a6	-0.23590717
189	0xbe3e0d13	-0.18559675
190	0xbfe0b676	-1.7555683
191	0xbf80fca4	-1.00771
192	0xbfbfc9c3	-1.4983448
193	0xbf868c4b	-1.0511564
194	0xbfe28ce7	-1.769925
195	0x3db1c820	0.08680749
196	0xbdb1c175	-0.08679477
197	0xbf82e408	-1.022584
198	0x3f42b793	0.7606136
199	0xbef212ab	-0.47279868
200	0xbfabe748	-1.3429956
201	0x3ea5a446	0.32351893
202	0x3eaadf89	0.3337367
203	0xbfa8ba97	-1.3181943
204	0xbf269aa5	-0.6507972
205	0xbf84aa48	-1.0364466
206	0xbf993e45	-1.1972128
207	0xbf96bc38	-1.177619
208	0xbfebd122	-1.8423197
209	0xbf682f32	-0.90697014
210	0x3f1cf7fa	0.6131588
211	0xbf57589c	-0.8411958
212	0xbff2b1b6	-1.8960483
213	0x3e294cea	0.16533247
214	0xbfd7d2d3	-1.6861213
215	0x3ebabbf9	0.36471537
216	0xbfd4aac1	-1.661461
217	0xbfa909e6	-1.3206146
218	0xbfe344a7	-1.7755326
219	0xbf9cf186	-1.2261207
220	0xbf8fde4c	-1.1239715
221	0x3e436443	0.19081216
222	0x3f7d2718	0.9888778
223	0xbfc18355	-1.5118204
224	0xbd99bd3e	-0.07506798
225	0xbf4ad4ad	-0.7923077
226	0x3fc3232c	1.5245109
227	0xbef3b468	-0.47598577
228	0xbf9095b2	-1.1295683
229	0xbf970651	-1.1798803
230	0x3ef8dfaa	0.48608142
231	0x3d3ab1a7	0.04557958
232	0xbd2c0bbc	-0.04200338
233	0xbf8e3bde	-1.111202
234	0x3f604fb1	0.876216
235	0x3f0480b6	0.517589
236	0xbe6d3395	-0.23164208
237	0xbfad0733	-1.3517822
238	0xbe242ba1	-0.16032268
239	0xbf588217	-0.845735
240	0xbfcaa640	-1.5831985
241	0xbf74d895	-0.9564298
242	0xc0088cf9	-2.1336043
243	0xbf858920	-1.0432472
244	0xbfcf5c0b	-1.6199964
245	0x3eeb541b	0.45962605
246	0xbf0cda6e	-0.550208
247	0xbf8eff29	-1.1171619
248	0x3e203ea9	0.15648903
249	0xbf483237	-0.7820162
250	0xbf4f921d	-0.81082326
251	0x3eba32e3	0.36366948
252	0x3ea3d761	0.3200026
253	0xbf9e026f	-1.2344493
254	0xbf0a89c4	-0.54116464
255	0xbee1c34a	-0.44094306

adv.bias f4 [10]
0	0x3e6d43a7	0.23170339
1	0x3eed0d48	0.46299195
2	0xbedf93b4	-0.43667376
3	0x3e5f5fa0	0.21813822
4	0xbe0c7de1	-0.13719894
5	0xbcf1823b	-0.029481044
6	0xbe38b4e0	-0.18037748
7	0xbe8e8047	-0.27832243
8	0x3e1fc0a3	0.15600829
9	0xbfd3c9d3	-1.6545967

val.weight f4 [1, 50]
0	0xbf977c76	-1.1834857
1	0x3fc945f8	1.5724478
2	0x3faa104b	1.3286222
3	0xc053633b	-3.3029315
4	0xbf96dfa9	-1.1787006
5	0xbfe2b5d2	-1.7711737
6	0xc0694c45	-3.6452801
7	0xc02754f9	-2.6145613
8	0xc068ff16	-3.6405692
9	0xbff2573f	-1.8932875
10	0x40417c6d	3.0232193
11	0xbfdc5e7b	-1.7216333
12	0xc030408b	-2.7539394
13	0x3fbd8c44	1.4808431
14	0xc06f1893	-3.735875
15	0x403a150b	2.9075344
16	0xc03e86f2	-2.9769864
17	0xbff7bc3c	-1.935432
18	0xc072cf0e	-3.7938876
19	0xc02401b7	-2.5626047
20	0xc018248d	-2.377231
21	0x3fffa3d4	1.9971871
22	0x403fafa2	2.9950948
23	0xc07d39ff	-3.9566648
24	0x4001597a	2.0210862
25	0xbfc63cbb	-1.5487283
26	0x40898194	4.2970676
27	0xbfc439d8	-1.5330153
28	0xc012c8e2	-2.293511
29	0xc001a0ce	-2.0254397
30	0x3fc9c806	1.5764167
31	0x3fc5533b	1.5416025
32	0x3ff839d2	1.9392645
33	0xc0477814	-3.116704
34	0x4030e574	2.7640047
35	0x40005b19	2.0055602
36	0x3f024032	0.50879204
37	0xc068aa55	-3.6353962
38	0x3fe51838	1.7898016
39	0xc03dd261	-2.9659655
40	0xc0614704	-3.5199594
41	0xbffde683	-1.9835972
42	0xc0591293	-3.3917587
43	0xc04d1557	-3.2044275
44	0xc046dfa1	-3.1073992
45	0x3ff82be8	1.9388399
46	0x3ecb7a48	0.3974173
47	0xc0827981	-4.077332
48	0x4006b388	2.1047077
49	0xbea4f062	-0.32214648
