models/ENO_ECO_HEAWIHTQ__08_06_06__314.pt (torch_old, 4167 bytes, 5 tensors)

fc1.weight f4 [50, 4]
00000000: 655c 7cbf ecda a13e 24e7 59bf b0be d13e
00000010: 3845 ba3e acf2 7bbe 2236 90bf 5e09 3b3f
00000020: 007c 703b a078 d23e 22ba 55bf e54d 873f
00000030: 8e03 90bf 00d1 f7bb 805b babc 1059 d93d
00000040: 4c30 bebe 8fb1 0fbf ceb2 4cbf ce89 7c3f
00000050: fc2d e43e 4e49 dcbe a4a1 7ebf 5ba9 89bf
00000060: 40d0 ecbc 9c96 96be b084 7bbf 3c14 7cbe
00000070: 6c81 41bf 08fc cf3e 2c1b 073f 8864 c13e
00000080: 288c 13bf 2483 283f dacb 96bf 2180 5abf
00000090: 8b66 833f 3f2b 57bf b061 99be 5df1 943f
000000a0: d029 7c3e e778 933f fe46 7d3f 6e89 fdbe
000000b0: 306d 9ebd 6cca 8abe 2043 ab3e 1ec2 56bf
000000c0: 0e29 24bf 3c62 1fbf 001f b7bd f8ee 5cbf
000000d0: be35 5f3f e807 453e d59d 803f 9f80 7cbf
000000e0: 1806 5bbf eb88 9cbf 98f2 813e c0e4 78bd
000000f0: ad55 813f 0cde 8fbe 7d1a 993f 465e 82bf
00000100: 4081 44bf 00bf a73b e698 c2be 4857 32be
00000110: a227 80bf b6a5 5f3f 808b ca3d 4444 a6be
00000120: 14cd 1a3f 4033 503d 102d 01be 6815 3f3f
00000130: 4853 7ebe 00eb 463c 9ca7 62bf c874 10be
00000140: fc9a 82bf fe1a 523f 9206 143f f292 f7be
00000150: 7f29 853f aeee 273f b8e7 5dbf 1698 503f
00000160: 4092 acbe 96c4 eebe 0a90 4b3f a12e 893f
00000170: 95f4 8c3f 1001 1b3f 9455 433f 98f7 2d3f
00000180: 0898 1a3e 488b 583e 488f 9cbf 53c8 5fbf
00000190: c0ee 163e 7e90 93be ea02 21bf f8c8 693e
000001a0: 378a 823f 607e 6a3e 4079 8f3d aa24 4f3f
000001b0: 576b 813f 5ca3 3ebf 404e ed3d 584b 2fbf
000001c0: 881b c5be 207a 0f3f c0dd 42be 593d 8b3f
000001d0: a0cc f6bd 4c88 bfbe d34e 97bf e0a8 0d3d
000001e0: d959 903f 77d1 8abf 7852 d6be 68ee ee3e
000001f0: 58ab 483e 987f 30be a013 383d ec1a 37bf
00000200: 90e7 45be 908c 51bf 886b 4ebf 1f4d 2cbf
00000210: 1644 08bf 0baf 8b3f 96e0 1f3f 68b4 1bbf
00000220: 8496 203f 7df4 833f 2083 bb3e a023 84be
00000230: 12fd 87be 5010 c23d 5f56 6ebf c3ee 853f
00000240: 55cd 03bf 005e 603b 6144 7bbf 660f 69bf
00000250: f7c6 95bf a287 83bf ee24 743f 5975 973f
00000260: 80d6 d03e ca40 f5be 96ce 373f 8d93 853f
00000270: f2ee 063f 8c72 c53e fd30 8fbf 8c23 17bf
00000280: 230e 88bf fd63 85bf 8091 e43d 08e0 ea3e
00000290: 502e 193e 8cc3 cf3e a05d 1cbe b857 8cbf
000002a0: 20d7 6d3e 277a 81bf 013d 23bf 4078 5bbe
000002b0: 97b0 8bbf ba26 e6be 5a3d 563f aa05 643f
000002c0: e0d3 83bd c1e0 97bf 6e2b 99be 04b9 8a3e
000002d0: b821 9c3e 5793 08bf 168c 3fbf 403b c7bd
000002e0: 5c0c 40bf 006b 59bc 4479 66bf 889d c73e
000002f0: 66f2 7dbf c262 4cbf 9622 703f ea4f 26bf
00000300: f40a a93e 2e73 7f3f 75e5 8f3f cfc0 8ebf
00000310: e070 393e f8bb 053e bab2 90bf 4235 82bf
-0.9857848 0.31612337 -0.8511832 0.40965796 0.36380935 -0.2460429 -1.126652 0.7306117
0.0036695004 0.41107655 -0.8348714 1.0570647 -1.1251085 -0.0075627565 -0.022748709 0.106126904
-0.37146223 -0.5613031 -0.79960334 0.98647773 0.44566333 -0.43024677 -0.99465394 -1.0754808
-0.028907895 -0.2941178 -0.9824934 -0.24617094 -0.7558811 0.40621972 0.52775836 0.37772012
-0.57635736 0.65825105 -1.178096 -0.8535176 1.0265669 -0.84050363 -0.29957342 1.1636158
0.24625325 1.1521271 0.9893645 -0.49518913 -0.077356696 -0.2710756 0.3344965 -0.8388995
-0.64125144 -0.6225927 -0.0894146 -0.8630214 0.8719138 0.19241297 1.0048167 -0.9863376
-0.85556173 -1.2229284 0.25380397 -0.060765028 1.0104271 -0.28099096 1.1961209 -1.018502
-0.7675972 0.0051192045 -0.38007277 -0.17416108 -1.0012095 0.8736223 0.09889889 -0.32473958
0.60469174 0.050830126 -0.12614846 0.7464204 -0.24836457 0.012140989 -0.88537 -0.14107049
-1.0203547 0.82072437 0.57822526 -0.48354298 1.0403289 0.6559857 -0.866817 0.81482065
-0.3370533 -0.46634358 0.7951666 1.0717355 1.101214 0.60548496 0.76302457 0.67955923
0.15097058 0.21146882 -1.2231226 -0.87415045 0.14739513 -0.28821176 -0.6289507 0.2283057
1.019843 0.2289977 0.070055485 0.8091532 1.0110883 -0.74468017 0.11587191 -0.6847434
-0.38497567 0.5604572 -0.19029903 1.0878097 -0.12050748 -0.37408674 -1.182093 0.03458488
1.1277419 -1.0845174 -0.41859794 0.46666265 0.19596612 -0.17236173 0.04494059 -0.71525455
-0.19326615 -0.81855106 -0.8063283 -0.6730518 -0.5322889 1.0912794 0.62452066 -0.60822153
0.6272967 1.0308987 0.36623478 -0.2580843 -0.26560265 0.094757676 -0.9310054 1.0463489
-0.51485187 0.0034235716 -0.9815121 -0.9103912 -1.1701344 -1.0275767 0.9536885 1.1832687
0.4078865 -0.47900993 0.717996 1.0435654 0.5270835 0.38563955 -1.1186825 -0.59038615
-1.0629314 -1.0421139 0.111605644 0.45874047 0.14959073 0.40578878 -0.1527009 -1.096427
0.23226595 -1.0115403 -0.6376496 -0.2143259 -1.0913266 -0.4495142 0.83687365 0.8907114
-0.06436896 -1.1865464 -0.29915947 0.2709428 0.30494475 -0.5334982 -0.7482313 -0.09728098
-0.7501886 -0.01327014 -0.90028787 0.38987374 -0.99197996 -0.7983819 0.93802774 -0.6496569
0.3301617 0.99785125 1.12419 -1.115259 0.18109465 0.13059986 -1.1304543 -1.0172503

fc1.bias f4 [50]
00000000: 96ba 913e 4890 4cbe d8ed 833d 40be 01be
00000010: 6c9b c83e a01d 54bd 84e7 94be 38ab d73d
00000020: 507b 6dbe f86b df3e c0f0 073e 4c7e e23e
00000030: d8de 953d 20d5 c7bc 982f 863d 5cea a03e
00000040: f206 b4be 40e7 b83d 8ca8 87be 503f 28bd
00000050: 80db 18bc 80fd 493e 449e 86be c0a5 debe
00000060: 7c59 17be 4046 e03e 6ca0 783e 9044 76bd
00000070: ac22 843e 8414 24be b046 523d 8829 f0bd
00000080: eca3 f1be 86cb 9e3e b434 3e3e 7858 8bbe
00000090: 201d 1d3e 7c59 49be 18a5 64be 0201 abbe
000000a0: 34e0 a43e 78a7 9dbd 18d6 82be 50ed b43d
000000b0: 901e 963d 62f8 c43e de20 f33e c03b 27bd
000000c0: 80c8 483e 18c1 ff3e
0.28462666 -0.19976914 0.064418495 -0.12670231 0.39181077 -0.051786065 -0.29082882 0.10530704
-0.23191571 0.4363706 0.13275433 0.44236982 0.07317895 -0.024393618 0.065520465 0.31428802
-0.3516155 0.090284824 -0.2649578 -0.041076005 -0.009329677 0.19725609 -0.26292622 -0.43485832
-0.1478023 0.43803596 0.24279946 -0.06012398 0.25807703 -0.16023451 0.051336944 -0.117266715
-0.47195375 0.3101465 0.18574792 -0.27215934 0.15343142 -0.19663042 -0.22328603 -0.33399206
0.32202303 -0.07697958 -0.25553966 0.08834326 0.07330048 0.3847075 0.47486013 -0.040828466
0.19607735 0.49952006

adv.weight f4 [10, 50]
00000000: c3ce 69be f0e3 dfbc 800d 823d a013 e13c
00000010: 6e86 70be 98ae 903d 614c 19be 264f 0b3e
00000020: 2a22 d3bd 65f9 91be b445 35be b08a 3ebd
00000030: f0f2 62be 7a17 053e 7f4e 943e 6699 723e
00000040: 1f05 9d3e d862 f13d 3d2b 863e 0ff5 06be
00000050: 0f27 9b3e 5a19 6f3e 4a0f 6e3e eb95 853e
00000060: 00dc 213d 501b 74bd 8346 2bbe 5047 d63d
00000070: bf68 88be 5213 5dbe ae81 573e 4299 8cbe
00000080: fc5a 39be 9101 42be 92c0 3c3e 2807 5cbd
00000090: b226 9ebe 8355 883e 147f 8fbe 8853 1d3d
000000a0: 32ba 4a3e 565f 2d3e dedd 633e ec4a 303e
000000b0: 5caf aa3d 38bb 61bd a20b 5f3e 47ac 1bbe
000000c0: cef5 5e3e eeff 763e abe7 9b3e c595 993e
000000d0: 4084 34bc 6cef 973d ca48 94be 9a4a edbd
000000e0: b449 9e3d da7e 473e 00b5 af3c 4fda 8c3e
000000f0: 73c6 1abe 0003 b5bb eb39 9d3e 9c12 45be
00000100: e4ae b7bd e06c 47bc 9283 b1bd 1195 833e
00000110: 0286 0b3e a45d 8bbe 1ae2 113e a860 98be
00000120: 30c9 f03d e87a 1e3e eafc cdbd a84d e5bd
00000130: 3ed7 1a3e 4007 6fbe 2200 263e 744e c53d
00000140: d8b0 893d 3425 a13d f23f 5f3e 6008 123d
00000150: 9c4b 203e 7fc9 863e 62fd 7d3e 08f9 66bd
00000160: 66e4 033e a6a7 7bbe 92db 383e e0ce 85bc
00000170: 1c0e 76be 2e0b adbd d344 853e 2a23 543e
00000180: bcfa a73d a626 96bd 7006 663d 3098 d0bc
00000190: 6683 483e 607b c7bc 8990 923e 789f d9bd
000001a0: 2e2a 88be 06ff b8bd e746 9ebe 3ec5 85be
000001b0: c804 72bd 7d89 93be a452 a63d ce13 7a3e
000001c0: 0bb9 0ebe 8b80 973e 45ea 8b3e 2659 043e
000001d0: b871 7abd 3a86 5d3e bcbe 54be 8ee3 76be
000001e0: 404d 98bb 3a87 4c3e f072 94be 1dec 983e
000001f0: b5b4 1bbe 30df b53c 7829 52be 762f 66be
00000200: 090f 22be 4890 f8bd 6d9d 9e3e 00be 2e3c
00000210: a80a 1d3e 41f8 973e 06a5 edbd 9f29 983e
00000220: 98cf 2fbd 6c69 ef3d 58b6 2fbd b80e 023d
00000230: 5003 a03d 2e4b 7e3e 7b1f 91be f053 4abd
00000240: 25b5 953e 803f 163b 29dc 8c3e 6e73 503e
00000250: 803f f3bc 9c29 9abe bd6b 883e 5317 9f3e
00000260: c7a9 983e 3087 07be 7407 be3d 0238 83be
00000270: 0089 3dbc 385a c4bd c062 d23d 5006 fcbd
00000280: f651 8abe 40a9 033c 0577 83be 50f0 923d
00000290: 66dc 153e c884 03bd a927 813e 5846 e2bd
000002a0: 9e6d 71be a343 2bbe ca35 39be 3538 87be
000002b0: aee4 0f3e a096 db3c 5706 973e b3d1 873e
000002c0: 7652 4e3e 576f 51be a5c0 23be 903d bc3c
000002d0: ac69 38be 8f67 953e dcac 9ebe 2d71 12be
000002e0: fe5b 36be c06b aa3b 6b6c 31be 9032 71be
000002f0: 54be f43d 1e04 183e edd4 32be 263c 98be
00000300: 3899 e5bd ce6a 4a3e c514 2abe 86bd 38be
00000310: 80d8 be3d 55ae a13e ce00 323e 3815 9ebe
00000320: bbc8 1dbe fe2d 92be 6a45 fcbd eb46 9c3e
00000330: 80f4 b6bb e850 013d 0073 82ba 50fb 9f3c
00000340: e0b0 92be 928d 93be 230b 953e 90a6 623d
00000350: 93db 86be 267c 4a3e 1594 04be 07a0 82be
00000360: b030 8cbd 102a 50bd 3cc1 aebd ae0b 713e
00000370: 2feb 9a3e 8e57 97be 99c1 973e 9863 49bd
00000380: 3f3f 9cbe dbd0 943e ada1 9e3e b800 81bd
00000390: 55aa 6abe 905b 1d3e 7456 113e 700f 7bbd
000003a0: e6d7 e7bd a024 24bc fd1d 873e b8aa 7f3d
000003b0: b4f5 d83d 7e64 78be fa93 6e3e e06e 9a3d
000003c0: 7e8d 09be 8a4f 1e3e 10e0 5fbe 2b94 953e
000003d0: ba75 263e 20fb d63c f201 acbd 8a40 483e
000003e0: 89a8 3abe 705e f9bd 2a8f 43be eb05 923e
000003f0: d8c1 6c3d fe46 7e3e cdce 2fbe 82b8 533e
-0.2283278 -0.027330369 0.06350231 0.027475178 -0.23488781 0.07064551 -0.14970542 0.13604411
-0.10309251 -0.28510585 -0.17702371 -0.04651898 -0.22162986 0.12997237 0.28966138 0.2369133
0.3066797 0.11786431 0.26204863 -0.1317942 0.30303237 0.23349515 0.2324802 0.2609094
0.03951645 -0.05959636 -0.16726117 0.104628205 -0.26642415 -0.21589401 0.21045563 -0.27460676
-0.18101114 -0.1894591 0.18432835 -0.053717762 -0.30888897 0.2662774 -0.2802664 0.03840974
0.1979759 0.16930899 0.22252604 0.1721608 0.083342284 -0.055110186 0.21781781 -0.15202437
0.21773455 0.24121067 0.30450186 0.29997078 -0.011017859 0.07418713 -0.28961784 -0.11586495
0.077289015 0.19481984 0.021448612 0.27510306 -0.15114765 -0.0055240393 0.3070825 -0.1924538
-0.089689046 -0.012171954 -0.08667673 0.25699666 0.13625339 -0.2721988 0.14246407 -0.29761243
0.117571235 0.15476573 -0.10058005 -0.111964524 0.15121171 -0.2334261 0.16210988 0.09634104
0.067231834 0.07868424 0.21801737 0.03565252 0.15653843 0.26325604 0.24803689 -0.05638984
0.12880096 -0.24575672 0.1805251 -0.016333997 -0.2402882 -0.08449398 0.2602907 0.20716539
0.08202121 -0.0733159 0.056158483 -0.025463194 0.19581375 -0.024350822 0.28625897 -0.106261194
-0.2659468 -0.09033017 -0.3091347 -0.26127046 -0.05908659 -0.28815833 0.08121231 0.24421617
-0.13937776 0.29590258 0.2732717 0.12924632 -0.061143607 0.21633235 -0.20775884 -0.24110243
-0.004647881 0.1997346 -0.2899394 0.2986764 -0.15205653 0.02220115 -0.20523632 -0.22479042
-0.15826048 -0.121368945 0.3097948 0.010665417 0.15336096 0.2968159 -0.11603741 0.29719254
-0.042922586 0.116900295 -0.042898506 0.03175232 0.07813132 0.24833366 -0.2834433 -0.049396455
0.29239765 0.0022926033 0.2751172 0.20356533 -0.029693365 -0.3010987 0.26644698 0.31072482
0.2981703 -0.13235164 0.09278765 -0.25628668 -0.011568308 -0.0958752 0.10272741 -0.123058915
-0.27015656 0.008035958 -0.25676742 0.07174742 0.14634857 -0.032109052 0.2522557 -0.11048573
-0.23576972 -0.1672502 -0.18086925 -0.2641007 0.14052078 0.026805222 0.29497024 0.26527175
0.20148644 -0.20452629 -0.15991457 0.022978574 -0.1800906 0.2918057 -0.30991256 -0.14300986
-0.1780853 0.005200833 -0.17326514 -0.23554444 0.11950365 0.1484532 -0.17464037 -0.2973339
-0.11210865 0.19767305 -0.16609485 -0.18041047 0.09318638 0.31578317 0.1738312 -0.30875564
-0.15408604 -0.28550714 -0.12317927 0.30522856 -0.005583346 0.0315713 -0.0009952486 0.019529015
-0.2865057 -0.28818947 0.2911006 0.055334628 -0.26339397 0.19773921 -0.12947114 -0.25512716
-0.06845224 -0.050821364 -0.0853295 0.23539612 0.30257556 -0.29558986 0.2963989 -0.049167246
-0.30517003 0.29065594 0.30982724 -0.06298965 -0.22916539 0.1536696 0.14193135 -0.06129402
-0.11320476 -0.010018498 0.26390067 0.06241867 0.10593739 -0.24257085 0.23298636 0.07540679
-0.13432881 0.15460029 -0.21862817 0.29214606 0.16255847 0.026242793 -0.083988085 0.1955587
-0.18228354 -0.12176216 -0.19097582 0.2852014 0.05780205 0.24831769 -0.17168732 0.20675853

adv.bias f4 [10]
00000000: 4286 da3d 9c5f 0ebd c2c6 07be 3262 c03d
00000010: 341c fcbd 58ec c5bc 74d1 ddbc 6286 bebd
00000020: 807c 9b3d af0a dcbd
0.10670139 -0.03475915 -0.13259414 0.09393729 -0.12310067 -0.024160549 -0.027077414 -0.09302975
0.07592106 -0.10744225

val.weight f4 [1, 50]
00000000: a6fe 733e 54ba a73d 1ce7 ec3d 228d 153e
00000010: 4e74 673e 8ffd 6bbe 0011 4d3b 92f5 2f3e
00000020: 329c 4e3e 22c9 6dbe 2082 fdbd ffc5 90be
00000030: cf48 863e 22f9 8abe 6291 203e 2d7b 903e
00000040: b6ee 4c3e 88d1 e1bd 7129 adbe eb06 80be
00000050: 19dc ab3e f3b6 8d3e 711f 883e 40d1 b13d
00000060: 676f ab3e 4c7c 92be 9694 3f3e 479b 36be
00000070: 0022 aebb 4a7e 7abe b087 dd3d 580e 0b3d
00000080: 824f 473e a13a 8a3e a0bd 0fbd b9af a73e
00000090: ff88 913e de91 2c3e ff47 aa3e 80e5 123c
000000a0: 84ff 88be fcae a2be 825f a0be 5d4f 95be
000000b0: 32ef 9ebe ed7a 9e3e 6b6f 963e 105b 33bd
000000c0: a0d4 85be 88f7 fbbd
0.2382761 0.08189836 0.11567518 0.14604619 0.2260296 -0.23045944 0.003129065 0.17183521
0.20176771 -0.23221257 -0.12378335 -0.2827606 0.26227424 -0.27143198 0.15680459 0.28218976
0.20012936 -0.11026293 -0.3382068 -0.25005278 0.3356636 0.27678642 0.26586488 0.086824894
0.3348343 -0.28610456 0.18709025 -0.17832671 -0.0053141117 -0.24462238 0.10816896 0.033949226
0.19463924 0.26997855 -0.03509295 0.32751253 0.28424832 0.16852519 0.33258054 0.00896585
-0.26757443 -0.31774127 -0.31322867 -0.29162112 -0.31041867 0.3095316 0.2938188 -0.043788016
-0.26138783 -0.12303072
