models/ENO_ECO_HEAWIHTQ__09_12_52__314.pt (torch_old, 4167 bytes, 5 tensors)

fc1.weight f4 [50, 4]
-0.7742649 0.3888396 -0.8065697 0.36827946 0.49107093 -0.09217241 -1.3464938 0.44842038
0.20830986 0.3342532 -0.8297571 1.070301 -1.3713772 -0.3301441 0.08691318 0.21429734
-0.38951412 -0.6934001 -0.7182478 0.93075126 0.07560054 -0.4283197 -1.0788398 -1.1153846
-0.011422661 -0.24299295 -1.008566 -0.22107247 -0.89434755 0.2212931 0.63813984 0.27316898
-0.29268605 0.7998123 -1.1052405 -0.8050226 0.8170159 -0.53337646 -0.3020543 1.1644815
0.39714298 1.1550736 0.9567377 -0.5310446 -0.46371016 -0.5465512 0.28684825 -0.8762387
-0.36196047 -0.5763278 0.010991033 -0.85015863 0.8612323 0.69057924 0.8273522 -1.2279752
-0.81403774 -1.5025972 0.26331815 -0.059560448 1.3951292 0.5253256 0.7105132 -1.3359222
-0.958941 -0.08341662 -0.4463939 -0.22266652 -1.2963032 0.52561146 0.09816684 -0.2890118
0.60469174 0.050830126 -0.12614846 0.7464204 -0.7090183 -0.14031966 -0.8594402 -0.16218036
-0.7343606 0.9428089 0.648611 -0.50089836 1.0151615 0.9497812 -1.0519569 0.42390764
-0.32889938 -0.45606765 0.7895139 1.0853801 1.101214 0.60548496 0.76302457 0.67955923
0.3771914 0.3493271 -1.1450158 -0.9893841 -0.29001033 -0.50161546 -0.69535947 0.17876457
0.80478966 0.70170367 -0.11688472 0.27226722 1.1614292 -0.48730612 -0.0034723075 -0.7743143
-0.79851604 0.19065392 -0.07031166 1.0758731 -0.4726108 -0.458075 -1.2400751 0.051785953
1.3913375 -0.8085827 -0.52817535 0.3718522 0.55861604 0.23992 0.015482192 -0.94837004
-0.0048127477 -0.54463786 -0.82254666 -0.7798079 -0.2251332 1.1874578 0.61657554 -0.58225316
1.0280486 1.2225566 0.20990011 -0.51141924 -0.13800232 -0.0068997415 -0.9578243 1.0741943
-0.21740943 0.087126695 -0.9065622 -0.89916474 -1.4921757 -1.2252727 0.95367 0.71876687
0.4078865 -0.47900993 0.717996 1.0435654 0.57383674 0.48784637 -1.0794486 -0.7463672
-1.414601 -1.4336324 0.17844221 0.60350525 -0.21404742 0.26288733 -0.24133042 -1.0707717
-0.1580223 -1.3479149 -0.7137416 -0.3376905 -1.5238426 -0.6304389 0.50484145 0.69594455
-0.5662639 -1.4911691 -0.34201968 0.07697915 0.5831097 -0.3021795 -0.63314855 -0.20271382
-0.4037887 0.22411896 -0.87433624 0.47527912 -1.3273227 -1.2031919 0.97154605 -0.56867796
0.28139353 1.0146979 1.2303032 -0.8980063 -0.20143399 -0.18342566 -1.1270887 -0.94617254
00000000: 3936 46bf fc15 c73e 5a7b 4ebf 208f bc3e
00000010: a66d fb3e e3c4 bcbd e959 acbf 5b97 e53e
00000020: 2e4f 553e 3c23 ab3e f66a 54bf a0ff 883f
00000030: 4a89 afbf a608 a9be 8aff b13d c370 5b3e
00000040: 656e c7be ab82 31bf 16df 37bf b745 6e3f
00000050: 75d4 9a3d b84c dbbe 6c17 8abf ecc4 8ebf
00000060: 1d26 3bbc 25d3 78be b118 81bf d260 62be
00000070: f6f3 64bf a99a 623e 225d 233f cedc 8b3e
00000080: f2da 95be 80c0 4c3f 8578 8dbf f615 4ebf
00000090: f427 513f 5c8b 08bf dca6 9abe bb0d 953f
000000a0: 5356 cb3e 74d9 933f c3ec 743f 8af2 07bf
000000b0: 6b6b edbe c8ea 0bbf c6dd 923e 2e51 60bf
000000c0: e252 b9be 388a 13bf bc13 343c ffa3 59bf
000000d0: b879 5c3f cdc9 303f 5bcd 533f 4b2e 9dbf
000000e0: c764 50bf 1b55 c0bf a3d1 863e a8f5 73bd
000000f0: 9893 b23f bd7b 063f 31e4 353f 80ff aabf
00000100: 287d 75bf 55d6 aabd be8d e4be b102 64be
00000110: 43ed a5bf 798e 063f b20b c93d 5bf9 93be
00000120: 14cd 1a3f 4033 503d 102d 01be 6815 3f3f
00000130: 3982 35bf f5af 0fbe 4604 5cbf 9c12 26be
00000140: 0eff 3bbf ed5b 713f 5f0b 263f e03a 00bf
00000150: d0f0 813f dc24 733f 86a6 86bf 6c0a d93e
00000160: 8065 a8be b381 e9be 951d 4a3f bced 8a3f
00000170: 95f4 8c3f 1001 1b3f 9455 433f 98f7 2d3f
00000180: 3b1f c13e 00db b23e e18f 92bf 4748 7dbf
00000190: 3c7c 94be df69 00bf 1403 32bf 0f0e 373e
000001a0: b206 4e3f daa2 333f 4261 efbd 9c66 8b3e
000001b0: b6a9 943f 3080 f9be a78f 63bb 7639 46bf
000001c0: 8c6b 4cbf c83a 433e 8fff 8fbd 36b6 893f
000001d0: 0bfa f1be ce88 eabe c8ba 9ebf 821d 543d
000001e0: 5917 b23f 47ff 4ebf 8036 07bf 6963 be3e
000001f0: 7601 0f3f 97ad 753e 05a9 7d3c 61c8 72bf
00000200: 41b4 9dbb 636d 0bbf 6b92 52bf 7ea1 47bf
00000210: 5189 66be 9efe 973f e5d7 1d3f 8b0e 15bf
00000220: 1997 833f bc7c 9c3f 0ef0 563e 5fec 02bf
00000230: 7b50 0dbe 3a17 e2bb f933 75bf 337f 893f
00000240: 94a0 5ebe 7b6f b23d 7614 68bf a92f 66bf
00000250: 9dff bebf bcd5 9cbf b823 743f 1b01 383f
00000260: 80d6 d03e ca40 f5be 96ce 373f 8d93 853f
00000270: f7e6 123f 00c7 f93e 5f2b 8abf ec11 3fbf
00000280: a511 b5bf 4481 b7bf 8eb9 363e 527f 1a3f
00000290: 3f2f 5bbe 2b99 863e 521f 77be 0c0f 89bf
000002a0: 99d0 21be 7a88 acbf c5b7 36bf c5e5 acbe
000002b0: 460d c3bf 7264 21bf 4a3d 013f 6c29 323f
000002c0: acf6 10bf a1de bebf 341d afbe 3fa7 9d3d
000002d0: ad46 153f 45b7 9abe 0616 22bf 3694 4fbe
000002e0: 64bd cebe 717f 653e 80d4 5fbf c957 f33e
000002f0: b6e5 a9bf 3102 9abf 3eb7 783f e194 11bf
00000300: d012 903e 9fe1 813f 937a 9d3f bee3 65bf
00000310: b644 4ebe f0d3 3bbe 7144 90bf 5d38 72bf

fc1.bias f4 [50]
0.2931087 0.032178123 0.065861315 -0.1314705 0.30152443 0.032387767 -0.2939239 0.202054
-0.32002112 0.43353632 0.051028788 0.5197308 0.044547092 0.23104268 0.057721306 0.6636113
-0.33828536 0.18929026 -0.2649578 0.11013064 -0.05381939 0.48714867 -0.27185807 -0.43485832
-0.12404248 0.5342926 0.78549457 0.0374058 0.36900976 -0.05017524 0.18215623 0.09664768
-0.41074783 0.29287058 0.5634313 -0.24579467 0.1280765 0.06615135 -0.22328603 -0.29720965
0.29149613 -0.011779306 -0.13463472 0.2732948 0.2790259 0.4800254 0.40039065 -0.0308692
0.15236923 0.5047996
00000000: 5812 963e 35cd 033d 4ce2 863d 34a0 06be
00000010: 6961 9a3e 09a9 043d 327d 96be 3ee7 4e3e
00000020: cfd9 a3be 79f8 dd3e 9003 513d 140d 053f
00000030: 0377 363d 7496 6c3e 2d6d 6c3d 6ee2 293f
00000040: bd33 adbe 4ed5 413e 8ca8 87be 2c8c e13d
00000050: b871 5cbd 8d6b f93e fb30 8bbe c0a5 debe
00000060: fc09 febd 66c7 083f 2c16 493f d336 193d
00000070: d9ee bc3e 8d84 4dbd 2a87 3a3e 38ef c53d
00000080: 8a4d d2be 22f3 953e 093d 103f 99b1 7bbe
00000090: 7c26 033e 5c7a 873d 18a5 64be dd2b 98be
000000a0: fb3e 953e fefd 40bc afdd 09be 4ced 8b3e
000000b0: 7cdc 8e3e e4c5 f53e 0100 cd3e 68e1 fcbc
000000c0: ae06 1c3e 8c3a 013f

adv.weight f4 [10, 50]
-0.35177132 0.08504258 0.36426288 -0.30025998 -0.2921447 0.10760465 -0.07350405 -0.052361857
-0.10439408 -0.31581634 -0.1303021 -0.17229803 -0.38323173 0.4185118 -0.012151525 0.37675092
0.103755765 -0.060148213 0.26204863 -0.17213197 0.18732731 0.4069273 0.2963885 0.2609094
0.1272215 -0.06955604 0.16869378 -0.13111956 -0.4767393 -0.1477978 0.13499096 -0.08352723
-0.15149413 -0.226484 0.46815902 0.15045185 -0.36230496 -0.17708683 -0.2802664 0.16936375
-0.01920445 0.19725114 0.050477993 -0.086222835 -0.12338596 -0.0015474115 0.14813572 -0.42366624
0.23188026 0.25470454 0.16384716 0.5622085 -0.08507316 -0.28173432 -0.40336382 -0.08616779
0.01525461 -0.11136927 -0.07970936 0.18604179 0.18496452 0.002944944 0.1792965 0.12614168
-0.45529738 0.30807868 -0.38347563 0.10997958 0.13625339 -0.37627035 -0.08142418 -0.044712972
0.22380078 0.15476573 -0.11112391 -0.123792514 0.57025474 -0.5919507 -0.027642105 0.0013881458
-0.03669265 0.21791682 0.09066333 -0.027415952 0.5549192 0.23070575 0.17594616 -0.09735037
0.12880096 -0.17846729 -0.13633753 0.021170842 -0.3642714 -0.40549627 0.08293331 0.29599312
-0.026972923 -0.3858259 0.36507115 -0.020530673 0.12952349 0.22286297 0.42486662 -0.36528033
-0.28039968 -0.01006457 -0.28541887 -0.48374107 -0.038611047 -0.2134245 0.15169388 0.117969155
-0.30050978 0.48128834 -0.029014645 0.3082409 -0.23204544 0.045719165 -0.20775884 -0.27375358
-0.18187232 0.52011096 -0.29501355 0.2986764 -0.066295534 0.01665424 0.24796529 -0.27248806
-0.27439445 -0.10438897 0.41407177 0.22697425 0.15280765 0.2232881 0.2933412 0.3783666
-0.061760087 -0.08877456 -0.042898506 0.16406317 -0.20500296 0.29289135 -0.3583802 -0.31652054
0.08648073 0.15508762 0.24079344 -0.08839565 -0.010949168 -0.27122763 0.22388478 0.4460614
0.3022904 -0.31372795 -0.015287277 -0.17308491 -0.028066292 -0.27030492 0.14371246 -0.02397609
-0.118092395 0.024657175 -0.26789033 0.2279044 -0.13796416 0.20985141 0.13272306 -0.17474192
-0.23576972 -0.20435166 -0.19954412 -0.040167723 0.10656176 0.026805222 0.39235717 0.23411927
0.45588443 -0.22992173 -0.32289037 -0.03211981 0.035136458 0.6322833 -0.29071996 -0.0916243
0.1527065 -0.079863206 -0.13660969 -0.32813498 0.11950365 0.31662172 -0.39608708 -0.1535431
-0.2212642 -0.0439342 -0.38331217 -0.09911008 0.063532345 0.15554902 0.32374245 -0.26668236
-0.24207722 -0.045229856 -0.042995755 0.08569186 -0.09532963 0.11039677 0.017860627 -0.15911387
-0.31116006 -0.24078019 0.32138497 0.00504004 -0.33734292 0.30300134 -0.43386948 0.054960135
-0.22232266 -0.202589 -0.0853295 0.1518499 0.15075214 0.0030772572 0.33631495 -0.049167246
-0.21533391 0.25343338 0.67657465 -0.1751602 -0.3963034 0.077870056 0.25479922 0.2785738
-0.07685875 -0.0596695 0.6189557 0.1375717 0.08772192 -0.3791581 0.23298636 0.2563223
-0.41113153 0.20227152 -0.38164714 -0.0051812297 -0.0547963 0.19042715 -0.14311938 -0.06302376
-0.06954422 -0.110541046 -0.26559916 0.38069725 0.2808597 -0.02321451 -0.2214821 0.21163182
00000000: 5f1b b4be ce2a ae3d aa80 ba3e adbb 99be
00000010: fd93 95be d45f dc3d 4b89 96bd 6379 56bd
00000020: 90cc d5bd aeb2 a1be ea6d 05be e56e 30be
00000030: f336 c4be 2e47 d63e 3117 47bc 7fe5 c03e
00000040: e77d d43d f95d 76bd 3d2b 863e 5d43 30be
00000050: bbd2 3f3e c658 d03e 3cc0 973e eb95 853e
00000060: 5a46 023e 6673 8ebd 10be 2c3e 3544 06be
00000070: 2c17 f4be 4e58 17be 123b 0a3e 5310 abbd
00000080: 4721 1bbe 6ceb 67be 8ab2 ef3e 0d10 1a3e
00000090: 0980 b9be 4056 35be 147f 8fbe b16d 2d3e
000000a0: a752 9dbc 34fc 493e 03c2 4e3d 9995 b0bd
000000b0: c7b1 fcbd 84d2 caba e4b0 173e c8ea d8be
000000c0: 0572 6d3e a268 823e 8dc7 273e e5ec 0f3f
000000d0: d63a aebd 7b3f 90be b485 cebe bd78 b0bd
000000e0: 79ee 793c 9215 e4bd a93e a3bd bd81 3e3e
000000f0: 5767 3d3e f6ff 403b 8099 373e 492b 013e
00000100: bd1c e9be 7dbc 9d3e eb56 c4be f93c e13d
00000110: 0286 0b3e 82a6 c0be b8c1 a6bd f324 37bd
00000120: 082c 653e e87a 1e3e ef94 e3bd ee86 fdbd
00000130: 37fc 113f 158a 17bf b271 e2bc 72f2 b53a
00000140: 084b 16bd 9625 5f3e b2ad b93d 6b97 e0bc
00000150: 2f0f 0e3f 213e 6c3e 3b2b 343e a15f c7bd
00000160: 66e4 033e 21c0 36be 119c 0bbe 796e ad3c
00000170: c881 babe 359d cfbe f0d8 a93d 698c 973e
00000180: 52f6 dcbc f98a c5be 9bea ba3e f12f a8bc
00000190: cea1 043e 3136 643e 1e88 d93e 0606 bbbe
000001a0: 8c90 8fbe dee5 24bc 6c22 92be e9ac f7be
000001b0: 9e26 1ebd f48b 5abe a455 1b3e d099 f13d
000001c0: 6bdc 99be 6d6b f63e 1fb0 edbc c0d1 9d3e
000001d0: 529d 6dbe 0544 3b3d bcbe 54be 6e29 8cbe
000001e0: bd3c 3abe fe25 053f 040c 97be 1dec 983e
000001f0: f4c5 87bd 796e 883c 9dea 7d3e 8e83 8bbe
00000200: 6e7d 8cbe e2c9 d5bd 3701 d43e f06b 683e
00000210: 9c79 1c3e a3a5 643e d130 963e 44b9 c13e
00000220: 25f8 7cbd 70cf b5bd 58b6 2fbd 2d00 283e
00000230: 4cec 51be dbf5 953e 9c7d b7be fb0e a2be
00000240: cf1c b13d 4acf 1e3e 8e92 763e c708 b5bd
00000250: 2464 33bc 59de 8abe 0d42 653e 2962 e43e
00000260: cfc5 9a3e f3a0 a0be 7d77 7abc 2c3d 31be
00000270: 48eb e5bc 6865 8abe 5c29 133e 8169 c4bc
00000280: 6dda f1bd d8fd c93c ec28 89be c55f 693e
00000290: 7a46 0dbe 4ae3 563e 8ee8 073e 8cef 32be
000002a0: 9e6d 71be 9041 51be 4b55 4cbe e986 24bd
000002b0: 0d3d da3d a096 db3c 0ae3 c83e f6bc 6f3e
000002c0: af69 e93e 9a70 6bbe e351 a5be 1090 03bd
000002d0: 3feb 0f3d 51dd 213f 3fd9 94be 85a5 bbbd
000002e0: 185f 1c3e 528f a3bd 69e3 0bbe 4f01 a8be
000002f0: 54be f43d 3e1c a23e edcb cabe 673a 1dbe
00000300: 1593 62be 59f4 33bd 7e41 c4be 3afa cabd
00000310: 3f1d 823d 3e48 1f3e 92c1 a53e 978a 88be
00000320: 17e3 77be f142 39bd 511c 30bd 377f af3d
00000330: 2e3c c3bd b417 e23d 7350 923c bfee 22be
00000340: 5f50 9fbe 158f 76be 928c a43e eb26 a53b
00000350: 36b8 acbe fe22 9b3e 2424 debe e11d 613d
00000360: 8da8 63be 7e73 4fbe 3cc1 aebd 8a7e 1b3e
00000370: c55e 1a3e cfab 493b 7931 ac3e 9863 49bd
00000380: 7e80 5cbe 05c2 813e ff33 2d3f 325d 33be
00000390: 47e8 cabe 567a 9f3d 0b75 823e 3aa1 8e3e
000003a0: 1f68 9dbd 0168 74bd e173 1e3f 99df 0c3e
000003b0: 8da7 b33d 0321 c2be fa93 6e3e ad3c 833e
000003c0: d57f d2be 4420 4f3e 4167 c3be 4ec7 a9bb
000003d0: 1672 60bd 56ff 423e e38d 12be 9a12 81bd
000003e0: 336d 8ebd 5863 e2bd 9dfc 87be c0ea c23e
000003f0: d8cc 8f3e 5b2c bebc 34cc 62be 03b6 583e

adv.bias f4 [10]
0.06493668 0.014056549 -0.15646872 0.1007582 -0.12587197 -0.037991285 0.02843459 -0.10148299
0.16174975 -0.2302509
00000000: 86fd 843d 714d 663c 5639 20be 515a ce3d
00000010: 95e4 00be c09c 1bbd a8ef e83c 50d6 cfbd
00000020: baa1 253e e4c6 6bbe

val.weight f4 [1, 50]
0.037509095 0.4889733 0.14522079 -0.28043514 0.047228064 -0.22500727 -0.068854444 -0.2629777
0.09671939 -0.1537988 0.22479284 -0.43470943 0.058786012 0.38063344 -0.2796342 0.84630567
-0.14625469 -0.38883516 -0.3382068 -0.4486912 0.060147043 0.5909345 0.16205181 0.086824894
0.3557451 -0.42252296 0.8344311 -0.5754292 -0.31217757 -0.4063226 0.1795954 0.49410176
0.12491813 0.14117 0.6175494 0.3709614 0.17370851 -0.49255642 0.33258054 0.08461708
-0.67602503 -0.2940904 -0.5696001 -0.7397572 -0.66540015 0.40726325 0.13367963 -0.4558735
-0.025206748 -0.18241426
00000000: 23a3 193d b55a fa3e c2b4 143e 3295 8fbe
00000010: 3772 413d 4e68 66be 8f03 8dbd 03a5 86be
00000020: d114 c63d 6f7d 1dbe 1830 663e 3c92 debe
00000030: 9ac9 703d 63e2 c23e 372c 8fbe 7da7 583f
00000040: cac3 15be 6715 c7be 7129 adbe daba e5be
00000050: bf5c 763d 7c47 173f e9f0 253e 40d1 b13d
00000060: 3924 b63e ee54 d8be 479d 553f 544f 13bf
00000070: bdd5 9fbe 8409 d0be dbe7 373e e8fa fc3e
00000080: 14d5 ff3d de8e 103e b817 1e3f a7ee bd3e
00000090: a5e0 313e 5b30 fcbe ff47 aa3e b84b ad3d
000000a0: fa0f 2dbf 0493 96be 50d1 11bf ba60 3dbf
000000b0: aa57 2abf cf84 d03e 50e3 083e 4068 e9be
000000c0: 627e cebc ceca 3abe
