models/ENO_ECO_HEAWIHTQ__07_44_40__314.pt (torch_old, 4167 bytes, 5 tensors)

fc1.weight f4 [50, 4]
00000000: f9b7 73bf 6270 a33e b3c0 61bf 706b c73e
00000010: 591e bd3e 99f3 79be c53d 98bf 02ed 283f
00000020: c1ac 373d 104e ce3e 83bc 64bf a16f 823f
00000030: 76de 92bf 22f6 523d 8925 7fbd bde5 443d
00000040: 69a8 eabe ca17 f1be 8491 63bf 5285 623f
00000050: 335d bd3e a5f1 c3be fd3c 77bf fd3f 8abf
00000060: 7057 1fba cecc 9bbe d2db 80bf 2909 80be
00000070: a460 3bbf 30cc d23e e84b 293f 2318 bc3e
00000080: 0e60 0bbf 28a0 293f c711 9dbf b47a 62bf
00000090: a17f 793f b6dd 49bf 0dc0 72be b77f 9e3f
000000a0: cef3 503e ea0e 963f c5c1 5f3f a466 ffbe
000000b0: 5ca5 abbd cb6d 9cbe 7bb6 bd3e 4f80 49bf
000000c0: 8d07 18bf b517 22bf d6ef cebd a7b9 61bf
000000d0: 538f 673f 08d7 0d3e 20e6 6e3f 09bf 68bf
000000e0: 4783 46bf 0e53 9fbf f0a2 803e 66f3 1ebe
000000f0: f028 823f 1d86 6cbe c4ab 9a3f 9761 8fbf
00000100: 8eb1 52bf 1bf9 a03d 1789 f1be ee3d 86be
00000110: 7042 5bbf bd33 3f3f 6492 443e 3be9 42be
00000120: 14cd 1a3f 4033 503d 102d 01be 6815 3f3f
00000130: 5065 a6be fff1 603d 38dd 5bbf f22e 1dbe
00000140: fee5 80bf b7cc 5a3f ebff 1e3f 7e4d 04bf
00000150: 0d26 7e3f cf59 373f 88aa 72bf d2d3 3a3f
00000160: 4092 acbe 96c4 eebe 0a90 4b3f a12e 893f
00000170: 95f4 8c3f 1001 1b3f 9455 433f 98f7 2d3f
00000180: b060 2f3e 4526 6f3e 2762 a4bf f69f 6dbf
00000190: db6f b43d 5a50 89be b5c8 1bbf a63e 813e
000001a0: 8fcd 783f 4b57 8e3e a067 5dbd 00b2 233f
000001b0: 8d12 763f e8cf 33bf 1493 233e 9993 1cbf
000001c0: ee1c c5be 059e 143f 1925 55be 11d5 883f
000001d0: 3be7 0bbe 81fb c6be ef09 90bf 03e3 9a3d
000001e0: dc78 983f ada9 92bf e136 02bf 1045 b53e
000001f0: 3c55 603e 7056 25be 4396 30bc a53f 46bf
00000200: efc3 0cbe 21ea 57bf b547 58bf 4b06 2ebf
00000210: 8215 08bf b73b 913f 1722 173f be4b 2bbf
00000220: f977 2b3f 4ea5 833f 512b c63e ace3 97be
00000230: 396d 89be d5fe d63d 77fd 7ebf fdad 7e3f
00000240: db77 f7be 4fd1 033c c25d 81bf 9bf4 6fbf
00000250: f7c6 95bf a287 83bf ee24 743f 5975 973f
00000260: 80d6 d03e ca40 f5be 96ce 373f 8d93 853f
00000270: 32a2 e63e c3dd e33e c36c 93bf 6137 27bf
00000280: e012 82bf 3762 8dbf 405f 253e d407 073f
00000290: 7375 0e3e 989b bd3e 432b ffbd ceec 85bf
000002a0: 6ebd 4c3e c3e5 80bf a26b 15bf 9c4e 24be
000002b0: 6b98 85bf 757a 02bf e678 443f 325f 723f
000002c0: 4613 edbd b94c 91bf 2b49 73be 2aca ac3e
000002d0: 1004 b73e 1415 0cbf a96a 46bf 6542 02be
000002e0: a531 35bf 873e 4abc f508 6ebf ff99 b33e
000002f0: 6f53 85bf eb7f 45bf 4437 603f 7ea5 34bf
00000300: c9c3 a83e 497c 753f 525a 813f a33d 89bf
00000310: 0747 283e 8f92 cd3d 7472 8bbf 96e7 75bf
-0.95202595 0.3192168 -0.8818466 0.38949156 0.36937216 -0.24409331 -1.189385 0.65986645
0.044842485 0.40293932 -0.89350146 1.0190316 -1.147414 0.05150426 -0.062291656 0.048070658
-0.45831612 -0.47088462 -0.88893914 0.8848468 0.36985168 -0.38270298 -0.96577436 -1.0800778
-0.0006078398 -0.3042969 -1.0067084 -0.2500699 -0.73194337 0.41171408 0.6613145 0.36737165
-0.5444344 0.66260004 -1.227105 -0.8846848 0.9746037 -0.7885393 -0.23706074 1.2382725
0.20405504 1.1723301 0.87405044 -0.49882996 -0.08381149 -0.30552515 0.37053284 -0.7871141
-0.5938652 -0.63317424 -0.10104339 -0.8817391 0.9045307 0.13851559 0.9331989 -0.90916497
-0.77544063 -1.2447221 0.2512431 -0.15522537 1.0168743 -0.23098035 1.2083669 -1.1201657
-0.82302177 0.07860013 -0.47174904 -0.26219124 -0.8564825 0.7468832 0.19196469 -0.19034283
0.60469174 0.050830126 -0.12614846 0.7464204 -0.3249917 0.054918285 -0.8588443 -0.1534994
-1.0070188 0.8546862 0.6210925 -0.51680744 0.9927681 0.7162141 -0.9479146 0.7297946
-0.3370533 -0.46634358 0.7951666 1.0717355 1.101214 0.60548496 0.76302457 0.67955923
0.17126727 0.23354442 -1.2842454 -0.92822206 0.08810397 -0.26819116 -0.6085313 0.2524311
0.9718866 0.27800974 -0.054053903 0.6394348 0.96122056 -0.70239115 0.15974075 -0.61162716
-0.38498634 0.5805362 -0.20814933 1.0690023 -0.13662426 -0.38863757 -1.1253031 0.0756283
1.1911883 -1.1458031 -0.5086499 0.35404253 0.21907514 -0.16146255 -0.010778013 -0.77440864
-0.13746618 -0.8434163 -0.84484416 -0.6797835 -0.5315782 1.1346349 0.5903639 -0.6691245
0.6697994 1.0284822 0.38704923 -0.29665887 -0.26841143 0.10497824 -0.99605507 0.99484235
-0.4833363 0.0080455085 -1.0106738 -0.93732613 -1.1701344 -1.0275767 0.9536885 1.1832687
0.4078865 -0.47900993 0.717996 1.0435654 0.4504562 0.44505128 -1.1517566 -0.65318877
-1.016201 -1.1045598 0.16149616 0.5274632 0.13911991 0.3703277 -0.124594234 -1.0462892
0.19994137 -1.0070118 -0.5836736 -0.16045612 -1.0437139 -0.50968105 0.76746976 0.94676507
-0.11575942 -1.1351539 -0.2375838 0.3374799 0.35745287 -0.5471966 -0.775065 -0.1272064
-0.70778877 -0.012344009 -0.9298242 0.35078427 -1.0416087 -0.7714831 0.8758433 -0.7056502
0.32961872 0.9589277 1.0105689 -1.0721935 0.16433345 0.100377195 -1.0894303 -0.960565

fc1.bias f4 [50]
00000000: e8d7 ab3e b1fc 08be a0a2 033e 16f9 2abd
00000010: 59bf fb3e 7d9e a1bd 1ba0 89be 329b 1e3e
00000020: 64ae 33be b932 b93e d9ac cf3d 2bb9 bf3e
00000030: 292b 013e 0bb9 d6bd f3de 343e 9cd8 d63e
00000040: 1f74 84be 02ca b0bc 8ca8 87be c6de 88bd
00000050: bd2d 833d d6d0 913e 449e 86be c0a5 debe
00000060: 47a0 9dbd 0bb0 c63e 2fee d13e 3bca febd
00000070: a257 9b3e 7a18 5fbe ff15 253e c605 08bd
00000080: 06f6 ddbe 3de5 c93e 5a60 8a3e 1c5a 54be
00000090: 470f 563e 7c59 49be 18a5 64be 7d55 95be
000000a0: 1eba 7c3e 9a94 19be 2c6d 9fbe 4246 c53c
000000b0: d5e5 fc3b 13c2 e43e 69d4 0a3f f352 c0bb
000000c0: ccfd 033e 548e d63e
0.3356316 -0.13377644 0.12855005 -0.041741453 0.49169424 -0.07891557 -0.26879963 0.1548889
-0.17546993 0.3617151 0.1014039 0.3744596 0.1261412 -0.10484513 0.17663173 0.41962135
-0.25869843 -0.0215807 -0.2649578 -0.06683116 0.06405208 0.28479642 -0.26292622 -0.43485832
-0.07696586 0.38806185 0.41002032 -0.12440916 0.30340296 -0.21786681 0.16121672 -0.03320863
-0.43351763 0.39432707 0.27026635 -0.20737499 0.20904265 -0.19663042 -0.22328603 -0.29166785
0.24680373 -0.14998093 -0.3113798 0.024081353 0.007717828 0.44679317 0.5423036 -0.0058692633
0.12889785 0.41905463

adv.weight f4 [10, 50]
00000000: 4299 8ebe 6414 57bc 1a8a ce3c 1b13 82bd
00000010: f8ab 75be 12e9 993d 22d6 24be 4f9b 4d3e
00000020: 34c1 27be 5874 79be 1ff1 e2bd c2cb c63b
00000030: 193a 49be 53ba 4a3e 1b81 ba3e ebae 9f3e
00000040: 1f2f 4b3e c416 c23d 3d2b 863e 6181 25be
00000050: 65d1 aa3e a041 733e 4a0f 6e3e eb95 853e
00000060: d508 7e3c b46b 2cbd 015e cabd a1bc 1a3e
00000070: 4742 a4be 3fa1 62be 6d3f 813e 490d 70be
00000080: 187f 37be 40a6 19be d4f1 7f3e b1bf f5bd
00000090: 8c6c a6be 8355 883e 147f 8fbe 3404 983c
000000a0: 2251 833e cbed 2d3e a941 813e 2cb5 5f3e
000000b0: 0438 f23d a416 14bd 29f3 4e3e 7545 b3bd
000000c0: 25db 903e b210 803e 6171 703e 9de1 a63e
000000d0: 6a8c fabc ec7e 77bd 25fe a9be 5691 27be
000000e0: 6b6f eb3c dc83 da3d 28e0 62bd 130e 973e
000000f0: 5eb6 51be d72b 86bd ed52 643e 4d84 2abe
00000100: 12df 4bbe 4ee0 fbbb 3693 5fbe b3e1 2b3e
00000110: 0286 0b3e 53b5 a8be dcd0 c93c 0815 92be
00000120: 30c9 f03d e87a 1e3e 2aaf 28be 92ee 09be
00000130: 67e3 493e e2b5 52be 5e7f f73d c9da 8f3d
00000140: 071a ce3d f370 c1bc 369e 183e fe40 77bd
00000150: d774 d03d 9b80 843e cae2 353e 08f9 66bd
00000160: 66e4 033e 4eb6 99be 11a1 013e 9974 b7bd
00000170: 2b58 63be 23c3 57bd 1b3f 8e3e 725c 2e3e
00000180: 9af1 a33c 1a26 2fbe 5c67 3fbc 2021 a1bd
00000190: c2f7 313e 0b84 afbc 4b91 8d3e 0819 13be
000001a0: dedd 8cbe b69a cdbd 3531 a5be 049d 8fbe
000001b0: 31b5 a7bd 45ee 91be 62dc 933d 4bb8 6c3e
000001c0: 1e1e 27be 75c7 983e e6c9 7f3e c7d4 0a3e
000001d0: 53f3 d3bd 4332 3b3e bcbe 54be 2d38 84be
000001e0: 8a2a 13bd 607c 4c3e f072 94be 1dec 983e
000001f0: b7ed 29be 1f0b 8b3c e3ce 2fbe ede8 4bbe
00000200: f146 2ebe 2382 09be 85d1 a33e 8e67 153b
00000210: 08f3 143e 1414 8c3e f122 f1bd 46f5 933e
00000220: fb75 80bd 6c69 ef3d 58b6 2fbd 8aae 9f3c
00000230: 4569 3b3d d303 653e 18db 8bbe ef06 47bd
00000240: 76d3 973e 8a0b cdba 18cf 833e 84ac 323e
00000250: c86c 1dbd 002b a1be d77c 883e d644 9f3e
00000260: 299f 973e a5c5 33be a60d c53d 2093 80be
00000270: 4693 34bc 2e2c 03be df12 d43d 1964 0bbe
00000280: abd4 9cbe f2ad a2bb 1cc5 85be 951a 963c
00000290: cb3e c53d 3ac6 8cbd 67b3 5a3e 9156 0ebe
000002a0: 9e6d 71be ccca 2cbe 2fa0 5fbe a636 83be
000002b0: aee4 0f3e a096 db3c b2ac 983e 5962 893e
000002c0: 57d2 283e 2426 75be 293a 2fbe 738f b23c
000002d0: d8c0 41be 847b 943e 2bea 9dbe 4204 2cbe
000002e0: 73e1 4bbe ecac 11bc 4979 2ebe 9032 71be
000002f0: 54be f43d a3fb 193e b542 4cbe 104f 9abe
00000300: d5ff f3bd 81d0 1a3e 2e0a 38be 9518 33be
00000310: c736 c23d 8685 8f3e ddde 0e3e 625e 9dbe
00000320: f9b0 05be eb08 8bbe 2f0c bebd 2633 a63e
00000330: 4538 7c3c 11c4 493d c9ce d23c f667 803c
00000340: 34ec 83be da22 a2be a608 923e 0cfe 713d
00000350: 6e11 7cbe 7454 483e a48d 18be 7873 87be
00000360: 171a d7bc 974b 1fbd 3cc1 aebd a91b 843e
00000370: 80a3 9e3e e105 8cbe 99c1 973e 9863 49bd
00000380: e448 8fbe 4d34 9b3e 424a 8e3e 6630 cabd
00000390: bc24 52be 7268 323e 40c3 ea3d 280a 4abd
000003a0: 7abe b6bd 3553 a73b 1a57 8e3e 422b d63d
000003b0: 9b9d 033e 7e64 78be fa93 6e3e 3132 d43d
000003c0: 3f57 20be 689c 313e d09f 72be f692 933e
000003d0: 7921 0d3e 42be 2b3d 9792 80bd 0bfb 3f3e
000003e0: 61f3 40be 4e0e d6bd b077 69be 5c53 853e
000003f0: b6c6 d63c 7cfa 2a3e 86e7 46be 0e62 433e
-0.278513 -0.01312742 0.025212336 -0.063513 -0.23991382 0.07515158 -0.1609731 0.20078777
-0.16382295 -0.24360788 -0.110811464 0.0060667703 -0.19651069 0.1979764 0.36426625 0.3118814
0.19842194 0.094769984 0.26204863 -0.16162635 0.3336288 0.23755503 0.2324802 0.2609094
0.015505035 -0.0420949 -0.09881211 0.15111019 -0.32081816 -0.22131823 0.25243703 -0.23442568
-0.17919576 -0.15004826 0.24994594 -0.11999453 -0.3250469 0.2662774 -0.2802664 0.018556692
0.25647837 0.16985242 0.25245407 0.21846455 0.118270904 -0.036154404 0.20209946 -0.08753482
0.28292194 0.25012738 0.2348075 0.32594004 -0.030584533 -0.060423777 -0.3320171 -0.16364035
0.028739652 0.106696814 -0.055389553 0.29502925 -0.20479724 -0.065513305 0.22297259 -0.16652031
-0.19909313 -0.0076866513 -0.218335 0.16785316 0.13625339 -0.3295084 0.024635725 -0.2853167
0.117571235 0.15476573 -0.1647307 -0.13469914 0.19715653 -0.20577195 0.1208484 0.07024152
0.10063558 -0.023613429 0.14904103 -0.060364716 0.101785354 0.25879368 0.17762294 -0.05638984
0.12880096 -0.300219 0.12659098 -0.08957786 -0.22201602 -0.05267633 0.2778252 0.17027453
0.020012666 -0.17104378 -0.011682358 -0.07867646 0.17379668 -0.021425268 0.27649912 -0.14365017
-0.2751302 -0.100392744 -0.32264104 -0.2804948 -0.081888564 -0.28502098 0.07219769 0.23117177
-0.16320083 0.29839674 0.24979362 0.1355773 -0.10349145 0.18280892 -0.20775884 -0.2582411
-0.03592924 0.1996932 -0.2899394 0.2986764 -0.16594587 0.016973076 -0.17168765 -0.19913073
-0.1701925 -0.1342855 0.31995788 0.002279732 0.14545834 0.27359068 -0.11774243 0.28898066
-0.06272503 0.116900295 -0.042898506 0.019492406 0.04575469 0.2236474 -0.27315593 -0.048590597
0.2965352 -0.0015643698 0.25743937 0.17448622 -0.03843382 -0.3147812 0.26657745 0.31107205
0.29613617 -0.17555864 0.09621744 -0.25112247 -0.011021441 -0.12809822 0.10355162 -0.13612403
-0.30631003 -0.0049645836 -0.26126945 0.018323222 0.096311174 -0.06873746 0.21357499 -0.1390021
-0.23576972 -0.16874236 -0.21838449 -0.2562763 0.14052078 0.026805222 0.29819256 0.26832846
0.16486488 -0.2394033 -0.1711203 0.021796918 -0.1892122 0.29000485 -0.30842718 -0.16798499
-0.19910221 -0.008891325 -0.17038454 -0.23554444 0.11950365 0.15037398 -0.19947322 -0.30138445
-0.119140305 0.151186 -0.17972633 -0.17489846 0.09483104 0.28031558 0.13952203 -0.3073607
-0.13055791 -0.2715524 -0.092796676 0.32460898 0.015394275 0.04925925 0.025733368 0.015674572
-0.25766146 -0.31667215 0.28522223 0.05908017 -0.24616024 0.19563466 -0.14897782 -0.26455283
-0.026257558 -0.038890447 -0.0853295 0.25802353 0.30984116 -0.27348235 0.2963989 -0.049167246
-0.279853 0.3031334 0.2779103 -0.098725125 -0.20521826 0.17422655 0.11463022 -0.049326092
-0.08923049 0.0051063546 0.27800828 0.104574695 0.1285309 -0.24257085 0.23298636 0.10361136
-0.15658282 0.1734482 -0.23693776 0.2882306 0.137823 0.04192949 -0.0627796 0.18748109
-0.18842842 -0.10451947 -0.22799563 0.2604016 0.0262178 0.16697115 -0.19424257 0.19080374

adv.bias f4 [10]
00000000: 5409 1b3e 24d8 a7bd d97c 11be 7441 b23d
00000010: eb90 e4bd 42b5 e4bc 2bbb 33bc d6e3 76bd
00000020: 7c49 243e c60c 38be
0.15140277 -0.081955224 -0.14207782 0.087038904 -0.111604534 -0.027918462 -0.010969917 -0.060275875
0.16043657 -0.17973623

val.weight f4 [1, 50]
00000000: 9963 913e 77ad 253e 7037 3f3e 269a 0e3e
00000010: c461 943e d5c5 35be e2cd 6e3d d064 833e
00000020: 8f3b 733e b0a8 2abe c50c 04bd 8263 5bbe
00000030: d9ab a03e 15f9 2bbe dd58 633e f277 cc3e
00000040: 99e5 3d3e 936f a1bd 7129 adbe b54c 56be
00000050: 0b1b c13e 574b b73e 711f 883e 40d1 b13d
00000060: 8676 c43e 26e4 64be 6da5 a93e e89b c9bd
00000070: d7aa 893d b8d2 44be 576a 493e 3a70 eb3d
00000080: b41c 783e 8b6c aa3e 5edf 8b3d d13f d63e
00000090: 141d aa3e de91 2c3e ff47 aa3e b27d 693d
000000a0: 5921 64be 6056 8fbe 6546 82be c9de 53be
000000b0: adf6 81be a54a c13e 0836 b23e 5758 a33c
000000c0: b561 31be f213 8abd
0.283963 0.16179453 0.18673491 0.1392599 0.2898084 -0.17751248 0.058301814 0.2566285
0.23753189 -0.16665912 -0.03223874 -0.21424678 0.3138111 -0.16794236 0.22201867 0.3993526
0.18544616 -0.07882609 -0.3382068 -0.20927699 0.37715945 0.35799667 0.26586488 0.086824894
0.38371676 -0.22352657 0.33134022 -0.0984419 0.06722038 -0.19221008 0.19669472 0.11496015
0.242297 0.33285937 0.06829713 0.41845563 0.3322531 0.16852519 0.33258054 0.057004638
-0.22278346 -0.27995586 -0.25444332 -0.20690455 -0.2538351 0.37752262 0.34806848 0.019939585
-0.17322429 -0.067420855
