models/ENO_ECO_HEAWIHTQ__07_32_06__314.pt (torch_old, 4167 bytes, 5 tensors)

fc1.weight f4 [50, 4]
0	0xbf81b083	-1.0131992
1	0x3ea90641	0.33012584
2	0xbf62bfa5	-0.88573676
3	0x3ec10d56	0.37705487
4	0x3eb5d7df	0.3551626
5	0xbe878b67	-0.26473543
6	0xbf93d21e	-1.1548498
7	0x3f37540d	0.71612626
8	0x3d7bd548	0.061482698
9	0x3eb3ce22	0.35118204
10	0xbf636eac	-0.88840747
11	0x3f80cd03	1.0062565
12	0xbf972672	-1.1808608
13	0x3d4564b9	0.04819176
14	0xbd73f41a	-0.059558965
15	0x3d2d9a7b	0.042383652
16	0xbea9b28e	-0.3314404
17	0xbf1c4656	-0.61044824
18	0xbf58f2f7	-0.84745735
19	0x3f6ff684	0.9373553
20	0x3edb8761	0.42876723
21	0xbec8dd2c	-0.3923124
22	0xbf77f7a2	-0.9686223
23	0xbf86b478	-1.0523825
24	0xbcead78d	-0.028667236
25	0xbe8e5de7	-0.27806017
26	0xbf84f130	-1.0386105
27	0xbea7f3e2	-0.32803255
28	0xbf46c006	-0.77636755
29	0x3eda7937	0.42670605
30	0x3f18160c	0.5940864
31	0x3e9f74d8	0.31143832
32	0xbf0ddab8	-0.55411863
33	0x3f2026ba	0.6255909
34	0xbf9b5112	-1.2134116
35	0xbf622cfe	-0.883499
36	0x3f80179f	1.0007209
37	0xbf4ccf6d	-0.80004007
38	0xbeb67bec	-0.3564142
39	0x3f95e509	1.1710521
40	0x3e434a55	0.19071324
41	0x3f9a1355	1.203715
42	0x3f6e7454	0.9314625
43	0xbedde823	-0.4334117
44	0xbdd578c0	-0.10423422
45	0xbe6ea40e	-0.2330477
46	0x3eb4351a	0.35196763
47	0xbf4f7561	-0.8103848
48	0xbf1b7d38	-0.60737944
49	0xbf2a4375	-0.6650918
50	0xbdf811ac	-0.12112746
51	0xbf66083c	-0.89856315
52	0x3f59944d	0.84991914
53	0x3e613471	0.21992661
54	0x3f728f34	0.9474976
55	0xbf752caf	-0.95771307
56	0xbf4ea12a	-0.80714667
57	0xbfa33c36	-1.275275
58	0x3e66a1bc	0.22522634
59	0xbdf4fb23	-0.11961963
60	0x3f851710	1.0397663
61	0xbea63f3d	-0.32470122
62	0x3f994980	1.1975555
63	0xbf868d8a	-1.0511944
64	0xbf4d63cd	-0.8023041
65	0x3d17cb7b	0.03705929
66	0xbedc3091	-0.43005803
67	0xbe6311bd	-0.22174735
68	0xbf8608f4	-1.0471482
69	0x3f690d05	0.9103549
70	0x3d91fcce	0.07128297
71	0xbeba7c60	-0.36423016
72	0x3f1acd14	0.60469174
73	0x3d503340	0.050830126
74	0xbe012d10	-0.12614846
75	0x3f3f1568	0.7464204
76	0xbe6a55dd	-0.22884317
77	0x3cea8806	0.028629314
78	0xbf5ce037	-0.86279625
79	0xbe0c4075	-0.13696463
80	0xbf8028d9	-1.0012466
81	0x3f5106df	0.8165111
82	0x3f29edcb	0.6637847
83	0xbf0df1ff	-0.5544738
84	0x3f87a558	1.0597334
85	0x3f1ec7b5	0.6202348
86	0xbf65a345	-0.89702255
87	0x3f4e4bf5	0.8058465
88	0xbeac9240	-0.3370533
89	0xbeeec496	-0.46634358
90	0x3f4b900a	0.7951666
91	0x3f892ea1	1.0717355
92	0x3f8cf495	1.101214
93	0x3f1b0110	0.60548496
94	0x3f435594	0.76302457
95	0x3f2df798	0.67955923
96	0x3e30653d	0.1722612
97	0x3e3216ff	0.17391585
98	0xbfa08a92	-1.2542288
99	0xbf643a7b	-0.89151734
100	0x3df45f0b	0.119321905
101	0xbe7fb818	-0.2497257
102	0xbf1b7679	-0.6072765
103	0x3e84340d	0.25820962
104	0x3f869147	1.0513085
105	0x3e29b789	0.1657392
106	0x3c9e6d60	0.019339263
107	0x3f406c9c	0.75165725
108	0x3f804829	1.0022022
109	0xbf3bd5b0	-0.73372936
110	0x3e0c1b3e	0.13682267
111	0xbf2ad250	-0.6672716
112	0xbecf0daf	-0.40440127
113	0x3f14734a	0.5798842
114	0xbe6bba36	-0.23020253
115	0x3f875173	1.0571731
116	0xbdee69c0	-0.11641264
117	0xbeb4abf4	-0.3528744
118	0xbf953c84	-1.1659093
119	0x3ca2dfef	0.01988217
120	0x3f941826	1.156987
121	0xbf90eaac	-1.1321616
122	0xbedd14e9	-0.43180016
123	0x3ee72b12	0.45150048
124	0x3e4c77a9	0.19967522
125	0xbe1ce6b2	-0.15322378
126	0xbc233f8d	-0.009963882
127	0xbf3f539a	-0.7473694
128	0xbe3db3cb	-0.18525617
129	0xbf57fede	-0.8437327
130	0xbf5706f1	-0.83994967
131	0xbf33d2e9	-0.702437
132	0xbf09bfb6	-0.5380815
133	0x3f8b2922	1.0871928
134	0x3f1b0f7f	0.6057052
135	0xbf273d4c	-0.65327907
136	0x3f28eb18	0.65983725
137	0x3f741596	0.9534544
138	0x3ec45c77	0.38351795
139	0xbe975ad0	-0.29561472
140	0xbe91c037	-0.2846696
141	0x3de91c9a	0.113824084
142	0xbf768da5	-0.9630988
143	0x3f81e662	1.0148432
144	0xbef95146	-0.4869482
145	0xbcf43198	-0.029808804
146	0xbf822d09	-1.0169994
147	0xbf72ad4d	-0.94795686
148	0xbf95c6f7	-1.1701344
149	0xbf8387a2	-1.0275767
150	0x3f7424ee	0.9536885
151	0x3f977559	1.1832687
152	0x3ed0d680	0.4078865
153	0xbef540ca	-0.47900993
154	0x3f37ce96	0.717996
155	0x3f85938d	1.0435654
156	0x3f0b3b0d	0.5438698
157	0x3eb77355	0.3583018
158	0xbf8af227	-1.0855149
159	0xbf0b7a9d	-0.5448397
160	0xbf8b5707	-1.0885934
161	0xbf821b19	-1.016452
162	0x3e0d331f	0.13789032
163	0x3ef5ed60	0.48032665
164	0x3e02e1b1	0.12781407
165	0x3edfbb0a	0.43697387
166	0xbe061159	-0.13092555
167	0xbf899144	-1.0747457
168	0x3e955674	0.2916752
169	0xbf879e54	-1.0595193
170	0xbf1b2c70	-0.6061468
171	0xbe3ec6c1	-0.18630506
172	0xbf8d791a	-1.1052582
173	0xbedf04f3	-0.43558463
174	0x3f4c64a4	0.79841065
175	0x3f6de474	0.92926717
176	0xbdc2cefc	-0.095121354
177	0xbf9322a1	-1.1494943
178	0xbe8bdb03	-0.2731553
179	0x3e989b2a	0.2980588
180	0x3eabfd47	0.33591673
181	0xbf146109	-0.57960564
182	0xbf45d991	-0.77285105
183	0xbe05bdfe	-0.13060758
184	0xbf3dfbcf	-0.74212354
185	0xbd33c850	-0.043892205
186	0xbf6cabc9	-0.92449623
187	0x3ebd4ad6	0.36971158
188	0xbf83a5f3	-1.0285019
189	0xbf435d13	-0.76313895
190	0x3f635b43	0.8881113
191	0xbf1a7de1	-0.60348326
192	0x3ea64ded	0.32481328
193	0x3f792700	0.97325134
194	0x3fa2a30d	1.2706009
195	0xbf8a4d0f	-1.0804766
196	0x3e57a8bd	0.21060462
197	0x3daedb2b	0.08537897
198	0xbf8dd4de	-1.1080587
199	0xbf881f0d	-1.0634476

fc1.bias f4 [50]
0	0x3ea42d99	0.32066038
1	0xbe30e87d	-0.17276187
2	0x3df0a014	0.117492825
3	0xbd80f08d	-0.062958814
4	0x3ee80419	0.45315626
5	0xbda86bf1	-0.08223713
6	0xbe6e8e45	-0.23296459
7	0x3e2fb4c2	0.17158797
8	0xbe46c8d3	-0.19412546
9	0x3ecad0fb	0.39612564
10	0x3d956f57	0.07296627
11	0x3ecef01a	0.40417558
12	0x3de6b646	0.11265235
13	0xbd71ae2e	-0.059004
14	0x3e04738d	0.12934704
15	0x3ebab194	0.36463606
16	0xbe9ae9f7	-0.30256626
17	0x3e0936a1	0.13399746
18	0xbe87a88c	-0.2649578
19	0xbd80cd1c	-0.062891215
20	0x3d6a0c82	0.057140835
21	0x3e6b6d56	0.22990927
22	0xbe869e44	-0.26292622
23	0xbedea5c0	-0.43485832
24	0xbde98994	-0.11403194
25	0x3ecc9f6d	0.39965382
26	0x3eaa3d40	0.33249855
27	0xbda224b3	-0.07917156
28	0x3e93d244	0.28871357
29	0xbe33ad56	-0.17546591
30	0x3dc19e3a	0.094540074
31	0xbe0049ba	-0.12528124
32	0xbee068b6	-0.43829888
33	0x3eb765ea	0.35819942
34	0x3e7fc131	0.2497604
35	0xbe766dfd	-0.24065395
36	0x3e446f3a	0.19183055
37	0xbe49597c	-0.19663042
38	0xbe64a518	-0.22328603
39	0xbebc4089	-0.36767986
40	0x3e99d2dc	0.30043685
41	0xbdda050d	-0.106454946
42	0xbe92dbd2	-0.28683335
43	0x3d4bef1c	0.04978858
44	0x3d167cdd	0.036740173
45	0x3edad8e7	0.42743608
46	0x3f0354f7	0.5130152
47	0xbdb055e0	-0.08610129
48	0x3e47a229	0.19495453
49	0x3f0fb68a	0.5613791

adv.weight f4 [10, 50]
0	0xbe3503d2	-0.17677239
1	0x3c10e48e	0.008843554
2	0x3e0ca1cf	0.137336
3	0x3da9f36f	0.082983844
4	0xbe44236b	-0.19154136
5	0x3da5a594	0.08088222
6	0xbe1254df	-0.14290188
7	0x3e5aa0ca	0.21350399
8	0xbde9a239	-0.11407895
9	0xbe7673c3	-0.24067597
10	0xbde071ee	-0.1095923
11	0x3a8954f3	0.0010477587
12	0xbe3b8b13	-0.18314771
13	0x3e3e9ff7	0.18615709
14	0x3ebe5e99	0.37181547
15	0x3e94fce6	0.29099196
16	0x3e70f34f	0.23530315
17	0x3e3e3daa	0.1857821
18	0x3e862b3d	0.26204863
19	0xbdf4d727	-0.119550996
20	0x3ec1c10f	0.37842605
21	0x3e83796d	0.25678578
22	0x3e6e0f4a	0.2324802
23	0x3e8595eb	0.2609094
24	0x3d29c739	0.04144976
25	0xbcd6bd43	-0.026213294
26	0xbddb69a4	-0.10713509
27	0x3e0a2595	0.13490899
28	0xbe8724ec	-0.26395357
29	0xbe4a3416	-0.19746432
30	0x3e7bc03a	0.24585047
31	0xbe8508cf	-0.25983283
32	0xbe37cae9	-0.17948498
33	0xbdf28b1b	-0.118429385
34	0x3e75fb0c	0.24021548
35	0xbdd75f10	-0.105161786
36	0xbe96abf3	-0.29428062
37	0x3e885583	0.2662774
38	0xbe8f7f14	-0.2802664
39	0x3d0c31c0	0.034227133
40	0x3e85e25d	0.26149264
41	0x3e2e7c6c	0.1703965
42	0x3e761ad5	0.24033673
43	0x3e5f7f36	0.21825871
44	0x3dfd81d7	0.123782806
45	0xbcbfa6c0	-0.023394942
46	0x3e81b7a6	0.25335425
47	0xbdaee835	-0.08540384
48	0x3e935b9b	0.28780827
49	0x3e898c1d	0.2686471
50	0x3eaafa53	0.33394107
51	0x3ea906b2	0.3301292
52	0x3c9a4c18	0.018835112
53	0x3dbbe8bb	0.09175249
54	0xbe856820	-0.26056004
55	0xbdb58386	-0.08862977
56	0x3dda9b5a	0.10674162
57	0x3e3b1101	0.18268205
58	0x3d4fa996	0.05069884
59	0x3e90d4fa	0.28287488
60	0xbe37558e	-0.1790373
61	0x3c9a9022	0.018867556
62	0x3eab958b	0.3351253
63	0xbe6eed25	-0.23332651
64	0xbe0dd042	-0.13848975
65	0xbd64cb93	-0.055858206
66	0xbd4f3e1e	-0.05059635
67	0x3e922dc1	0.28550532
68	0x3e0b8602	0.13625339
69	0xbe7a27fe	-0.24429318
70	0x3e14d096	0.14532694
71	0xbe89920c	-0.26869237
72	0x3df0c930	0.117571235
73	0x3e1e7ae8	0.15476573
74	0xbd930789	-0.071791716
75	0xbdad4540	-0.08460474
76	0x3de0b8a2	0.10972716
77	0xbe8d2c25	-0.27572742
78	0x3e45add1	0.19304587
79	0x3dfddeee	0.12396036
80	0x3d100ba9	0.03516737
81	0x3da73cfa	0.08165927
82	0x3e7e6c60	0.2484603
83	0x3d7d2f3c	0.061812624
84	0x3e3c571a	0.18392602
85	0x3e9a1a80	0.30098343
86	0x3e8dbb08	0.27681756
87	0xbd66f908	-0.05638984
88	0x3e03e466	0.12880096
89	0xbe5f84a0	-0.21827936
90	0x3e5074ba	0.20357028
91	0x3c2dcc3e	0.010607777
92	0xbe6e39a8	-0.23264182
93	0xbdee838d	-0.11646185
94	0x3e87f662	0.26555163
95	0x3e70b373	0.23505954
96	0x3de34548	0.11097199
97	0xbde632cd	-0.11240158
98	0x3cd608a9	0.026127176
99	0x3b2706d4	0.0025486248
100	0x3e1c853c	0.152852
101	0xbd8be8b2	-0.068314925
102	0x3e769859	0.24081554
103	0xbe3dc059	-0.18530406
104	0xbe9eadea	-0.3099206
105	0xbe06cc98	-0.13163984
106	0xbeb5123f	-0.35365483
107	0xbe9cdd21	-0.30637458
108	0xbdd212ef	-0.102575175
109	0xbea83a2d	-0.32856885
110	0x3d2abece	0.04168587
111	0x3e4ffec8	0.20312035
112	0xbe3ce25a	-0.18445721
113	0x3e82932a	0.25502902
114	0x3e64a24a	0.22327533
115	0x3dae450c	0.085092634
116	0xbe07a104	-0.13245016
117	0x3e300c43	0.17192177
118	0xbe54bebc	-0.20775884
119	0xbe900411	-0.28128102
120	0xbd46797d	-0.048455704
121	0x3e1fd425	0.1560827
122	0xbe9472f0	-0.2899394
123	0x3e98ec1d	0.2986764
124	0xbe482569	-0.19545521
125	0xbc975bf9	-0.018476473
126	0xbe82dc3e	-0.25558656
127	0xbe883e1f	-0.26609895
128	0xbe517c3c	-0.20457548
129	0xbe25c107	-0.16186915
130	0x3e885b38	0.26632094
131	0xbd101c58	-0.03518328
132	0x3dddb625	0.10825757
133	0x3e8149e6	0.25251693
134	0xbe288e00	-0.16460419
135	0x3e7b39a8	0.24533713
136	0xbdb08d40	-0.08620691
137	0x3def696c	0.116900295
138	0xbd2fb658	-0.042898506
139	0xbc14d3fb	-0.009083743
140	0x3d2946e0	0.041327357
141	0x3e5563f5	0.20838912
142	0xbea5a20b	-0.3235019
143	0xbda6a255	-0.08136431
144	0x3e81fbad	0.25387326
145	0xbd280156	-0.0410169
146	0x3e6da7ca	0.23208538
147	0x3e28f7fc	0.16500849
148	0xbd9341ec	-0.07190308
149	0xbeb035a1	-0.34415916
150	0x3e64d93e	0.22348496
151	0x3e8894d9	0.26676062
152	0x3e81656c	0.2527269
153	0xbe5877c4	-0.21139437
154	0x3d47f071	0.048813287
155	0xbe985e84	-0.2975961
156	0xbd65bc8f	-0.056088027
157	0xbe105d1c	-0.14098018
158	0x3d72a45a	0.05923877
159	0xbe2764b1	-0.16347004
160	0xbe9e8eb8	-0.3096826
161	0xbd0769ba	-0.033059813
162	0xbe9a8ba7	-0.3018467
163	0x3cfced03	0.030874735
164	0x3dc5543b	0.09635206
165	0xbd9c2f9d	-0.07626269
166	0x3e394ab4	0.18094903
167	0xbe1e9d21	-0.15489627
168	0xbe716d9e	-0.23576972
169	0xbe546856	-0.20742926
170	0xbe6611cd	-0.22467728
171	0xbe9d91b9	-0.3077524
172	0x3e0fe4ae	0.14052078
173	0x3cdb96a0	0.026805222
174	0x3e80ce16	0.2515723
175	0x3e65fbfd	0.22459407
176	0x3e1ac398	0.15113676
177	0xbe7bbc18	-0.24583471
178	0xbe532dd8	-0.20622957
179	0xbc8f8a11	-0.01752189
180	0xbe64ee24	-0.22356468
181	0x3e7bdc3a	0.24595729
182	0xbeb5c49f	-0.35501572
183	0xbe3fcdfb	-0.18730919
184	0xbe681777	-0.22665201
185	0xbd3f18ab	-0.046654385
186	0xbe5dbf43	-0.21654992
187	0xbe713290	-0.23554444
188	0x3df4be54	0.11950365
189	0x3ddc664d	0.107617
190	0xbe5884f0	-0.21144462
191	0xbeacafd2	-0.3372789
192	0xbe1bd1c8	-0.15216744
193	0x3e29aea1	0.16570522
194	0xbe5187a9	-0.20461906
195	0xbe6516c9	-0.22371973
196	0x3d4d6ee1	0.05015457
197	0x3e8df0b5	0.27722707
198	0x3e06c7d6	0.13162169
199	0xbeb4213d	-0.3518161
200	0xbe49c6e5	-0.19704778
201	0xbea8b078	-0.32947135
202	0xbe2cab58	-0.16862237
203	0x3e679d2e	0.22618553
204	0xbd4afd01	-0.04955769
205	0xbc1f8dc7	-0.009738392
206	0xbd3a6de4	-0.045514956
207	0xbcd18444	-0.025575764
208	0xbea8f4f4	-0.32999384
209	0xbea83e42	-0.3286
210	0x3e80ce62	0.25157458
211	0x3c694a37	0.014238886
212	0xbe9df035	-0.30847326
213	0x3e20a19d	0.1568665
214	0xbe37c653	-0.17946748
215	0xbe993b85	-0.29928222
216	0xbe0f1ced	-0.13975878
217	0xbdc308d9	-0.09523172
218	0xbdaec13c	-0.0853295
219	0x3e47e6fa	0.19521704
220	0x3e847d32	0.25876766
221	0xbeadb111	-0.33924153
222	0x3e97c199	0.2963989
223	0xbd496398	-0.049167246
224	0xbeb27780	-0.34856796
225	0x3e7ffa62	0.24997857
226	0x3e84da2b	0.259477
227	0xbdd59a19	-0.104297824
228	0xbe8d0bd4	-0.27548087
229	0x3de7c546	0.11316924
230	0x3dc9a408	0.098457396
231	0xbddb6da3	-0.10714271
232	0xbe221b8a	-0.15830818
233	0xbd5e7bff	-0.05431747
234	0x3e5c8073	0.21533374
235	0x3c2d128f	0.010563507
236	0x3d805043	0.06265309
237	0xbe78647e	-0.24257085
238	0x3e6e93fa	0.23298636
239	0x3d0d9a1b	0.034570795
240	0xbe2f3d81	-0.17113306
241	0x3dead0bb	0.114655934
242	0xbe847293	-0.25868663
243	0x3e853606	0.2601778
244	0x3dfe0595	0.124034084
245	0xbc8bcf80	-0.017066717
246	0xbe02118c	-0.12702006
247	0x3e20c518	0.15700185
248	0xbe65e181	-0.22449304
249	0xbe28c756	-0.1648229
250	0xbe659adf	-0.2242236
251	0x3e9e3466	0.30899352
252	0x3d63773c	0.055533633
253	0x3e2d566a	0.16927496
254	0xbe1db33a	-0.15400401
255	0x3e672f13	0.22576551

adv.bias f4 [10]
0	0x3e207e73	0.15673237
1	0xbc00a592	-0.007851975
2	0xbe3319d3	-0.1749032
3	0x3d537824	0.051628247
4	0xbe29612d	-0.16540976
5	0xbce34096	-0.027740758
6	0xbd8e1a92	-0.06938662
7	0xbe0a9636	-0.13533863
8	0x3d09acb3	0.033611964
9	0xbe195863	-0.14975123

val.weight f4 [1, 50]
0	0x3e8d7e19	0.27635267
1	0x3df4e3f5	0.11957542
2	0x3e2520ca	0.1612579
3	0x3e4f8006	0.20263681
4	0x3e87be36	0.26512307
5	0xbe522076	-0.20520195
6	0x3cf641e2	0.030060712
7	0x3e7b28b9	0.24527253
8	0x3e67dfa0	0.226439
9	0xbe43959d	-0.19100042
10	0xbd752662	-0.059851058
11	0xbe76c836	-0.24099812
12	0x3e9988a2	0.29987055
13	0xbe5dc108	-0.21655667
14	0x3e6eb66e	0.23311779
15	0x3eaafa98	0.33394313
16	0x3e766d19	0.24065055
17	0xbd8791bb	-0.06619593
18	0xbead2971	-0.3382068
19	0xbe63508f	-0.221987
20	0x3ece94fc	0.4034804
21	0x3e9e3ad8	0.3090427
22	0x3e881f71	0.26586488
23	0x3db1d140	0.086824894
24	0x3eb8251f	0.3596582
25	0xbe8100b5	-0.25195852
26	0x3e789c88	0.24278462
27	0xbe15c4e7	-0.14625894
28	0x3d0224be	0.03177332
29	0xbe5c4ec4	-0.21514422
30	0x3e14e0e2	0.14538911
31	0x3d6b8880	0.057503223
32	0x3e5ee3e4	0.21766621
33	0x3ea71f81	0.32641223
34	0x3c877a07	0.01653768
35	0x3ebbd6a4	0.36687195
36	0x3ea064ce	0.31326908
37	0x3e2c91de	0.16852519
38	0x3eaa47ff	0.33258054
39	0x3cf6250b	0.03004696
40	0xbe5f845e	-0.21827838
41	0xbe98e83a	-0.29864675
42	0xbe92c291	-0.28664067
43	0xbe7cbeda	-0.24682179
44	0xbe8b83c9	-0.27248982
45	0x3eb02934	0.34406435
46	0x3ea8a448	0.32937837
47	0x3ca72833	0.02040491
48	0xbe479536	-0.19490513
49	0xbdb98e2d	-0.09060321
