models/ENO_ECO_HEAWIHTQ__09_13_43__314.pt (torch_old, 4167 bytes, 5 tensors)

fc1.weight f4 [50, 4]
0	0xc0100d4e	-2.250812
1	0x3eed9b30	0.4640746
2	0xbf1711e0	-0.5901165
3	0xbed32f66	-0.412471
4	0x3f437b77	0.7636027
5	0xbf435017	-0.7629408
6	0xbfbc38ec	-1.4704871
7	0x3e8fd05f	0.28088662
8	0x3f181786	0.59410894
9	0xbef50e3a	-0.47862417
10	0xbf53be8c	-0.82712626
11	0x3f92f071	1.1479627
12	0xc027f24c	-2.6241636
13	0xbfb71947	-1.4304589
14	0xbf575082	-0.8410722
15	0xbf184e23	-0.5949423
16	0xbfc413e1	-1.5318567
17	0xbfad7ba5	-1.3553358
18	0xbf689b75	-0.9086221
19	0x3e1fece3	0.15617709
20	0xbf0e6bab	-0.5563304
21	0xbf8f9d0c	-1.1219802
22	0xbf9a9710	-1.2077351
23	0xbfd6e08f	-1.678728
24	0xbf3a8778	-0.7286296
25	0x3f4e6df2	0.80636513
26	0xc004bbf5	-2.073972
27	0xbea2ccb6	-0.31796807
28	0xc028f957	-2.6402185
29	0xbeed8e32	-0.4639755
30	0xbe1e067e	-0.15432164
31	0xbe8327b8	-0.2561624
32	0xbf806456	-1.003062
33	0x4004f200	2.0772705
34	0xc00714a4	-2.1106348
35	0xbf1c0e94	-0.60959744
36	0x3f10e443	0.565983
37	0xbeadf865	-0.33978572
38	0xbe907d33	-0.2822052
39	0x3fc50d2a	1.5394642
40	0x3dbce0bd	0.09222553
41	0x40149fa0	2.3222427
42	0x3fbfaf5b	1.4975389
43	0x3e660a88	0.22464955
44	0xbfc16d48	-1.5111475
45	0xbf99af3b	-1.2006601
46	0xbe760650	-0.24025846
47	0xbfd36ec1	-1.6518174
48	0xbfe9d295	-1.826739
49	0xbfa330c2	-1.2749255
50	0x3cce7291	0.025201114
51	0xbf52ceb7	-0.8234667
52	0x3f19e4a1	0.60114485
53	0x3f2ab291	0.6667872
54	0x3f98ed85	1.1947485
55	0xbf55790e	-0.8338784
56	0xc01c250f	-2.4397619
57	0xc00fc165	-2.2461789
58	0x3e4b63ac	0.1986224
59	0xbf8d8439	-1.1055976
60	0x3f9ff008	1.2495127
61	0x3f98fa0a	1.1951306
62	0x3f300ee9	0.6877275
63	0xbfc497fe	-1.5358884
64	0xc00de889	-2.2173178
65	0xbf1ef02b	-0.6208522
66	0xbf1cbbad	-0.6122387
67	0xbf58ff7c	-0.8476484
68	0xc0264a13	-2.5982711
69	0xbd7c5713	-0.061606478
70	0xbf0554aa	-0.5208231
71	0xbf85eb74	-1.046248
72	0x401c6623	2.443734
73	0x40233f89	2.5507529
74	0x3f47b779	0.7801433
75	0x3f98d439	1.1939765
76	0xbfe1fed2	-1.765589
77	0xbe07bee1	-0.13256408
78	0xbf815b45	-1.0105978
79	0xbf49e2af	-0.78861517
80	0xbfca6949	-1.581338
81	0x3fabc806	1.3420417
82	0xbe1fb414	-0.15596038
83	0xbf335baa	-0.70061743
84	0x3fd24e21	1.6430093
85	0xbe3b5637	-0.18294607
86	0xbf77d327	-0.9680657
87	0x3ee7d6e2	0.4528113
88	0xbfcee759	-1.6164352
89	0xc0052751	-2.0805247
90	0x3f8d14a8	1.1021929
91	0xbf298c95	-0.66230136
92	0x400d2ac2	2.2057347
93	0x407fa829	3.9946387
94	0x3e4e4309	0.2014276
95	0x402de3bf	2.7170255
96	0x3f986abb	1.1907572
97	0xbf0d726a	-0.55252707
98	0xbf387d70	-0.720664
99	0xbfd888a6	-1.6916702
100	0xbf6d50c5	-0.9270137
101	0xbfd73896	-1.6814144
102	0xbf60efb1	-0.8786574
103	0xbf373922	-0.7157155
104	0x3fc39baf	1.5281886
105	0x3f7160d9	0.942884
106	0x3f164983	0.5870592
107	0x3f888d4f	1.0668124
108	0x40636bf0	3.553463
109	0x401c47aa	2.441874
110	0x3fa4aa3e	1.2864454
111	0xbd8d94b0	-0.069131255
112	0xc025102f	-2.5791128
113	0xbef75f42	-0.48314863
114	0xbf095799	-0.5364929
115	0xbd62da6c	-0.055384085
116	0xbf9ea8ef	-1.2395304
117	0xbf8e0ca5	-1.1097609
118	0xbfb70c62	-1.4300654
119	0xbefaa154	-0.4895121
120	0x40295308	2.6456928
121	0x3e933a77	0.28755543
122	0xbedaa6de	-0.42705435
123	0x3e81f527	0.2538235
124	0x3f2ae3a0	0.6675358
125	0x3f46727c	0.7751844
126	0x3ebbfc46	0.36715907
127	0xbfb3d9ed	-1.4050881
128	0xbf2fb1ef	-0.6863088
129	0xbba917f2	-0.005160325
130	0xbfd912d2	-1.6958869
131	0xbe124fcb	-0.14288251
132	0xbe6259b4	-0.22104532
133	0x405fc784	3.4965525
134	0xbe4e3561	-0.2013755
135	0x3dc326f9	0.09528918
136	0x3f9e1c74	1.2352433
137	0x3fb2b904	1.3962712
138	0x3ee9389f	0.4555101
139	0xbf285ed6	-0.6576971
140	0x3eb42402	0.35183722
141	0xbf2f6a1e	-0.68521297
142	0xbefc5e63	-0.4929076
143	0x4002e54d	2.0452454
144	0xbf361729	-0.7112909
145	0x3f9b34e6	1.2125518
146	0xbfe81195	-1.8130366
147	0xbf85428e	-1.0410936
148	0xc02623e0	-2.5959396
149	0xc01aea07	-2.420534
150	0x3f1714c4	0.5901606
151	0xbef9c7d9	-0.48785284
152	0xbf745b79	-0.95452076
153	0x3f97ed5a	1.1869309
154	0x3f37ff92	0.71874344
155	0x40395f33	2.8964355
156	0xbe21005e	-0.15722796
157	0x3f4ba322	0.79545796
158	0xc00c622f	-2.1934927
159	0x3e87e1f7	0.26539585
160	0xc02c1bc1	-2.689194
161	0xbffa41f4	-1.9551377
162	0x3c3e4e28	0.011615314
163	0xbf4d840a	-0.802796
164	0xbfc6a87c	-1.5520167
165	0xbf1ef7b5	-0.6209672
166	0xbf724acf	-0.946454
167	0xbfa1e940	-1.2649307
168	0xbfe9be35	-1.8261172
169	0xc0018364	-2.0236444
170	0xbe27484d	-0.16336174
171	0xbf9544aa	-1.166158
172	0xc0331227	-2.797983
173	0xbf889ff4	-1.0673814
174	0xbd323459	-0.043506954
175	0xbd8a69e8	-0.06758481
176	0xbfbf65d7	-1.4952954
177	0xc04aa369	-3.1662238
178	0xbecb754a	-0.39737922
179	0xbf7398ac	-0.95154834
180	0x3f3c8c87	0.7365193
181	0xbf3b84d0	-0.7324953
182	0xbf59713a	-0.84938395
183	0xbe4e05fb	-0.20119469
184	0xbe487ddf	-0.19579266
185	0x3e46e53d	0.19423385
186	0xbf876233	-1.0576843
187	0x3f25a24c	0.6470077
188	0xc021dd8c	-2.5291471
189	0xc02fce9c	-2.7469854
190	0x3f866cc3	1.0501941
191	0xbf9598d0	-1.168726
192	0x3df0a8a1	0.117509134
193	0x401cd65b	2.4505832
194	0x3fccd58d	1.600267
195	0x3f07204c	0.52783656
196	0xbf5b5187	-0.85671276
197	0xbfde46ee	-1.7365396
198	0xbf88c85c	-1.0686145
199	0xc00a613c	-2.1621847

fc1.bias f4 [50]
0	0xbe831576	-0.2560231
1	0x3f956fd0	1.1674747
2	0x3fcbad0b	1.5912184
3	0xbf8f877f	-1.1213225
4	0xbf38485e	-0.71985424
5	0xbf38a5ea	-0.72128165
6	0xbfc34dd7	-1.525813
7	0xbeae71ca	-0.3407119
8	0xbffef54b	-1.9918607
9	0x400751b4	2.1143618
10	0x3f904c94	1.127337
11	0xbf19fe74	-0.6015389
12	0xbf874fe5	-1.0571257
13	0x3fec8e63	1.8480953
14	0xbfa1a2c8	-1.2627802
15	0x4010e994	2.2642565
16	0xbfc2fc14	-1.5233178
17	0xbf9c9cf9	-1.2235404
18	0x3f7fd58f	0.9993524
19	0xbfb73dce	-1.4315736
20	0xbfa1391e	-1.2595556
21	0x3fdd8a66	1.7307861
22	0xbf2c9c8b	-0.67426366
23	0xbea27796	-0.31731862
24	0xbf0c3b2d	-0.54777795
25	0xbf0efa63	-0.5585081
26	0x4008cf82	2.1376653
27	0x3fc63c46	1.5487144
28	0xbf09bf21	-0.53807265
29	0xbf851420	-1.0396767
30	0x3ead3dc9	0.338362
31	0x3f94b66d	1.1618172
32	0xbf938688	-1.1525431
33	0xbf2ffc88	-0.6874471
34	0x3ff98a8b	1.9495405
35	0xbdf5c996	-0.1200134
36	0x3f54ed41	0.8317452
37	0xbf957d65	-1.1678892
38	0x3fa3a9bd	1.2786175
39	0xbf87a51e	-1.0597265
40	0xbfacdff6	-1.3505847
41	0xbf7f7872	-0.9979316
42	0xbf7a1756	-0.9769186
43	0xbf41528e	-0.75516593
44	0xbf10bd24	-0.56538606
45	0x3fdef169	1.7417423
46	0x3fc667a8	1.5500383
47	0xbf86dfb2	-1.0537016
48	0x3fab39e4	1.3377042
49	0xbf1b600a	-0.6069342

adv.weight f4 [10, 50]
0	0xbf282c96	-0.6569303
1	0x3f17091f	0.5899829
2	0x3ec9bd16	0.39402074
3	0xbfd22e5b	-1.6420397
4	0xbf0c165a	-0.54721606
5	0x3cedc138	0.029022798
6	0xbf3cde77	-0.73776954
7	0xbf9ceca9	-1.2259723
8	0xbf7cf6b5	-0.98813945
9	0xbe9df71e	-0.30852598
10	0xbeb2aa61	-0.34895614
11	0xbecef554	-0.40421546
12	0xbf9283f4	-1.1446519
13	0x3ee44987	0.44587347
14	0xbf553fdc	-0.83300567
15	0x3f20a71a	0.62754977
16	0xbf784a19	-0.96988064
17	0xbf5740c7	-0.8408322
18	0xbecb2019	-0.39672926
19	0xbf3cb1bd	-0.7370871
20	0xbf8b59f4	-1.0886827
21	0x3f5d85cf	0.865323
22	0xbfa774aa	-1.3082478
23	0xbf10f54f	-0.5662431
24	0x3edde832	0.43341213
25	0xbe0638f5	-0.13107665
26	0x3f45a117	0.7719893
27	0xc01056c4	-2.2552958
28	0xbfbb75ce	-1.4645326
29	0xbe7e7b27	-0.24851666
30	0xbf8fca2a	-1.123357
31	0x3db22d93	0.08700099
32	0xbeb12a07	-0.34602377
33	0xbf303a1d	-0.68838674
34	0x3f52b0ca	0.8230101
35	0x3e190c55	0.1494611
36	0xbf07e54a	-0.5308424
37	0xbfdc2960	-1.7200127
38	0x3e4b0b7b	0.19828598
39	0xbf23ca7c	-0.6398084
40	0xbf8d196f	-1.1023387
41	0xbe708440	-0.2348795
42	0xbeb9bdb1	-0.36277536
43	0xbfb471e9	-1.4097263
44	0xbec044fd	-0.37552634
45	0x3eb94147	0.36182615
46	0xbc60d2dd	-0.013722149
47	0xbfe76f1d	-1.8080784
48	0x3f42367a	0.75864375
49	0x3e13d61b	0.14437144
50	0x3f1766a7	0.5914101
51	0x3f25b0a5	0.64722663
52	0xbe20be19	-0.15697517
53	0xbfb6e47b	-1.4288477
54	0xbf80b10d	-1.0054032
55	0xbf740d72	-0.95333016
56	0xc017994b	-2.3687313
57	0x3e0a6798	0.1351608
58	0xc0107e52	-2.25771
59	0x3e29ab61	0.16569282
60	0x3f79b85d	0.9754694
61	0xbf17d059	-0.5930229
62	0xbfe2ce03	-1.771912
63	0xbc0cfc0d	-0.008605015
64	0xc022a8ce	-2.541553
65	0x3f004c51	0.5011645
66	0xbfd6772b	-1.6755117
67	0x3df647e2	0.12025429
68	0xc0013c15	-2.019292
69	0xbf9a80ad	-1.2070519
70	0xbea77ae6	-0.32710952
71	0x3c879373	0.016549801
72	0xbfcab50e	-1.5836504
73	0xbfcd8c2a	-1.60584
74	0x3ed9e173	0.42554817
75	0xbf51dcab	-0.8197734
76	0x3fc015a1	1.5006601
77	0xc05aa703	-3.4164436
78	0x3e6df8cc	0.2323944
79	0xbf5c1cfc	-0.85981727
80	0x3d6cb8f4	0.057793573
81	0x3f1d40f2	0.61427224
82	0xbfcb1881	-1.5866853
83	0xc00bd609	-2.1849387
84	0x3f82b5a5	1.0211684
85	0x3edd017f	0.43165204
86	0x3e0c2516	0.13686022
87	0xbfac8110	-1.3476887
88	0x3f5f0329	0.87114197
89	0xc01f852e	-2.4925036
90	0xbfc4c625	-1.5372969
91	0xbedc435e	-0.43020147
92	0xc0069d03	-2.1033332
93	0xbe84f9f2	-0.25971943
94	0xbfb6007c	-1.4218898
95	0x3ef8356d	0.4847826
96	0x3ca12839	0.0196725
97	0xc028102b	-2.6259868
98	0x3f9ad400	1.2095947
99	0xbf07f630	-0.5311003
100	0xbdce7a71	-0.100819476
101	0x3e9a5573	0.30143318
102	0x3ec37fce	0.38183445
103	0xbfad7e0d	-1.3554093
104	0xbf2ce312	-0.6753398
105	0xbf0750d6	-0.5285772
106	0xbf9b6153	-1.2139076
107	0xbf9b0893	-1.2111992
108	0xbf9cd1c6	-1.2251518
109	0xbd92d721	-0.07169939
110	0x3e0472a0	0.12934351
111	0xbe8dbd30	-0.276834
112	0xbf87e0c2	-1.0615466
113	0x3f3dbdf7	0.7411799
114	0xbfb87028	-1.4409227
115	0x3f27ae8a	0.655007
116	0xbf9249fe	-1.1428831
117	0xbf275ae6	-0.65373075
118	0xbfaa1a05	-1.328919
119	0xbf7831f5	-0.9695123
120	0xbf728874	-0.9473946
121	0x3f0ac8f3	0.54212874
122	0xbf82bd80	-1.0214081
123	0xbf471908	-0.7777257
124	0xbe5c165b	-0.21492903
125	0xbee296d9	-0.44255713
126	0x3f4708a5	0.77747566
127	0xbfca4ecf	-1.58053
128	0xbf72e734	-0.9488404
129	0xbf1601c4	-0.58596444
130	0xbf39aff1	-0.7253409
131	0x3effad36	0.49936837
132	0xbf206c76	-0.626655
133	0xbf21bc65	-0.6317809
134	0x3f1c963a	0.6116673
135	0xbe570915	-0.20999558
136	0xbe11393b	-0.14181988
137	0xbf94d2c0	-1.1626816
138	0x3ef18342	0.47170454
139	0xbf005b06	-0.5013889
140	0xbfa5e72b	-1.2961172
141	0xbef2843a	-0.47366506
142	0xbfada58b	-1.3566145
143	0xbf8b2d87	-1.0873269
144	0xbf4115c3	-0.7542383
145	0x3ee3c38a	0.44485122
146	0x3db3ca22	0.08778788
147	0xbfda22cb	-1.7041868
148	0x3e044005	0.12915047
149	0xbf4e15ce	-0.8050202
150	0xbe79f2e1	-0.24409057
151	0x3ecac44e	0.39602894
152	0x3e90fab2	0.28316265
153	0xbfdd7791	-1.7302114
154	0xbf8b0960	-1.0862236
155	0xbf02f7f3	-0.5115959
156	0xbf8f980e	-1.1218278
157	0xbf9d8d0c	-1.2308669
158	0xbf81dae5	-1.0144926
159	0x3ed71329	0.42006806
160	0x3d292a6f	0.041300233
161	0xbe720059	-0.23632945
162	0xbfad7cd1	-1.3553716
163	0x3ee5f26b	0.44911513
164	0xbfc0fb62	-1.5076716
165	0x3f2ea7b4	0.68224645
166	0xbf7a3379	-0.9773479
167	0xbf7ca22b	-0.9868495
168	0xbf88aaf8	-1.0677176
169	0xbf8c95ce	-1.0983217
170	0xbf8033d1	-1.0015813
171	0x3e66bfcf	0.22534107
172	0xbe94435b	-0.28957638
173	0xbf64e8fd	-0.8941801
174	0x3e210584	0.1572476
175	0xbeac8e0e	-0.3370213
176	0x3f8fc133	1.1230835
177	0xbff607f0	-1.9221172
178	0xbfb4a12d	-1.4111687
179	0xbf356497	-0.7085661
180	0xbf3791aa	-0.7170664
181	0x3f5d4b6a	0.864432
182	0xbf91ddf4	-1.139586
183	0xbfab5886	-1.338639
184	0x3f1d6b60	0.61491966
185	0x3e9eef37	0.3104188
186	0xbe8d256d	-0.27567616
187	0xbf587150	-0.845479
188	0x3e4f1f62	0.20226815
189	0xbe249360	-0.16071844
190	0xbfe03718	-1.7516813
191	0xbf32b346	-0.698048
192	0xbfbfd5a9	-1.4987079
193	0xbf9d67af	-1.2297267
194	0xbf8f521d	-1.1196934
195	0x3da90e7f	0.08254718
196	0xbd8037df	-0.062606566
197	0xbf09bb1b	-0.53801125
198	0x3ee25e34	0.44212496
199	0xbf180961	-0.5938931
200	0xbf16d813	-0.58923453
201	0x3de5aeb4	0.112149626
202	0x3df1d194	0.11807552
203	0xbfac1730	-1.3444576
204	0xbf63fdcc	-0.8905914
205	0xbe99fd7e	-0.30076212
206	0xbf86943d	-1.0513989
207	0xbf6d8258	-0.92777014
208	0xbfc3452f	-1.5255488
209	0x3e3d100b	0.18463151
210	0x3f0f2799	0.55919796
211	0xbf42f35d	-0.7615259
212	0xbfcd9f7b	-1.6064295
213	0x3edc6e00	0.43052673
214	0xbff1793e	-1.8865125
215	0x3ee5ace9	0.44858482
216	0xbf99d4ea	-1.2018101
217	0xbf69524f	-0.9114122
218	0xbfb46f36	-1.4096439
219	0xbf290454	-0.6602223
220	0xbe8218f8	-0.25409675
221	0x3e1ae569	0.15126576
222	0xbe9b62d5	-0.3034884
223	0xbfd86e6a	-1.6908696
224	0xbdc2ac87	-0.09505563
225	0xbeb9da8c	-0.3629955
226	0x3fb196a9	1.3874103
227	0xbfd0dd8a	-1.6317608
228	0xbf940983	-1.1565403
229	0xbf085289	-0.5325094
230	0xbea82d3b	-0.32847008
231	0x3ed52b62	0.4163466
232	0xbf72d513	-0.94856375
233	0xbe7953a3	-0.24348311
234	0x3f792f6a	0.97337973
235	0x3e6fb19e	0.234076
236	0xbd19b7b6	-0.037528716
237	0xbf9ff107	-1.2495431
238	0x3e95dce3	0.29270086
239	0xbf0d11d6	-0.5510534
240	0xc007b140	-2.1201935
241	0xbf27c798	-0.6553893
242	0xbfd95156	-1.6977947
243	0xbf7bf7ba	-0.98424876
244	0xbf703bb1	-0.9384108
245	0x3eaf9170	0.34290648
246	0xbd1c5021	-0.038162354
247	0xbf10770e	-0.56431663
248	0x3e9274cd	0.28604737
249	0xbf16c2b7	-0.5889086
250	0xbee78430	-0.4521804
251	0x3dc5fddc	0.096675605
252	0x3ebda9fa	0.37043744
253	0xbf918c85	-1.1371008
254	0xbf663a6e	-0.89932907
255	0xbe3faf5f	-0.18719243

adv.bias f4 [10]
0	0x3d7c1886	0.061546825
1	0x3d9cb0e2	0.07650925
2	0xbd08061e	-0.03320896
3	0x3d965dde	0.073421225
4	0xbc443365	-0.011975144
5	0xbc84bd69	-0.016203599
6	0x3e331f45	0.17492397
7	0x3cdeda88	0.027203813
8	0x3e8df25c	0.27723968
9	0xbfde4c46	-1.7367027

val.weight f4 [1, 50]
0	0xbe310f64	-0.17291027
1	0x3fea741d	1.8316685
2	0x3fb4b67d	1.4118191
3	0xc03bbd89	-2.9334433
4	0xbf8b9c8b	-1.0907148
5	0xbf62be4a	-0.8857161
6	0xc041bba9	-3.0270789
7	0xbfd51e1b	-1.6649812
8	0xc04fe6cd	-3.248462
9	0x3fedffd8	1.8593702
10	0x400239ac	2.03477
11	0xbfc07742	-1.5036395
12	0xc022f1fc	-2.5460196
13	0x3ff8b120	1.9429054
14	0xc064c9e2	-3.574822
15	0x40487dd4	3.13268
16	0xc02703f2	-2.6096158
17	0xbfe225f6	-1.7667835
18	0xc04fc3d9	-3.2463286
19	0xc00c4237	-2.1915414
20	0xbfd717c0	-1.6804123
21	0x4012c67c	2.2933645
22	0xc03b2189	-2.9239218
23	0xc06a8014	-3.6640673
24	0x3fcf3fed	1.6191384
25	0xbf8e417b	-1.1113733
26	0x408cc14c	4.398596
27	0xc0818257	-4.0471606
28	0xbfda633d	-1.7061535
29	0xbfb208ca	-1.3908932
30	0xbf0db3a4	-0.55352235
31	0x400eee9e	2.233314
32	0xbfcc7957	-1.597453
33	0xc03f5ef0	-2.9901695
34	0x403ed0d5	2.981496
35	0x3f4fdbdd	0.8119486
36	0x3eedcb77	0.46444294
37	0xc056c2de	-3.3556437
38	0x4027c4fb	2.6213977
39	0xc0395931	-2.8960688
40	0xc067b3e0	-3.6203537
41	0xbfd50476	-1.6641986
42	0xc0400c69	-3.0007575
43	0xc01c2c0b	-2.4401882
44	0xc018ba84	-2.386384
45	0x400e4cb4	2.2234316
46	0x3f659c09	0.89691216
47	0xc0803e4a	-4.0076036
48	0x40123382	2.2843938
49	0xbf356376	-0.7085489
