models/ENO_ECO_HEAWIHTQ__07_48_29__314.pt (torch_old, 4167 bytes, 5 tensors)

fc1.weight f4 [50, 4]
-0.78199464 0.34292728 -0.76991683 0.35486525 0.53353524 -0.2124629 -1.3645653 0.43274036
0.15729205 0.29414847 -0.84730947 1.0747485 -1.4800352 -0.4264181 0.061331037 0.17503668
-0.4712756 -0.7915851 -0.6082709 0.9304364 -0.017557394 -0.41087875 -1.0960197 -1.1628033
0.05737046 -0.3287611 -0.9727536 -0.18639016 -1.0424796 0.106408335 0.612277 0.16801947
-0.26127502 0.7845755 -1.0757748 -0.75453556 0.7027018 -0.5690578 -0.37638414 1.0844992
0.53477615 1.2984266 0.76839894 -0.71115017 -0.5610855 -0.66787326 0.2725447 -0.927948
-0.36477146 -0.51416564 0.0017319372 -0.81085515 1.0431765 0.8801959 0.69143665 -1.2326835
-0.8574285 -1.7809838 0.315626 -0.12359596 1.5502096 0.69608617 0.6391088 -1.3522829
-1.0670664 -0.13080317 -0.44377723 -0.29214975 -1.4057468 0.44201413 0.080597065 -0.33260754
0.60469174 0.050830126 -0.12614846 0.7464204 -0.79796994 -0.24104331 -0.8665419 -0.20766883
-0.7359731 1.0266767 0.6140583 -0.472936 1.0424315 0.9988782 -1.0670403 0.40491143
-0.24414757 -0.30892023 0.70199853 1.2550089 1.101214 0.60548496 0.76302457 0.67955923
0.4423599 0.33416316 -1.1195418 -0.9729303 -0.37367278 -0.6386835 -0.70340997 0.11959132
0.85919565 0.73791313 -0.15069188 0.14754258 1.2588102 -0.45306563 0.009734268 -0.7439594
-0.9262667 0.12030996 -0.0942278 1.0089923 -0.59482175 -0.5603378 -1.2237899 -0.01988946
1.5133358 -0.9186835 -0.51641834 0.39429772 0.544788 0.16999753 -0.008302659 -0.95159364
0.037443712 -0.49487752 -0.82790405 -0.7580321 -0.17668617 1.2092792 0.60122055 -0.5527127
1.0965953 1.1725608 0.1281353 -0.6615632 -0.20104349 -0.019775385 -0.8761429 1.1169947
-0.16225038 0.100124046 -0.8889536 -0.8631899 -1.6839976 -1.3144205 0.73582256 0.48852158
0.4078865 -0.47900993 0.717996 1.0435654 0.6128304 0.4124982 -1.09515 -0.75768226
-1.507352 -1.5487158 0.17342928 0.5811661 -0.31413743 0.15861356 -0.24441034 -1.1233908
-0.2592076 -1.558526 -0.6239146 -0.41474023 -1.6178459 -0.7148264 0.48598775 0.650485
-0.6114996 -1.8017339 -0.28441226 0.06847443 0.65356576 -0.2807383 -0.6244924 -0.17338127
-0.32332718 0.28792876 -0.848284 0.5499026 -1.3956923 -1.367828 0.98155 -0.6075412
0.41002974 1.0791552 1.1713507 -0.9406695 -0.32815072 -0.21383215 -1.1467983 -1.003968
00000000: cd30 48bf 2a94 af3e 4519 45bf e6b0 b53e
00000010: c495 083f e08f 59be 13aa aebf 2590 dd3e
00000020: 2b11 213e a19a 963e 46e9 58bf 5c91 893f
00000030: cb71 bdbf 7953 dabe 4136 7b3d d13c 333e
00000040: 094b f1be 52a5 4abf a4b7 1bbf 1431 6e3f
00000050: 86d4 8fbc b35e d2be 604a 8cbf bdd6 94bf
00000060: 4afd 6a3d 6053 a8be 6106 79bf 10dd 3ebe
00000070: f96f 85bf 9dec d93d 2fbe 1c3f 4c0d 2c3e
00000080: d7c5 85be f1d9 483f fdb2 89bf 3e29 41bf
00000090: 44e4 333f c6ad 11bf 6cb5 c0be dfd0 8a3f
000000a0: 17e7 083f d832 a63f cbb5 443f f00d 36bf
000000b0: 4da3 0fbf bef9 2abf fb8a 8b3e 008e 6dbf
000000c0: 53c3 babe 5ca0 03bf 2b02 e33a 3494 4fbf
000000d0: cf86 853f 8554 613f fe01 313f 93c8 9dbf
000000e0: 6f80 5bbf 47f7 e3bf bb99 a13e e11f fdbd
000000f0: 456d c63f b432 323f a29c 233f 9b17 adbf
00000100: a295 88bf 44f1 05be c536 e3be a794 95be
00000110: 83ef b3bf ad4f e23e 1310 a53d 894b aabe
00000120: 14cd 1a3f 4033 503d 102d 01be 6815 3f3f
00000130: c247 4cbf 0fd4 76be b1d5 5dbf 23a7 54be
00000140: bc68 3cbf 246a 833f ed32 1d3f ab24 f2be
00000150: 656e 853f 7bb6 7f3f c794 88bf 8d50 cf3e
00000160: d201 7abe cb2a 9ebe 2db6 333f 22a4 a03f
00000170: 95f4 8c3f 1001 1b3f 9455 433f 98f7 2d3f
00000180: ff7c e23e 6f17 ab3e 254d 8fbf f611 79bf
00000190: 0a52 bfbe c380 23bf ad12 34bf 4bec f43d
000001a0: 3ff4 5b3f e0e7 3c3f f94e 1abe 6715 173e
000001b0: b120 a13f 38f8 e7be 7b7c 1f3c 2074 3ebf
000001c0: d01f 6dbf 1165 f63d 81fa c0bd a926 813f
000001d0: 3d46 18bf 4c72 0fbf 26a5 9cbf 39ef a2bc
000001e0: fdb4 c13f d82e 6bbf fe33 04bf 64e1 c93e
000001f0: 3a77 0b3f d513 2e3e e007 08bc a49b 73bf
00000200: 945e 193d 9660 fdbe 85f1 53bf 640e 42bf
00000210: 38ed 34be a9c9 9a3f 97e9 193f 947e 0dbf
00000220: 3c5d 8c3f 7916 963f e635 033e 355c 29bf
00000230: 58de 4dbe fdff a1bc e74a 60bf aff9 8e3f
00000240: f724 26be d60d cd3d 7792 63bf 03fa 5cbf
00000250: 3c8d d7bf ee3e a8bf de5e 3c3f 801f fa3e
00000260: 80d6 d03e ca40 f5be 96ce 373f 8d93 853f
00000270: 74e2 1c3f f732 d33e e02d 8cbf 77f7 41bf
00000280: e9f0 c0bf 523c c6bf 7297 313e 4dc7 143f
00000290: 9fd6 a0be 986b 223e b446 7abe 45cb 8fbf
000002a0: dcb6 84be c87d c7bf deb8 1fbf d558 d4be
000002b0: 9315 cfbf ddfe 36bf 63d3 f83e 2f86 263f
000002c0: 3d8b 1cbf 379f e6bf 7c9e 91be 523c 8c3d
000002d0: 1650 273f eebc 8fbe bcde 1fbf dc8a 31be
000002e0: 248b a5be 666b 933e 2429 59bf 6bc6 0c3f
000002f0: 0ca6 b2bf fd14 afbf dc46 7b3f d287 1bbf
00000300: 6bef d13e c221 8a3f d2ee 953f b7cf 70bf
00000310: 5f03 a8be d1f6 5abe 49ca 92bf 0682 80bf

fc1.bias f4 [50]
0.3086095 0.05702124 0.08423959 -0.098193035 0.2623612 0.08290213 -0.28179452 0.26395476
-0.34202078 0.5214295 0.20413812 0.5564351 0.03959919 0.33255887 0.047925983 0.7448356
-0.30464685 0.23682636 -0.2649578 0.14297476 -0.057029434 0.56743884 -0.37020162 -0.43485832
-0.13957202 0.56874204 0.93120265 0.035381358 0.42118192 0.037782464 0.16997969 0.16617495
-0.43740374 0.2755629 0.8223461 -0.33282202 0.11470578 0.21866153 -0.22328603 -0.26881713
0.30412525 0.03976698 -0.08137557 0.29886433 0.26664522 0.49075726 0.36856902 -0.02446012
0.17077717 0.55131507
00000000: 1002 9e3e 1b8f 693d ce85 ac3d 6e19 c9bd
00000010: 3554 863e 98c8 a93d 5f47 90be 1425 873e
00000020: 591d afbe 677c 053f 9509 513e 8872 0e3f
00000030: c332 223d 2845 aa3e 094e 443d 8cad 3e3f
00000040: acfa 9bbe 9c82 723e 8ca8 87be fa67 123e
00000050: b297 69bd ac43 113f 118b bdbe c0a5 debe
00000060: f8eb 0ebe 1499 113f 4c63 6e3f 0bec 103d
00000070: 28a5 d73e c9c1 1a3d 280f 2e3e c429 2a3e
00000080: 62f3 dfbe 9516 8d3e 4685 523f a667 aabe
00000090: ddea ea3d cfe8 5f3e 18a5 64be 66a2 89be
000000a0: 4eb6 9b3e b3e2 223d 3ca8 a6bd bf04 993e
000000b0: b985 883e 8944 fb3e 14b5 bc3e 9760 c8bc
000000c0: 36e0 2e3e fc22 0d3f

adv.weight f4 [10, 50]
-0.35350317 0.21148434 0.4203177 -0.3519574 -0.31047857 0.11038189 -0.072737195 -0.10509674
-0.1051606 -0.32963312 -0.036110252 -0.19483486 -0.40566388 0.5521601 -0.097621635 0.5028948
0.07649338 -0.07735634 0.26204863 -0.18751661 0.17037824 0.4910021 0.26792687 0.2609094
0.11612566 -0.08259052 0.3027912 -0.1930233 -0.5036582 -0.15634124 0.16679172 -0.028104484
-0.18493517 -0.20509247 0.6096635 0.057782862 -0.3546348 -0.27103186 -0.2802664 0.1635514
-0.07646908 0.19911645 0.0024056896 -0.14488897 -0.18290561 0.03355712 0.15704696 -0.5007654
0.29725206 0.25824687 0.15325466 0.69532704 -0.1309159 -0.32165757 -0.38353485 -0.076547764
0.08665282 -0.17244641 -0.09917221 0.16072136 0.25778887 -0.0008021125 0.15318623 0.25285956
-0.5258078 0.49178177 -0.42693093 0.0860563 0.13625339 -0.3866457 -0.13620622 0.057490587
0.24622384 0.15476573 -0.09670688 -0.1080959 0.6925871 -0.6676677 -0.032466237 0.0057866727
-0.075486064 0.20284456 0.077067554 -0.06530865 0.72040784 0.15672451 0.16769423 -0.202758
0.12880096 -0.14687623 -0.16486588 0.012508041 -0.36460423 -0.4456839 0.0739167 0.3764254
-0.025228418 -0.4533636 0.44930917 -0.015346031 0.122590154 0.30028918 0.4297411 -0.40332326
-0.2880025 -0.0026967707 -0.17569815 -0.5266447 -0.04307719 -0.13096847 0.2934484 0.10307439
-0.31722292 0.55561566 -0.097924694 0.39595035 -0.25936925 0.028549215 -0.20775884 -0.29181206
-0.19664103 0.56030774 -0.22018027 0.2986764 -0.033534642 0.0065771807 0.32492092 -0.30551085
-0.3144674 -0.11298325 0.43819368 0.2581803 0.20322153 0.2226225 0.40593907 0.4046982
-0.060517244 -0.14867696 -0.042898506 0.256616 -0.24800955 0.27247304 -0.3556226 -0.36327156
0.051267695 0.22742794 0.2465911 -0.141435 0.02947527 -0.27648124 0.19416392 0.4838482
0.2367937 -0.36992317 -0.04324625 -0.13170518 0.034233693 -0.34516087 0.13457368 0.018421281
-0.122647054 0.031936478 -0.24042575 0.3901697 -0.18101817 0.38929796 0.09744598 -0.22468019
-0.23576972 -0.2224452 -0.260418 -0.05235833 0.2673743 0.026805222 0.4229456 0.22845283
0.48528624 -0.14273466 -0.40648922 -0.03295147 0.10226187 0.73916787 -0.21329819 -0.13363855
0.15719087 -0.06978005 -0.1226216 -0.36755675 0.11950365 0.34315825 -0.42766866 -0.15473545
-0.1922043 -0.101115175 -0.39050177 -0.01212157 0.047162347 0.13035497 0.36669424 -0.2592533
-0.27293152 0.057320714 -0.048318792 0.027175814 -0.081400864 0.11367938 0.10719659 -0.22045779
-0.3466657 -0.10675805 0.33890104 -0.0106491735 -0.34939238 0.3861668 -0.454684 0.20869279
-0.2751143 -0.25564533 -0.0853295 0.126525 0.06778982 0.061546523 0.28764725 -0.049167246
-0.20717034 0.25668174 0.77046883 -0.16097303 -0.44187042 0.06810102 0.26767343 0.28505173
-0.04671033 -0.13007355 0.71300155 0.21584304 0.076530844 -0.39851314 0.23298636 0.27900082
-0.44282487 0.16374539 -0.3576415 -0.053665705 -0.05227951 0.28235376 -0.15736118 -0.10700549
-0.049864933 -0.11796347 -0.24953197 0.4465697 0.39397025 -0.05847437 -0.14660864 0.19523779
00000000: 5efe b4be 5a8f 583e e233 d73e c333 b4be
00000010: 0cf7 9ebe e60f e23d 3df7 94bd f63c d7bd
00000020: 715e d7bd acc5 a8be 58e8 13bd ca82 47be
00000030: 2db3 cfbe 5d5a 0d3f daed c7bd b7bd 003f
00000040: 90a8 9c3d 006d 9ebd 3d2b 863e 5b04 40be
00000050: a277 2e3e a164 fb3e b62d 893e eb95 853e
00000060: 4ad3 ed3d 3825 a9bd 7307 9b3e e6a7 45be
00000070: beef 00bf eb17 20be 73cb 2a3e 603b e6bc
00000080: a55f 3dbe c303 52be e812 1c3f b9ad 6c3d
00000090: b192 b5be b0c4 8abe 147f 8fbe 057a 273e
000000a0: d29b 9cbd 2fe5 4b3e c6a8 1d3b c65d 14be
000000b0: 9c4b 3bbe 3173 093d ebd0 203e 2932 00bf
000000c0: 6c31 983e ef38 843e caee 1c3e f400 323f
000000d0: d10e 06be 4db0 a4be ae5e c4be 13c5 9cbd
000000e0: 0977 b13d cb95 30be cd1a cbbd 2494 243e
000000f0: e7fc 833e dc44 52ba dadc 1c3e cf76 813e
00000100: 579b 06bf d2ca fb3e b196 dabe 493e b03d
00000110: 0286 0b3e 6df6 c5be a579 0bbe 407b 6b3d
00000120: 1a22 7c3e e87a 1e3e 420e c6bd 6261 ddbd
00000130: 634d 313f 45ec 2abf 51fb 04bd 219e bd3b
00000140: 7098 9abd 7cb6 4f3e 98d5 9d3d 8bc0 85bd
00000150: a66c 383f 647c 203e 09b8 2b3e cb9f 4fbe
00000160: 66e4 033e b966 16be 9ad2 28be 87ee 4c3c
00000170: 68ad babe ae30 e4be a461 973d d4ba c03e
00000180: d4ab cebc 461f e8be da0b e63e eb6d 7bbc
00000190: 8c10 fb3d 81bf 993e 0707 dc3e 6380 cebe
000001a0: 1075 93be 4ebc 30bb 37ea 33be 30d2 06bf
000001b0: b571 30bd 991c 06be de3e 963e aa18 d33d
000001c0: 0b6b a2be d43c 0e3f be8c c8bd 01ba ca3e
000001d0: 0ccc 84be 0be0 e93c bcbe 54be 6468 95be
000001e0: 445c 49be 5470 0f3f f076 61be 1dec 983e
000001f0: 9f5b 09bd 6485 d73b 095c a63e eb6b 9cbe
00000200: df01 a1be c363 e7bd ec5a e03e 3530 843e
00000210: 4e19 503e 27f7 633e 3fd7 cf3e 9a34 cf3e
00000220: eee0 77bd c63e 18be 58b6 2fbd 2c63 833e
00000230: 37f6 7dbe 9681 8b3e 2a14 b6be bbfe b9be
00000240: 13fe 513d dfe2 683e 6182 7c3e 56d4 10be
00000250: 1f76 f13c f38e 8dbe e8d2 463e f4ba f73e
00000260: 0c7a 723e 9266 bdbe fb22 31bd b9dd 06be
00000270: a138 0c3d edb8 b0be afcd 093e 3ae8 963c
00000280: 612e fbbd d3cf 023d 2b32 76be 53c4 c73e
00000290: d45c 39be 1052 c73e c291 c73d 9012 66be
000002a0: 9e6d 71be adc8 63be 8255 85be b075 56bd
000002b0: 49e5 883e a096 db3c 538c d83e 8aef 693e
000002c0: 7077 f83e 0929 12be 5b1f d0be 1ff8 06bd
000002d0: ac6e d13d 1b3a 3d3f d76a 5abe 8bd8 08be
000002e0: a5f6 203e d8e8 8ebd 0921 fbbd 6630 bcbe
000002f0: 54be f43d 70b2 af3e 63f7 dabe f872 1ebe
00000300: 34d1 44be 7915 cfbd d9ef c7be 8d99 46bc
00000310: 4e2d 413d c67b 053e 59bf bb3e d9bc 84be
00000320: aebd 8bbe 20c9 6a3d ede9 45bd d09f de3c
00000330: 7fb5 a6bd bcd0 e83d e389 db3d b0bf 61be
00000340: 2b7e b1be f7a3 dabd 7084 ad3e df79 2ebc
00000350: 8fe3 b2be a8b7 c53e 57cc e8be 90b3 553e
00000360: c8db 8cbe f2e3 82be 3cc1 aebd c58f 013e
00000370: 64d5 8a3d 3518 7c3d 8046 933e 9863 49bd
00000380: 7624 54be ca6b 833e 723d 453f 1dd6 24be
00000390: d73c e2be 8c78 8b3d 7e0c 893e 4df2 913e
000003a0: 5553 3fbd 0032 05be 4587 363f f505 5d3e
000003b0: 34bc 9c3d ea09 ccbe fa93 6e3e 32d9 8e3e
000003c0: f1b9 e2be dfac 273e c91c b7be 92d0 5bbd
000003d0: 0a23 56bd ac90 903e 4a23 21be b225 dbbd
000003e0: 2c3f 4cbd d596 f1bd 4f85 7fbe c9a4 e43e
000003f0: 78b6 c93e d282 6fbd 9320 16be 6aec 473e

adv.bias f4 [10]
0.074371725 0.038383808 -0.15323432 0.09655468 -0.12390962 -0.024644468 0.035221647 -0.1320396
0.1540977 -0.26742497
00000000: 3450 983d 5738 1d3d 75e9 1cbe 76be c53d
00000010: 54c4 fdbd 32e3 c9bc 9344 103d 6435 07be
00000020: cacb 1d3e edeb 88be

val.weight f4 [1, 50]
-0.01807232 0.6278743 0.1124193 -0.38444737 -0.0121439025 -0.25447387 -0.020970164 -0.38498172
0.043419834 -0.13335083 0.4292551 -0.49809942 -0.0030230738 0.6427928 -0.43036175 1.1681412
-0.23795627 -0.46677303 -0.3382068 -0.51208717 -0.026562452 0.71622086 0.34760228 0.086824894
0.34256884 -0.4722285 1.0374364 -0.62893295 -0.4075485 -0.45130444 0.23846564 0.4971878
0.1149001 0.070098795 0.8738744 0.49387273 0.13621612 -0.6137347 0.33258054 0.083244696
-0.78152347 -0.35567993 -0.62109834 -0.85033196 -0.75631374 0.47922796 0.09517075 -0.5822656
0.09743233 -0.22444855
00000000: 670c 94bc 5fbc 203f 173c e63d 49d6 c4be
00000010: 38f7 46bc 664a 82be 9fc9 abbc 531c c5be
00000020: ffd8 313d 1f8d 08be 53c7 db3e e306 ffbe
00000030: c31e 46bb 128e 243f 6058 dcbe a785 953f
00000040: cfaa 73be e0fc eebe 7129 adbe 2518 03bf
00000050: 8099 d9bc 405a 373f edf8 b13e 40d1 b13d
00000060: 2f65 af3e efc7 f1be b7ca 843f c001 21bf
00000070: 32aa d0be 6011 e7be 5630 743e 668f fe3e
00000080: be50 eb3d f58f 8f3d 3cb6 5f3f e3dc fc3e
00000090: 3d7c 0b3e b81d 1dbf ff47 aa3e 327c aa3d
000000a0: ec11 48bf ae1b b6be 4d00 1fbf 5baf 59bf
000000b0: c79d 41bf 5e5d f53e e2e8 c23d 5c0f 15bf
000000c0: 9a8a c73d d7d5 65be
