models/V1_TOKYO_04_49_43_161.pt (torch_old, 4167 bytes, 5 tensors)

fc1.weight f4 [50, 4]
000000 18 d6 a7 3f a6 0c 30 3f 66 89 b1 3f a1 5d 57 bf
       1.3112211 0.687693 1.3870056 -0.8412724
000010 55 f9 8a 3f 12 19 5b 3f bc 14 0a bf 3c 7f 6c 3f
       1.085734 0.8558513 -0.5393789 0.92381644
000020 4f 76 75 be 4a 45 22 3e 49 b9 37 bf 29 7c 10 c0
       -0.23970912 0.15846744 -0.717671 -2.2575781
000030 dc ce 8f 3f 60 87 88 bf 0a 96 ce bf d0 4b db bc
       1.1235003 -1.0666313 -1.6139538 -0.026769549
000040 32 1f 88 bf 3b e8 b4 bf f0 51 e9 3d e3 3e 04 3e
       -1.063452 -1.4133371 0.113925815 0.12914614
000050 fe 07 8b be 81 32 6b bf 71 56 a6 3f 97 7f 49 3f
       -0.27154535 -0.9187394 1.299513 0.7871031
000060 26 74 a2 3f 12 10 47 be 23 e3 aa bf 11 71 f5 be
       1.2691696 -0.19439724 -1.3350567 -0.47937825
000070 77 5f 46 bf 14 bd af 3f 5d a6 78 bf b3 a3 4b bf
       -0.7748942 1.3729577 -0.9712885 -0.7954666
000080 ce 0f b9 3f 41 c7 9f 3f 3b bc 6d 3f de d8 50 3f
       1.4457948 1.2482682 0.9286534 0.81580913
000090 a0 75 24 be 79 85 92 bf 16 ec b5 3e 23 ac 90 bf
       -0.16060495 -1.1446983 0.35531682 -1.1302532
0000a0 7f 67 62 bf 9b 42 87 be fa df ef bd 09 99 67 bf
       -0.8843917 -0.26418003 -0.11712642 -0.9046789
0000b0 b0 1c 99 be 7f 34 57 3f 57 ba f9 3e c7 10 4f 3e
       -0.299047 0.8406448 0.4877498 0.20221244
0000c0 80 33 bb 3f b6 fd 18 3f 85 ea 29 3f 3c 19 02 40
       1.4625092 0.5976213 0.66373473 2.0327902
0000d0 72 0c 8c bf 7e c5 4a 3f c1 57 f8 3f a3 8b de be
       -1.0941298 0.792076 1.940178 -0.4346591
0000e0 7f 8a d2 3f 0a 59 a8 3e f7 12 9b 3f bf ab cc 3f
       1.6448516 0.3288043 1.2115163 1.5989913
0000f0 f8 2b a7 be 79 66 de 3d 30 5d 83 bf e8 f2 92 bf
       -0.32650733 0.10859389 -1.0262814 -1.1480379
000100 3b 99 86 3f 5d 92 be 3f cf a5 40 3f 3c 82 ab 3f
       1.0515512 1.4888417 0.75253004 1.3399119
000110 cd f3 b6 3f 9c da a2 3f d6 f6 c3 3d 7f e9 39 3f
       1.4293152 1.2722964 0.095685646 0.7262191
000120 2c b1 54 bf a5 9b f7 be c7 87 45 bf 9a db d8 3f
       -0.8308284 -0.48360935 -0.77160305 1.6942017
000130 7c 59 89 bf c6 6a 06 3f c8 72 9e bf 8a b3 51 3f
       -1.0730433 0.52506673 -1.2378778 0.8191458
000140 53 ff b8 3f f8 d2 f2 3f 69 2e 21 3e 19 d9 06 3f
       1.4452919 1.8970633 0.1574036 0.52675015
000150 ee e0 47 3f e7 c0 a1 3f d0 15 a6 be 49 d0 0c 40
       0.7807759 1.2636994 -0.32438517 2.2002127
000160 bf 49 16 3f e7 4c 1d 3f fb 25 c7 be 9c 34 06 40
       0.5870628 0.6144547 -0.38896164 2.096961
000170 dc 13 ed 3f d9 67 5f 3d b7 f8 02 3f 92 db 4c bf
       1.8521686 0.054542396 0.5116076 -0.8002254
000180 54 86 4a 3d d3 87 35 bf bd 86 b9 3d 1e 8a 92 bf
       0.04944451 -0.70910376 0.090589024 -1.14484
000190 cf 16 ef 3e 1d 90 28 be d9 dd 57 bf 42 45 43 bf
       0.4669709 -0.16461225 -0.8432289 -0.76277554
0001a0 07 85 f9 3f dc 75 e9 3f 84 27 22 be ce 28 89 3e
       1.9493722 1.8239093 -0.15835387 0.26788944
0001b0 72 a8 14 be 8a a7 e5 bf 19 3e 4b bf 4e f7 d8 bd
       -0.14517382 -1.7941754 -0.7939163 -0.105940446
0001c0 a0 4c 92 3f 80 38 9e 3f c6 38 d5 3c b9 50 0e 40
       1.1429634 1.2360992 0.026028048 2.223677
0001d0 ce cf 74 3f 33 a7 39 3f e0 2f 4e bf e3 b0 3a 3e
       0.95629585 0.7252075 -0.805418 0.1823154
0001e0 f1 ea ea bc 2b eb e6 be 79 ef b5 3f 20 66 92 be
       -0.028676482 -0.45101294 1.4213706 -0.2859354
0001f0 a2 ea a1 3f fe b3 0c 40 f9 44 be 3e 02 b3 3b 3e
       1.2649729 2.1984859 0.37161997 0.18330005
000200 ca 93 dc 3f 60 3b 0c 40 c5 e3 69 3f 4d 9f ce 3f
       1.7232602 2.191124 0.91363174 1.6142365
000210 52 e9 d1 3f aa de 56 3e 7f 09 f1 3e 99 07 36 3f
       1.6399329 0.20983377 0.47077557 0.71105343
000220 85 49 b5 bf a6 17 10 c0 1d 5c 1c 3e 90 f3 38 bf
       -1.4163061 -2.2514434 0.15269513 -0.72246647
000230 fe 30 f1 bd 1c 1e bd be da a8 bf 3f 45 e2 60 be
       -0.11776923 -0.36937034 1.4973404 -0.21961315
000240 05 a4 42 3f aa a4 65 3f cd 49 a7 3e a9 33 c8 3f
       0.76031524 0.8970438 0.32673493 1.5640765
000250 a8 10 bb bd 0a 6d ee 3e 7c 5e 8d bf 2a db ce 3f
       -0.09134036 0.46567565 -1.1044459 1.6160634
000260 1c 0d cb bf c0 ff 81 bf f7 6e 0a be 6e 5b ce bf
       -1.5863376 -1.0156174 -0.13518892 -1.6121652
000270 3c 55 11 c0 4c 62 04 be 15 19 96 3d dc 7e 7f bf
       -2.2708273 -0.12928122 0.07329003 -0.9980295
000280 76 5d 4c bf d3 ea fe bf e9 06 15 3f 0f d4 44 3f
       -0.7983011 -1.9915413 0.5821367 0.76886076
000290 50 85 e1 bf c9 52 0c 3f 5a 5e 10 3f fd db c7 3e
       -1.7618809 0.5481382 0.5639397 0.39035025
0002a0 0f ae 9d bf 0c 9e ce bf c0 2f b8 3e 3e 48 87 bd
       -1.2318743 -1.6141982 0.3597393 -0.06605576
0002b0 60 16 ba 3f 22 33 d1 3f bf e0 81 3e bd be ca 3f
       1.4538078 1.634373 0.2536678 1.5839459
0002c0 38 20 bb be f9 99 00 3e 81 97 13 bf 34 93 f7 bf
       -0.36548018 0.12558736 -0.5765305 -1.9341798
0002d0 75 7b cc 3f 6b 77 ce 3f d7 b8 d3 3c 00 c1 b1 3f
       1.5975176 1.6130193 0.025844974 1.3887024
0002e0 a2 89 04 3f 1e 0f 80 bf 49 55 8e bf b7 05 07 3f
       0.5177251 -1.0004613 -1.1119777 0.52743095
0002f0 ac d4 6d bf 88 4e 39 bd bc d2 d5 bf a4 97 82 bf
       -0.92902637 -0.04524091 -1.6704936 -1.0202527
000300 76 13 bd 3e e9 af 92 bf 82 b1 3d bf 17 fb e5 bd
       0.3692891 -1.1459934 -0.7409898 -0.11229532
000310 38 95 4c 3e 64 f7 b7 bf f3 4a 07 bf df 8b fe be
       0.19978797 -1.4372373 -0.5284874 -0.49716088

fc1.bias f4 [50]
000000 fc 4c 28 3f 35 d9 6d be c9 15 cb 3e a2 04 86 3e
       0.6574247 -0.23227389 0.39665058 0.2617541
000010 a7 3d 86 be 52 a5 03 3e 53 93 4e 3f 0b c4 7f 3f
       -0.26218912 0.12856033 0.8069355 0.9990851
000020 01 9b 89 be 96 04 d8 3f 64 2f cc 3f f9 06 b8 3f
       -0.2687607 1.68764 1.5951962 1.4377128
000030 2b 8a 8f bf d8 e0 99 3d 85 b5 a9 be c7 ad 53 3f
       -1.121404 0.07513589 -0.331463 0.8268704
000040 de 6e 2a bf 83 7d 5e bf 68 0c ce bd 2f d6 1e bf
       -0.6657542 -0.86910266 -0.1006096 -0.6204557
000050 bb c6 1c bf 29 b2 40 bf b6 97 05 bf 0a d4 c6 be
       -0.6124074 -0.7527185 -0.5218462 -0.38833648
000060 26 cd ae 3f 26 af 4f 3f 47 04 10 bf 99 d3 81 be
       1.3656356 0.8112663 -0.56256527 -0.2535675
000070 0f a6 af bf 01 41 18 3f cf 4e 69 3f ba 65 a6 3c
       -1.3722552 0.5947419 0.9113588 0.020312179
000080 be ce ad be 07 de c1 3e 90 30 0e 3f b9 84 6a 3f
       -0.33946794 0.37864706 0.5554285 0.9160877
000090 75 55 68 bf c4 fb 1e 3f c8 5b a9 3f f6 10 0b bf
       -0.907554 0.62102914 1.3231134 -0.54322755
0000a0 b8 04 44 3f 19 d0 14 bf 30 e3 21 bd 38 26 9e bf
       0.765697 -0.5813003 -0.039523304 -1.2355413
0000b0 4e 23 c3 bd f6 48 9e bf 01 a5 00 3e 5e 92 20 3f
       -0.09528218 -1.2366016 0.12562944 0.6272334
0000c0 c6 ec 81 3f 3b 8b 9a 3f
       1.0150383 1.207374

adv.weight f4 [10, 50]
000000 fe 15 bf be 9a 52 80 bf 2e c8 ef be 13 e0 c5 be
       -0.37321466 -1.0025208 -0.46832412 -0.38647518
000010 4d 3f aa bf d8 1e c7 3e 51 06 07 3e 00 4d 02 3f
       -1.3300568 0.3889072 0.13186003 0.5089874
000020 f2 1f 0e bf 31 c1 02 3f 85 05 7e 3f f0 b0 01 3f
       -0.55517495 0.51076037 0.9922717 0.5066061
000030 c3 83 20 bf 83 dc ce 3d 68 94 6a bd bd 8b 03 3f
       -0.6270105 0.10100653 -0.057270437 0.513851
000040 c7 79 75 be 1d e5 80 bf b4 53 7c be 37 41 23 3e
       -0.23972236 -1.006992 -0.24641305 0.15942846
000050 84 29 e3 be 71 cb 84 bf 1f 55 8f bf 57 72 ec be
       -0.4436761 -1.0374585 -1.1197852 -0.46180984
000060 c6 c0 9b 3e a1 d3 e4 3e 2c 9c 6a bf 96 21 86 be
       0.30420512 0.4469271 -0.9164455 -0.261975
000070 d1 5e 94 bf 94 5b c3 bc fb ab 05 3f 96 65 4a bf
       -1.1591436 -0.023847379 0.52215546 -0.7906126
000080 46 45 48 bf 0b 10 27 bf 89 4a 44 be 03 52 81 3d
       -0.782307 -0.65258855 -0.19169058 0.063144706
000090 68 d2 d6 be 62 5a a1 3d 34 c3 f2 be 04 00 eb be
       -0.41957402 0.07878567 -0.47414553 -0.4589845
0000a0 ec 82 0f 3f aa 49 80 3f f4 b3 f9 be d5 2b a2 bf
       0.56059146 1.002248 -0.48770106 -1.2669626
0000b0 e5 c8 2a bf b9 e3 d5 bf 2a 87 0c be 80 36 92 3e
       -0.6671279 -1.671012 -0.13723436 0.28557205
0000c0 3b 7d f2 bd ed 30 a0 3e 4f e6 3f bf 48 c9 05 bf
       -0.11840292 0.31287327 -0.749608 -0.52260256
0000d0 b1 03 5e be 12 50 f9 be fe 85 be be 14 cb e8 bd
       -0.21681096 -0.486939 -0.37211603 -0.11366859
0000e0 42 26 6b bf 06 32 05 bf 4c eb 00 bf ea 04 bb be
       -0.9185525 -0.52029455 -0.50359035 -0.36527187
0000f0 71 ab a4 be 6f 52 47 bf cd 38 1c be 0e 1c 0a bf
       -0.3216205 -0.7786016 -0.15256043 -0.5394906
000100 65 b3 17 bf 04 55 51 bf 44 34 4b be 4f c4 bf 3e
       -0.5925811 -0.8177035 -0.19844157 0.3745446
000110 a5 6f a1 be 03 5e 0c bf cb 60 1d bf f4 a2 40 bf
       -0.3153049 -0.5483095 -0.6147582 -0.75248647
000120 9e 39 c7 bd ba 76 59 be 7a 06 00 bf ee 9b 45 bf
       -0.097277865 -0.21236697 -0.5000988 -0.77191055
000130 63 fb 41 bf 90 3c 23 bf 58 70 f1 3b da ee 26 bf
       -0.7577421 -0.63764286 0.0073681287 -0.6520821
000140 25 05 1f be 4d e1 29 bf 7c ef 56 be da b9 e8 be
       -0.15529306 -0.66359407 -0.20989794 -0.45454293
000150 9d 3f 31 be f9 75 02 bf 24 e1 42 3c 1a 92 53 bf
       -0.17309423 -0.5096126 0.011894498 -0.8264481
000160 af 59 05 bf 18 81 3e be fd 4b 03 bf 85 ef 91 be
       -0.5208997 -0.18603933 -0.51287824 -0.2850305
000170 38 70 9e be d4 2a 9c 3b 4d d9 2c bf 45 7a 12 be
       -0.3094499 0.0047658477 -0.67519075 -0.14304455
000180 dd 0f 45 bf 2e ea 50 bf 68 c4 d2 be 11 b7 0e bf
       -0.7697733 -0.8160733 -0.4116547 -0.5574809
000190 71 61 bd be e8 f6 a2 bf c2 8f 31 3e e9 8c 69 be
       -0.36988404 -1.27316 0.17339996 -0.22807659
0001a0 22 ad 2d bf c1 24 3a be 94 a2 bf bd 7e 9a d8 3e
       -0.67842305 -0.18178083 -0.09357181 0.42305368
0001b0 74 f4 7b bf ca 72 ed 3e 52 ed db 3d 2c 40 ad 3e
       -0.9841988 0.4637664 0.10738625 0.33838022
0001c0 a9 b3 c9 be da d1 66 bf c2 aa 1c bf 22 27 d5 3e
       -0.39394882 -0.9016396 -0.61198056 0.41631418
0001d0 1a 31 63 bf 12 ed 77 be 12 c6 00 bf 79 db d9 3d
       -0.887468 -0.24211529 -0.5030223 0.10637564
0001e0 82 09 3b bf cf 00 a8 bf 90 67 47 bf 1e d8 86 3e
       -0.7306138 -1.3125247 -0.778924 0.2633676
0001f0 23 b7 87 bd fe c1 c5 3e 8f 1b 48 bf 91 76 08 be
       -0.066267274 0.38624567 -0.7816705 -0.1332648
000200 25 b0 16 bf b7 04 7f 3d 74 65 f0 3e 46 03 54 bf
       -0.58862525 0.062260356 0.46952403 -0.82817495
000210 cd a1 a2 bf 2d 9c 20 bf 20 11 94 be b6 2a 83 be
       -1.2705628 -0.62738305 -0.28919315 -0.25618523
000220 f5 34 83 be 0d ef 8c bd cc 07 85 bd f7 38 48 bf
       -0.2562634 -0.06881533 -0.06495628 -0.7821192
000230 c8 7c a4 be 43 a9 14 be 7f 7f 9e bf 9f dd 01 bf
       -0.3212645 -0.14517693 -1.2382659 -0.5072879
000240 2a 94 98 bd dc d3 93 bf d1 c6 18 3d 3e 33 ba 3d
       -0.07450135 -1.1549029 0.03729898 0.09091805
000250 87 7d 57 3e ab 93 c9 3e 99 b3 36 bf 81 18 9f be
       0.21043979 0.39370474 -0.71367794 -0.31073382
000260 3e 71 0d bf 75 98 2c bf 8a 3c 8e 3d 27 d1 0a bf
       -0.5525092 -0.6742013 0.06945141 -0.5422539
000270 61 d0 f0 bd 06 c7 d0 be f5 f7 cf bd 65 a0 24 bf
       -0.11758495 -0.40776843 -0.10154716 -0.6430724
000280 17 c6 f9 be 5f 58 62 bf a1 3a 00 bf b4 13 41 bf
       -0.48783943 -0.88416094 -0.5008946 -0.7542069
000290 ab e4 3a bf 79 c2 83 be 96 cb b4 be 1a 3a ec bb
       -0.7300517 -0.25734308 -0.35311574 -0.0072090747
0002a0 9a 95 29 bf 22 e1 0b bf 78 e1 26 3d 26 7b 4e bf
       -0.662439 -0.546404 0.040742368 -0.8065666
0002b0 52 ee e1 be 2e b9 90 be 19 f7 7e be 01 eb 46 be
       -0.44127136 -0.2826628 -0.24898948 -0.19425584
0002c0 f0 68 da 3d 6d ec f1 be 16 57 88 be de 80 36 bf
       0.106645465 -0.4725069 -0.2662894 -0.71290386
0002d0 50 be 27 bf a8 11 c6 be 89 7a 3e bf c4 4d b4 be
       -0.6552477 -0.38685346 -0.74405724 -0.3521558
0002e0 95 25 2d bf b2 4a 5a bf bb 72 a0 be 66 0e 00 bf
       -0.6763547 -0.85270226 -0.31337532 -0.5002197
0002f0 b8 2d 90 be ae d9 04 bf 6c 14 3d bf a9 5e 89 bf
       -0.2815988 -0.5189465 -0.73859286 -1.0732013
000300 0f 9f 1b bf a0 b3 c6 bc 8f 4e 0d bf 25 b8 a5 3e
       -0.6078958 -0.024255574 -0.55197996 0.32367054
000310 5c f7 85 be 37 04 c0 be 10 58 e9 be 22 80 f1 be
       -0.26165283 -0.37503216 -0.45575 -0.4716807
000320 99 8f 9f 3e a4 63 5d bf 68 09 55 bf a4 b5 ea bd
       0.31164244 -0.86480165 -0.8321748 -0.114604264
000330 a7 87 9c bf 57 a6 76 be 3f ac 88 be b6 02 8c be
       -1.2228898 -0.24086891 -0.26693913 -0.27345818
000340 90 df f1 be 0e 0b 82 3f cc f5 6e 3f f0 cf 11 3f
       -0.47240877 1.0159624 0.93343806 0.5695791
000350 92 e0 2a bf e3 8a 0c 3c 37 ac c6 be 19 f1 e1 be
       -0.6674892 0.008578035 -0.38803264 -0.44129255
000360 16 93 82 be fb 46 fe bf ad 1f 14 bd f4 a0 6a bf
       -0.25502843 -1.9865412 -0.03616302 -0.91651845
000370 17 56 92 bf 45 a4 3d bf 01 aa 37 bf b2 45 05 c0
       -1.1432523 -0.7407878 -0.7174378 -2.0823789
000380 ec c8 27 3f aa 6c 23 3d 31 30 e8 bf da b0 80 bd
       0.6554096 0.039898552 -1.8139707 -0.06283732
000390 4c b5 a7 bf d2 a0 b5 be df 3a 44 3f 70 d1 17 bf
       -1.3102202 -0.3547426 0.7665233 -0.5930395
0003a0 95 4c 1f bf fb b8 04 3e ea a3 bd bf 17 96 e7 3e
       -0.6222623 0.1296119 -1.4815648 0.45231697
0003b0 67 ed 81 bf 5e ce d8 3d ce 4e f8 bf 41 61 5a be
       -1.0150574 0.105862364 -1.9399049 -0.21326162
0003c0 3d 5e d0 3e ee 9c e0 3e ca 3e 81 bf f1 64 b3 bf
       0.40696898 0.43869728 -1.0097287 -1.401518
0003d0 3d c6 f8 be cc fc 06 c0 c1 52 2d 3b f6 ab 19 bf
       -0.48588744 -2.1091795 0.002644703 -0.60028017
0003e0 6e 21 4b 3e c5 d8 e6 3e 7e 0c 58 be 90 f9 3d bf
       0.19836971 0.45087257 -0.21098515 -0.7420893
0003f0 94 2d 5f bf f2 47 a7 be 08 60 ba be 4f 63 39 3e
       -0.8717892 -0.32672077 -0.3640139 0.1810429

adv.bias f4 [10]
000000 96 69 bb 3e 05 83 13 bf 15 74 37 3e 33 4b 11 bf
       0.36603993 -0.57621795 0.17915376 -0.5675537
000010 2d 23 10 3f b4 89 04 bf b0 c7 b6 be 85 24 47 bf
       0.56303674 -0.5177262 -0.35699224 -0.777901
000020 d9 8b 8e 3e 17 ba 56 bf
       0.2784107 -0.838777

val.weight f4 [1, 50]
000000 eb 7b 08 3e 67 48 64 bf 45 bc a8 bf 30 5c 41 3e
       0.13328521 -0.8917298 -1.3182455 0.18882823
000010 e3 d2 ee bf 61 00 20 3f 38 56 a9 3e 11 98 4d 3f
       -1.8658108 0.6250058 0.33073592 0.8031016
000020 af 51 85 bf 34 50 b4 3f b9 5d be 3f 2d e3 4f 3f
       -1.0415553 1.4086976 1.4872352 0.8120602
000030 54 8a a2 bf 1e cb 56 3f 30 13 77 bf f9 c1 6e 3f
       -1.2698464 0.8390368 -0.9651365 0.9326473
000040 4e aa e8 bf 9c 04 29 c0 29 c5 5b bf 04 c4 86 3e
       -1.8176973 -2.6409063 -0.8584772 0.26321423
000050 29 0b ec bf 99 0c af bf 31 bf b7 bf dc b8 a2 bf
       -1.8440906 -1.367572 -1.4355222 -1.2712665
000060 2d 0f 8a 3f 8d 25 40 3f eb b8 aa bf c3 8d 19 bf
       1.0785881 0.750573 -1.3337682 -0.59981936
000070 0d 5e 06 c0 5f 99 5d 3d 14 65 b0 3f 6d b3 6b bf
       -2.0994904 0.054101344 1.3780847 -0.92070657
000080 d0 e7 ac bf 9a 89 54 bf 96 74 e5 bf 7b 2e 5e 3f
       -1.3508244 -0.83022463 -1.7926204 0.86789674
000090 d9 a6 03 c0 77 5a 34 be 57 b5 da bf 08 64 97 bf
       -2.0570586 -0.17612635 -1.708659 -1.1827402
0000a0 74 87 62 3f d6 17 88 3f 99 d9 b4 bf d5 c9 30 c0
       0.88487935 1.0632274 -1.4128906 -2.7623188
0000b0 c2 3e 7c bf d5 20 30 c0 4d 50 22 3d 17 60 79 3f
       -0.9853326 -2.752004 0.039627362 0.97412246
0000c0 02 4f 0f 3f fd 9e 24 3f
       0.5597993 0.64305097
