models/V1_TOKYO_06_30_17_161.pt (torch_old, 4167 bytes, 5 tensors)

fc1.weight f4 [50, 4]
00000000: 18c0 b0be 3279 ce3c 9f02 ae3f 855a 81bf
00000010: fd60 b13e 674e 2f3f b0b4 703d 037c 0d3f
00000020: 45b1 81bf b178 a13f e0fe f9be 2dd7 87bf
00000030: e24f 853f 0181 babe b700 bbbf 373a a23e
00000040: 8f73 c7bf 1eb2 2bbf b8f8 60be c45b 00be
00000050: 5615 b5bf 0a32 c6bf df46 843d 5f4d e7bd
00000060: c5e7 823f 129d 35be 0b40 20bf e2c1 043e
00000070: 2a5c 05c0 9eb7 a1be efbd 39bf 91bf 63bf
00000080: d287 023f 80bd 1f3e 4cab 403f 7c70 53bf
00000090: 37cc 993e 04f8 dfbe ef32 2c3f 0f21 90bf
000000a0: fd96 f8bf 1567 6bbe 76de db3e 682b a8be
000000b0: 1557 ad3c bc6d 983f 2004 dc3e e404 873f
000000c0: 54c6 993e dfcf 8e3c 4c7c 2c3f 85cf cb3f
000000d0: 23aa 02c0 516a 283e 67d2 1d3d 58c3 5abf
000000e0: 321c 313f fff1 81be 4457 f83f d0ba 473f
000000f0: dd90 fabe 6549 0fbf ab04 11bf 9886 b9bf
00000100: 6b72 17bf e4ff 6f3e 4647 943f a700 9a3d
00000110: 869a 56bd c6ac a0be 363f 773e 2d5a 4ebf
00000120: ec66 12c0 ed06 b3be b2c6 79bf 31bd 5e3e
00000130: 68a1 78be f3a0 9c3e 58f0 51bf d6b7 0b40
00000140: 6e37 413e b0a3 053f 160b 023f 177a 81bf
00000150: d955 5cbd 85b2 d43e 5dcd 7a3d fe26 c83f
00000160: 38d1 9ebf b18b e53c 3c0b 09bf a9ce 2f3f
00000170: f233 5a3f db98 3ebc cd4c 24bf f10f a5bf
00000180: c3a6 b0bf 9484 fabf fdd9 01be 0744 a9bf
00000190: d7b6 213f 69f9 8bbe 3604 4ebe 311b 25bf
000001a0: 5672 483f f95d d43e 99e9 0bbf cdd2 76bf
000001b0: e826 e5bf 7464 f9bf a4d9 ebbe ca51 d8be
000001c0: 3f2d 913e 0cf7 ec3e df7e 06bf 7368 0040
000001d0: 7c72 673f 03b7 463e c3c3 46bf 887f c23d
000001e0: d879 883f 249e 383f efff 693f 8d6f cabe
000001f0: 55f3 1fbe afdc 1d3f 251c ae3f 8d7d 82bd
00000200: 9902 1a40 f282 c53f 89d0 053e a1f9 ed3e
00000210: 1795 483f a273 04c0 b1b0 ec3e 6ae5 da3d
00000220: 8f1b 08c0 1bc3 d3bf cf67 dfbc 9175 3dbf
00000230: 825c b93d 7b04 853f 0479 ad3f 4940 163f
00000240: 2fd1 28bf 3cd1 e3bf d546 cb3d 39f8 bb3e
00000250: 8462 c4bf 9dde 4abf c022 b8bf 35c5 313f
00000260: f728 02c0 9d9a 8abf 0ee8 a8be a76a b3bf
00000270: bbf7 18c0 f80f 8bbf 36ff 883e 1635 99be
00000280: 4c18 fbbf 093f a3bf 7931 fd3c 052e 993e
00000290: 1fb7 87bf bccc c03e 89c8 9cbc 06b2 973f
000002a0: b2b8 fabf e0ce 8fbf ef30 2a3d 7e02 9dbe
000002b0: 8740 ab3e 358c ad3f 381e bd3f 4e14 7e3f
000002c0: 600a 5ebf b53c b83e 104c 64bf b8ad e9bf
000002d0: 75fc 0340 948d e43f f269 1fbe 8b45 063f
000002e0: 4f7e eabd aca5 85bf 3f74 cebf a8d7 a0be
000002f0: 36ea f6bf f49c ccbf ea12 8abe f44d 1dbf
00000300: 363f 1d3f 3e8b f3be a492 09bf 14e2 ff3d
00000310: d73e 25be 26fd 9abf aa4c a0bf 1540 63bf
-0.34521556 0.025204275 1.359455 -1.0105749 0.3464431 0.6847901 0.058766067 0.5526735
-1.0132223 1.2614957 -0.48827267 -1.0612541 1.0415003 -0.36426547 -1.4609593 0.3168504
-1.5582141 -0.6706866 -0.21969879 -0.12535006 -1.4147136 -1.5484021 0.0645883 -0.11294054
1.022698 -0.17735699 -0.6259772 0.12964585 -2.0837502 -0.315854 -0.7255544 -0.8896418
0.50988495 0.15599632 0.7526138 -0.8259351 0.30038616 -0.43743908 0.6726522 -1.1260089
-1.9421078 -0.22988541 0.42943162 -0.32845616 0.021159688 1.1908488 0.42971897 1.0548368
0.30034125 0.017433105 0.6737716 1.5922705 -2.0416343 0.16446806 0.038530733 -0.8545432
0.6918365 -0.2537994 1.9401631 0.7801943 -0.48938647 -0.55971366 -0.5664775 -1.44942
-0.5915896 0.23437458 1.1584251 0.07519656 -0.05239346 -0.31381816 0.24145207 -0.8060635
-2.2875319 -0.3496622 -0.9756881 0.21751858 -0.24280322 0.30591545 -0.8200736 2.1830955
0.18868801 0.5220289 0.50798166 -1.0115384 -0.05379281 0.4154245 0.061231006 1.56369
-1.2407598 0.028020712 -0.5353277 0.68674713 0.8523551 -0.011633123 -0.6417969 -1.289549
-1.3800892 -1.957171 -0.12680812 -1.3223885 0.63169616 -0.27338722 -0.20118794 -0.64494616
0.7829946 0.41477945 -0.54653317 -0.96415406 -1.7902498 -1.9483781 -0.46064484 -0.422499
0.28354833 0.46282232 -0.5253734 2.006375 0.90409064 0.19405751 -0.7764246 0.09496981
1.0662184 0.72116303 0.9140615 -0.39538231 -0.15620168 0.6166486 1.3602339 -0.06371603
2.4064085 1.5430586 0.13067831 0.46479514 0.78352493 -2.0695577 0.46228555 0.106882885
-2.126682 -1.6543916 -0.02727118 -0.7400752 0.090508476 1.0391992 1.3552556 0.5869184
-0.6594419 -1.7798228 0.099256195 0.36712816 -1.5342565 -0.7924593 -1.4385605 0.6944154
-2.0337503 -1.0828434 -0.32989544 -1.4016923 -2.3901203 -1.0864248 0.2675721 -0.29923314
-1.961679 -1.2753612 0.03090738 0.29917923 -1.0602759 0.376562 -0.019138591 1.1851203
-1.9587615 -1.1235008 0.041550573 -0.30665964 0.33447668 1.3558413 1.4774847 0.9924973
-0.8673458 0.35983816 -0.8917856 -1.825614 2.0622838 1.7855706 -0.15567759 0.52449864
-0.11449873 -1.0441184 -1.6129225 -0.31414533 -1.9290226 -1.5985398 -0.26967555 -0.6144707
0.6142458 -0.4756717 -0.5373938 0.12494293 -0.16137253 -1.2108505 -1.2523396 -0.88769656

fc1.bias f4 [50]
00000000: 7501 0d3f 2a14 9c3f 3409 66bf 3fbd 6a3f
00000010: 3062 3dbf 7a1e 37bf fa4e b33f f4d5 bbbe
00000020: 462b 903f 3443 753f a2ec 96bd d08b ac3f
00000030: ba35 3b3f c641 3abf 07c6 3a3e 9bdf fb3e
00000040: d775 0bbf 279c a83f 4d93 08bf 3400 7cbe
00000050: 13d9 903f 5be6 533f 3634 37be e430 8d3e
00000060: 7592 09bf f174 4f3f 53d9 1a3f 1bc1 54bf
00000070: 6bcb 473f ec80 543f 7974 b13c 69d0 653f
00000080: b5cf 883f a3c7 163f 3a58 86bf c6d6 1a3f
00000090: c3b7 71be 86df c8bd 4660 e3be 1ffb 6dbf
000000a0: 0d19 2dbf dbb1 0abf 9cac 64bf ea38 4b3f
000000b0: 7dbe 4fbe 0669 4d3f ca26 853e 9af4 87bf
000000c0: 2b0c b23f 2dd6 6d3f
0.5508035 1.2193654 -0.8985779 0.91695017 -0.7397795 -0.7153088 1.4008477 -0.3668667
1.1263206 0.9580567 -0.07369353 1.3480167 0.73128855 -0.7275661 0.18239604 0.49194035
-0.54476684 1.3172654 -0.53349763 -0.24609452 1.1316246 0.8277337 -0.1789101 0.27576363
-0.537391 0.81037813 0.6048786 -0.83107156 0.78044766 0.8300922 0.021661984 0.89771134
1.0688387 0.5889837 -1.0495675 0.6048397 -0.23605256 -0.09808259 -0.44409388 -0.92961305
-0.6761635 -0.54177636 -0.8932588 0.7938372 -0.2028751 0.8023838 0.26006156 -1.0621521
1.3909963 0.9290493

adv.weight f4 [10, 50]
00000000: 57ce 8d3f f5de 483f d114 e9bd 1946 023e
00000010: 843a 00c0 ee79 e7bf 8492 753f fb0a fcbe
00000020: b6fe ff3e 861c db3e e184 85bd e37a 6f3f
00000030: 71f7 e0be bac1 6fbf f11e f73e 67dc 3f3e
00000040: 858b 033f 3f59 213f c44f c0be 634b 2d3e
00000050: 9fdb 7b3f e9bf d63e d418 04bf 50ef a03e
00000060: 1be2 57bf 9233 3f3f a843 9f3c d69c 1cbf
00000070: baee 673f ac15 313f 0c8e acbf 277e 5c3f
00000080: b45c a7bf 3885 ccbe 340c 87bf 7d60 cbbe
00000090: 94eb 0c3e 9b7a 34bd 398f 24bf 1f4f 96bf
000000a0: 2fcb 8ebf 1e62 e73d f211 e9bf 7ef6 44bf
000000b0: 97e4 78be 8645 e8bf d566 1cbd de8b b6bf
000000c0: 73e3 c03e 790d 7c3e 8f35 52bf 0bea fcbe
000000d0: c38b d93d b950 04bf 6e37 93be 435c 51be
000000e0: d2f4 52bf ec4b 92be 8ea7 19bf c749 8fbe
000000f0: df51 f1bd ad15 6abf f7bd d5be 9241 91be
00000100: acb2 4dbf 0f61 0dbf 37bb 73be e621 9dbe
00000110: 7a20 a7bc 47a0 0dbf 24c5 26bf 380f 42bf
00000120: 614d d3bd fe34 69ba 7e5d 27be 4e1c b6be
00000130: 0990 0cbf 7fad 3fbe 3edb f7be a3b3 16bf
00000140: fab2 3dbe fd72 3cbf 551c 9dbe 1e9b 18bf
00000150: a502 6f3c 145e 01bf e934 a1be 1c93 2fbf
00000160: d399 f9be 2835 68be 2753 04bf f2c7 7bbe
00000170: f22a 8bbe 05a6 e2be aad0 15bf 4497 42bf
00000180: df50 12bf c0ec 06be 367f bdbe 6dcc b6be
00000190: 1f6a ab3c 7d95 8e3e 021e e03b a92c 4cbf
000001a0: 24b7 dcbe 458c 06bf ff8c b4bd 4fd6 22be
000001b0: 59e7 843e 38ec 413e 59b1 72be b4f9 3d3f
000001c0: a440 cabe 3731 1abf ea01 f8be 8576 c7be
000001d0: d6ee 88be 2ff0 f23e 196e b9be b9a7 90bc
000001e0: 03e8 903e 5a94 743e 21ed 633e e186 a9bd
000001f0: fa96 7abf b078 a23e 4f05 cfbe bf41 a0bf
00000200: c53b 5a3d 63df 9bbe 1cfa 0d3e d819 993e
00000210: e53e eabe b604 dbbe bc30 f5be 4f56 6c3e
00000220: 57d5 cdbe e6d4 62be a5df cfbe ead9 bebe
00000230: 9b0d f6bd 2c1a d1bd c5f9 ffbe 8ff2 f23e
00000240: eb2f 04bf 59a9 a0bf e6ec babe 7d1b 97bf
00000250: 9d23 2c3f 3525 0cbe 3d4d 34bf 0059 08be
00000260: de5e 89be 41ca 1abf 19de cfbd a74e a9be
00000270: b66a 753d 2a92 cdbe b748 15be e8c2 34bf
00000280: ca51 c8be 6fea 43bf 6938 4bbf c47b 6ebe
00000290: aabe 2ebf d50f 04bf 0f8e 86be 0d79 1dbf
000002a0: 9579 f4be bfbd 9fbe 8180 08be c4e5 38bf
000002b0: a731 58be b193 d2be a466 50be 9a81 50be
000002c0: 120a e5bb daf5 94be b981 48be f250 e3be
000002d0: af32 16bf 7e1e edbe f87b 6bbf 58be 91be
000002e0: 6b46 e8be a4e9 41bf 4733 b0be d9fd ccbe
000002f0: d6aa 60bd f7dd 00bf cd93 ccbe ded5 5fbf
00000300: cb18 efbe f029 21bf 2ac7 f6be ec1c adbe
00000310: 0fcf 8fbe 50e3 d5be 9aa8 abbe 726d 08bf
00000320: e76b 13bf 25fe 07bf 29f4 ebbd 8533 34bf
00000330: 84d2 73be 4801 b4be 4026 34bf 5d7b 49be
00000340: dad7 1ebf 0f3d 9dbe 7348 0abf 8949 1ebf
00000350: 8f96 51bf 2de9 c6be 8c8a 3ebf 2961 f9be
00000360: 7d4f a7be 01b6 0fbf 3fd1 203d b398 0cbf
00000370: 4dc6 0bbe 3775 dcbe aa43 b7be dfb6 22bf
00000380: c5d9 9ebe bad2 96be 455e 26bf d871 1fbd
00000390: 1320 27bf ff17 17bf 4aad 00be cd64 64bf
000003a0: c6e7 51bf 5cbf 1dbf e82e 38be 63bc dbbe
000003b0: 017d 1ebf 4fb0 a1be 0f92 d2be 8182 343c
000003c0: 06b0 b3be 296e d4be f34e f7bd 0167 bdbe
000003d0: 7135 9cbe a4ae 3dbf 798f 16bf 139a bcbe
000003e0: 025d 28bf cb3a b2be d2dd 11bf 0916 53bf
000003f0: e1fd d6be cfed 94be d634 8fbe 98d8 b2bd
1.1078595 0.78465205 -0.113809235 0.12722053 -2.0035715 -1.8084085 0.9592669 -0.49227127
0.49999017 0.427952 -0.06519485 0.93546885 -0.43938783 -0.9365498 0.48265794 0.1873642
0.51384765 0.63026804 -0.37560856 0.16923289 0.9838199 0.4194329 -0.51600385 0.3143258
-0.84329385 0.74688065 0.01944144 -0.6117681 0.9059864 0.69173694 -1.3480849 0.86129993
-1.3075166 -0.39945388 -1.0550599 -0.39722052 0.13761741 -0.04406224 -0.6428104 -1.1742896
-1.1155757 0.11298011 -1.8208601 -0.7693862 -0.2430595 -1.8146217 -0.038184006 -1.4261434
0.3767353 0.24614514 -0.82112974 -0.4939731 0.106223606 -0.51685673 -0.28753227 -0.20445351
-0.82404816 -0.2857355 -0.60021293 -0.27985975 -0.11783194 -0.91439325 -0.41746494 -0.2837034
-0.80350757 -0.55226225 -0.23801886 -0.30689925 -0.020401228 -0.5532269 -0.6514456 -0.7580447
-0.10317493 -0.0008896141 -0.16344258 -0.3556847 -0.5490728 -0.18718527 -0.48409456 -0.58867854
-0.18525305 -0.7361296 -0.30685678 -0.5961169 0.014588033 -0.50534177 -0.3148568 -0.68583846
-0.4875017 -0.22676528 -0.5168938 -0.24587992 -0.27181202 -0.44267288 -0.5852152 -0.76012063
-0.5715465 -0.1317625 -0.37011117 -0.3570284 0.020924626 0.27848426 0.0068395147 -0.79755646
-0.43108475 -0.52557784 -0.08815955 -0.15902065 0.25957754 0.18937767 -0.23700465 0.7420914
-0.39502442 -0.60231346 -0.4843896 -0.3895761 -0.26744717 0.4744887 -0.3621681 -0.017658101
0.2830201 0.23884717 0.22258426 -0.08277679 -0.9788662 0.31732702 -0.40433738 -1.2520064
0.053279657 -0.30443868 0.1386494 0.2990253 -0.4575111 -0.42777032 -0.47888744 0.23079799
-0.40201828 -0.22151527 -0.40600315 -0.3727563 -0.12014314 -0.1021007 -0.49995247 0.47450683
-0.51635617 -1.2551681 -0.36508864 -1.1805264 0.6724184 -0.13686068 -0.70430356 -0.13315201
-0.2683019 -0.60464865 -0.10149784 -0.3306782 0.05991622 -0.40150577 -0.1457852 -0.70609903
-0.391249 -0.7652959 -0.7938295 -0.232894 -0.6825968 -0.5158666 -0.26280257 -0.61512834
-0.4774901 -0.31199452 -0.1333027 -0.72225595 -0.21112691 -0.41128305 -0.20351654 -0.20361939
-0.006989726 -0.2909382 -0.19580735 -0.44397694 -0.5867109 -0.46312326 -0.91986036 -0.28465533
-0.45366225 -0.7574713 -0.34414122 -0.4003742 -0.05485042 -0.5033869 -0.39956513 -0.8743571
-0.46698603 -0.62954617 -0.48198825 -0.33811128 -0.2808766 -0.41774988 -0.3352707 -0.53292
-0.5758652 -0.5312217 -0.11521179 -0.7039111 -0.23810774 -0.35157228 -0.70370865 -0.19675966
-0.62048113 -0.30710647 -0.540168 -0.61830956 -0.8187036 -0.38849774 -0.74430156 -0.4870694
-0.32677832 -0.5613709 0.039262053 -0.549205 -0.13649864 -0.43058178 -0.3579381 -0.6356029
-0.3102552 -0.29457647 -0.64987594 -0.03892693 -0.65283316 -0.5902099 -0.12566105 -0.8921631
-0.81994283 -0.61620116 -0.17986643 -0.42917165 -0.6190949 -0.31579825 -0.4112706 0.011017443
-0.35095233 -0.41490296 -0.12075605 -0.36992648 -0.30509523 -0.74094605 -0.5881267 -0.368363
-0.6576692 -0.3481048 -0.56979096 -0.824555 -0.4199057 -0.29087684 -0.27969998 -0.08732718

adv.bias f4 [10]
00000000: 7df0 e23e ed6f 01bf 9b98 8b3e 8581 0abf
00000010: a416 14bf cbd1 2fbf 835f 39be b844 7cbe
00000020: 3639 0abf cb0d 273e
0.44324103 -0.5056141 0.27264866 -0.5410388 -0.57847047 -0.68679494 -0.18102841 -0.24635589
-0.53993547 0.16313855

val.weight f4 [1, 50]
00000000: c7be b43d c488 d53f daa8 9cbf 4704 1a3f
00000010: 1a6f fcbf 8a40 0bc0 30e0 933f 70c3 54bf
00000020: e80e 803f ce8c 113f 9a72 34bf 3a3e 723f
00000030: 4f29 7b3e 5fe6 82bf 8857 71be 3f08 0cbe
00000040: d40f 2abf ca05 f73d 1755 b8bf b985 37be
00000050: 02e3 953e ed4c 683f 89d7 83bf 76b3 793e
00000060: d828 a8bf a888 753f b971 ba3e 21e9 cdbf
00000070: 3f7d 463f d5cb 673f 83a8 2ebe 241e b83e
00000080: 3b62 89bf 89c7 80bf f8c1 febf 45fd eb3e
00000090: 3610 9cbf 2e23 25bf c081 9ebf e486 d8bf
000000a0: f63b c3bf 71b6 883e 1c69 f9bf ae7c 633e
000000b0: 1705 58bf 185d 04c0 7bda 93be 352f cdbf
000000c0: d4b4 803f d3b2 62bd
0.088254504 1.6682363 -1.223903 0.60162777 -1.9721406 -2.1758142 1.1552792 -0.83110714
1.0004549 0.56855476 -0.7048737 0.946262 0.24527477 -1.0226554 -0.23568547 -0.1367502
-0.664304 0.12061651 -1.4400967 -0.17922105 0.29274756 0.9074238 -1.0300151 0.24384865
-1.3137465 0.95911646 0.36414889 -1.608677 0.7753486 0.905454 -0.1705647 0.35960495
-1.0733103 -1.0060893 -1.9902945 0.46091667 -1.2192447 -0.64506805 -1.2383347 -1.6916165
-1.5252674 0.26701692 -1.9485202 0.2221553 -0.84382766 -2.068182 -0.28877625 -1.6030031
1.0055184 -0.05534632
