models/V1_TOKYO_05_51_46_161.pt (torch_old, 4167 bytes, 5 tensors)

fc1.weight f4 [50, 4]
0	0x3e061012	0.13092068
1	0x3e01aa94	0.12662727
2	0x3fb21c09	1.3914806
3	0xbf931cec	-1.1493201
4	0x3f5df0a6	0.86695325
5	0x3f80fd71	1.0077344
6	0x3e06a36f	0.13148282
7	0x3f4c6467	0.798407
8	0xbf2959dd	-0.66152745
9	0x4009f14e	2.155353
10	0xbf6eb8ac	-0.93250537
11	0xbf3119ea	-0.69180167
12	0x3fc957f4	1.5729966
13	0xbeb085c3	-0.34477052
14	0xbf9e6e1a	-1.237735
15	0x3f627a93	0.88468283
16	0xbfe13b59	-1.7596236
17	0xbf93a79b	-1.1535524
18	0xbe160e0f	-0.146538
19	0xbe2737a8	-0.16329825
20	0xbde0c75f	-0.10975527
21	0xbfca04d1	-1.578272
22	0x3f983c31	1.1893369
23	0x3f15aab7	0.58463615
24	0x3fc2e9c5	1.5227591
25	0x3e2089db	0.15677588
26	0xbeeb8cfc	-0.46006
27	0x3e593659	0.21212138
28	0xc0096f7f	-2.1474302
29	0xbe77e7e9	-0.2420956
30	0xbecc43c2	-0.39895445
31	0xbf5e3dc4	-0.86812997
32	0x3f19c4d8	0.60065985
33	0x3f00a7ea	0.50256217
34	0x3f8ae4e8	1.0851107
35	0xbe3484d5	-0.17628796
36	0x3ef06a9c	0.46956336
37	0xbee7b66d	-0.45256367
38	0x3f1deb08	0.61686754
39	0xbf914e12	-1.135195
40	0xc003ca1d	-2.059211
41	0xbecfde81	-0.40599445
42	0x3e88d856	0.2672755
43	0xbed71263	-0.42006215
44	0x3da39c92	0.07988848
45	0x3fb1c9e3	1.3889736
46	0x3f40f9ca	0.7538115
47	0x3f9ea675	1.2394549
48	0x3f8cdd23	1.1004986
49	0xbf642eb2	-0.8913375
50	0x3f7526a0	0.9576206
51	0x3f850fa5	1.0395399
52	0xc01aa747	-2.4164598
53	0xbf2ab6f4	-0.66685414
54	0xbc921011	-0.017829927
55	0xbf48b579	-0.78401905
56	0x3f914096	1.1347835
57	0xbf9bfd40	-1.2186661
58	0x3fa32df9	1.2748405
59	0x3f0d2834	0.5513947
60	0xbfabf046	-1.3432701
61	0xbfac0edf	-1.3442038
62	0xbed53ddb	-0.41648754
63	0xbf0fdd7e	-0.56197345
64	0xbf460f65	-0.7736724
65	0xbfb0c178	-1.3809042
66	0x3fbfdd19	1.4989349
67	0xbe018971	-0.12650086
68	0x3f1e4258	0.6181998
69	0x3f593b1f	0.84855837
70	0x3ef02ce9	0.46909264
71	0xbf6c3fe1	-0.9228497
72	0xc02825bf	-2.6273038
73	0xbf80baf9	-1.005706
74	0xbf178247	-0.5918316
75	0x3dff44a3	0.12464263
76	0xbfd3c4fd	-1.6544491
77	0x3f39a5ce	0.7251862
78	0xbfaee1e1	-1.3662683
79	0x3dfaf613	0.12253966
80	0x3fa9f771	1.3278638
81	0x400aebc7	2.1706407
82	0xbf024a6c	-0.5089481
83	0xbe45f1f4	-0.19330579
84	0x3e99d407	0.30044577
85	0x3f89ece7	1.0775422
86	0x3df4c7f7	0.11952203
87	0x3fa04e80	1.2523956
88	0xbfd21c9f	-1.6414984
89	0xbf245bd8	-0.6420264
90	0xbe862c7a	-0.26205808
91	0x3d9c7f6c	0.07641491
92	0x3efa3371	0.48867372
93	0x3ee17eea	0.4404214
94	0xbe0b983a	-0.13632289
95	0xbfe1ba1c	-1.7634921
96	0xbfc22b6e	-1.5169504
97	0xbfcee602	-1.6163943
98	0xbee625bc	-0.44950664
99	0xbfa339fc	-1.275207
100	0x3f2867df	0.65783495
101	0xbde6a333	-0.112615965
102	0xbe0769b7	-0.13223921
103	0xbf324f53	-0.6965229
104	0x3d63e20a	0.05563549
105	0x3f93940d	1.1529557
106	0xbf37ef1d	-0.7184923
107	0xbf963e47	-1.1737756
108	0xbfec6ba9	-1.8470355
109	0xc028c027	-2.636728
110	0x3e8d7302	0.27626806
111	0xbf31253d	-0.69197446
112	0x3e90ce00	0.28282166
113	0x3f31f2ea	0.6951128
114	0xbf3db41d	-0.74102956
115	0x3fa5a591	1.2941152
116	0x3f9ed565	1.2408873
117	0x3d00b0d7	0.031418648
118	0xbf19fe0f	-0.6015329
119	0x3e22d1d6	0.15900359
120	0x3e290bb4	0.1650837
121	0x3f8774ca	1.0582516
122	0x3f526c39	0.82196385
123	0x3dda80f7	0.10669129
124	0x3f91bc1e	1.1385534
125	0x40090fe9	2.141596
126	0x3f7ba1a4	0.9829352
127	0x3ec9f534	0.39444888
128	0x40276094	2.6152697
129	0x40155951	2.3335764
130	0x3f3d2925	0.73890907
131	0x3f898e8b	1.0746626
132	0x40057ce9	2.085749
133	0x3f8ec084	1.1152501
134	0x3e687513	0.2270091
135	0x3e57de29	0.21080841
136	0xc017277c	-2.361785
137	0xbff36690	-1.9015675
138	0xbde8708d	-0.11349592
139	0xbf5a97ab	-0.85387677
140	0x3dc40f73	0.09573259
141	0x3f5a62e0	0.8530712
142	0x3f7bbced	0.9833515
143	0x3f866176	1.0498493
144	0x3ebc37ef	0.36761424
145	0x3eee2cad	0.4651846
146	0x3d87355d	0.06601975
147	0x3fc3b18a	1.5288556
148	0xbfabc86f	-1.3420542
149	0xbf889e53	-1.0673317
150	0xbf79593e	-0.974018
151	0x3f123681	0.57114416
152	0xc00c85be	-2.195663
153	0xbfb08ae5	-1.3792387
154	0xbe8054ac	-0.250646
155	0xbfbe4174	-1.4863725
156	0xc0276fee	-2.6162066
157	0xbf9e343c	-1.2359691
158	0x3da17fb3	0.07885685
159	0xbf0ff514	-0.56233335
160	0xbf846ad1	-1.0345098
161	0xc02c539f	-2.6926038
162	0x3f156a02	0.5836488
163	0x3fdae4ae	1.7101038
164	0x3e75f6d5	0.2401994
165	0x3f7508d9	0.95716625
166	0xbf4fc93e	-0.81166446
167	0x3fbb858d	1.4650131
168	0xbffec674	-1.9904313
169	0xc0109e87	-2.2596757
170	0x3e91122d	0.2833418
171	0xbf262730	-0.64903545
172	0xbb1e30a3	-0.0024137876
173	0x3fb412f6	1.4068286
174	0x3f95919f	1.1685065
175	0x3eb03b92	0.3442045
176	0xbfc479c3	-1.5349659
177	0xbe93fe79	-0.28905085
178	0xbefbe237	-0.49196026
179	0xbf92fbc1	-1.1483079
180	0x3fd2a359	1.64561
181	0x40265909	2.5991843
182	0xbf0f6253	-0.56009406
183	0x3f768ce1	0.96308714
184	0x3f62a97c	0.8853986
185	0xbf21bed3	-0.631818
186	0xbf9514a7	-1.1646928
187	0x3f1dd901	0.61659247
188	0xc0108267	-2.2579591
189	0xbfe3cfda	-1.7797806
190	0xbe9fb6c3	-0.31194124
191	0xbf4aa48a	-0.79157317
192	0x3f4f3661	0.8094235
193	0xbef2baf7	-0.47408268
194	0xbeee34ec	-0.4652475
195	0x3f0d0569	0.5508638
196	0x3eeee5de	0.4665975
197	0xbf8b23f1	-1.0870343
198	0xbf2210b7	-0.63306755
199	0xbd8a13ad	-0.06742034

fc1.bias f4 [50]
0	0x3f8c832f	1.0977534
1	0x3f8e1dad	1.1102806
2	0xbf91e43e	-1.1397779
3	0x3f375357	0.7161154
4	0xbf255018	-0.6457534
5	0x3f0f3e4d	0.5595444
6	0x3fa6a707	1.3019723
7	0x3fa769e8	1.3079195
8	0x3f9f111f	1.24271
9	0x3f94a99c	1.1614261
10	0xbe8f4d8a	-0.27988845
11	0x3f9d2eb3	1.2279876
12	0x3f96984e	1.176523
13	0xbf111f6b	-0.56688565
14	0x3fa65a5f	1.2996329
15	0x3f29b514	0.6629193
16	0xbdc54cdf	-0.096338026
17	0x3f8aca2c	1.0842948
18	0xbf2580ed	-0.6464985
19	0xbf99a05c	-1.2002063
20	0x3f216c0a	0.6305548
21	0x3f6f13e8	0.9338975
22	0xbf0537dc	-0.5203836
23	0x3f1293f3	0.57257
24	0xbea2b000	-0.31774902
25	0x3f2db3ab	0.67852277
26	0x3f3dd710	0.74156284
27	0xbf597d14	-0.8495648
28	0x3f6a8c14	0.9161999
29	0x3f41c8b8	0.756969
30	0x3f1d34a5	0.61408454
31	0x3e6e99c7	0.23300849
32	0x3f39920a	0.7248846
33	0x3f4c1e16	0.7973341
34	0xbf577ff4	-0.84179616
35	0x3f861ab6	1.0476902
36	0x3ef067e6	0.46954268
37	0x3f8c71ea	1.0972264
38	0xbe18d41f	-0.14924668
39	0xbf3d95c8	-0.74056673
40	0x3df0c9d0	0.11757243
41	0xbf355b64	-0.70842576
42	0xbf71c54c	-0.94441676
43	0x3f483cf2	0.78217995
44	0xbe107089	-0.14105429
45	0x3f2aa72d	0.6666134
46	0x3e681387	0.22663699
47	0xbf5403d9	-0.8281837
48	0x3fa67974	1.3005815
49	0x3f899cad	1.0750939

adv.weight f4 [10, 50]
0	0xbe8e9504	-0.27848065
1	0xbf80d42a	-1.0064747
2	0x3e6b8bf0	0.230026
3	0xbf3b8931	-0.7325621
4	0xbf040bf2	-0.5158073
5	0xbf6a7a12	-0.91592515
6	0xbea0262a	-0.31279117
7	0xbf28295d	-0.65688115
8	0xbf40ed6f	-0.75362295
9	0xbe9fab58	-0.31185412
10	0xbde0f0d1	-0.10983432
11	0xbf647170	-0.8923559
12	0xbf2115a8	-0.6292367
13	0xbe9ad1f2	-0.302383
14	0xbeb81246	-0.35951442
15	0xbe45a245	-0.19300182
16	0xbf663754	-0.89928174
17	0xbea84554	-0.32865393
18	0xbd641604	-0.05568506
19	0xbc00f803	-0.007871631
20	0xbf057d09	-0.52143914
21	0xbf898f98	-1.0746946
22	0xbf05a55d	-0.5220545
23	0x3de46c7f	0.111535065
24	0xbe8a5552	-0.2701822
25	0x3e102720	0.14077425
26	0xbeda21f9	-0.42604044
27	0xbe6ca216	-0.23108706
28	0xbed4d093	-0.4156538
29	0xbeeb26c7	-0.45928022
30	0xbf4ee79d	-0.80822164
31	0xbf63f16f	-0.89040273
32	0xbf3ad4c6	-0.72980917
33	0xbf4b8250	-0.79495716
34	0xbe5e7d93	-0.2172759
35	0xbf8c234c	-1.0948272
36	0xbea65d88	-0.32493234
37	0xbf06942a	-0.5256983
38	0xbecd0819	-0.4004524
39	0xbebb58d0	-0.36591196
40	0xbf2ac6e0	-0.6670971
41	0xbedc23bd	-0.42996016
42	0xbefd90a4	-0.49524415
43	0xbf553ef3	-0.8329918
44	0xbebaa7cd	-0.36456147
45	0xbf2e9833	-0.6820099
46	0xbf15a8c8	-0.58460665
47	0xbedb314e	-0.42811054
48	0xbf3a792a	-0.7284113
49	0xbebf5027	-0.3736584
50	0xbf3fbe03	-0.7489931
51	0xbe14f347	-0.14545928
52	0xbe5113ac	-0.2041766
53	0xbf137471	-0.5759955
54	0xbf20430b	-0.626023
55	0xbf0ec921	-0.5577565
56	0xbf903a20	-1.1267738
57	0xbeaa62a9	-0.33278397
58	0xbf334149	-0.7002149
59	0xbe712a78	-0.23551357
60	0xbe1c0cc5	-0.15239246
61	0xbf81ca98	-1.0139952
62	0xbdfb484a	-0.122696474
63	0xbf0a4ddd	-0.5402506
64	0xbf058489	-0.5215536
65	0xbef270b9	-0.47351626
66	0xbe761313	-0.24030714
67	0x3d76a8e3	0.060219657
68	0xbe85bf8f	-0.2612271
69	0xbe998ee6	-0.29991835
70	0xbf55e2f0	-0.83549404
71	0xbf03883e	-0.51379764
72	0xbdd0ca87	-0.10194879
73	0x3ebcbe1c	0.36863792
74	0xbe50c1c5	-0.20386417
75	0xbcbe45d2	-0.023226652
76	0xbe9fb23d	-0.31190673
77	0xbef04e1e	-0.469346
78	0xbf47d8f6	-0.7806543
79	0xbf4cc6b9	-0.79990727
80	0x3c5d6a32	0.0135140885
81	0xbe248b3d	-0.1606874
82	0xbe1fa3c6	-0.15589818
83	0xbf3706d6	-0.71494806
84	0xbeaeaa38	-0.34114242
85	0xbea5699a	-0.3230713
86	0xbe89eb3f	-0.2693729
87	0xbf24470a	-0.64170897
88	0xbf101abf	-0.5629081
89	0xbede51da	-0.43421823
90	0xbfa5b13e	-1.2944715
91	0x3ebf49ff	0.37361142
92	0xbf147165	-0.57985526
93	0x3b1c2908	0.0023828167
94	0xbf0a492a	-0.5401789
95	0xbf823b1c	-1.0174289
96	0xbed6e886	-0.41974276
97	0xbebd22de	-0.36940664
98	0xbf099127	-0.5373711
99	0xbe18ecc6	-0.14934072
100	0x3fb8dee7	1.4443024
101	0x3f88248e	1.0636156
102	0xbfa7d354	-1.3111367
103	0x3e7e5422	0.24836782
104	0xbfd503b1	-1.6641752
105	0xbf5ad0d0	-0.8547487
106	0x3f249a80	0.6429825
107	0x3e428cbc	0.18998998
108	0x3fa73b09	1.3064891
109	0x3f61d0fb	0.88209504
110	0xbf31e255	-0.6948598
111	0x3fb02b82	1.3763278
112	0xbf9fa566	-1.2472351
113	0xbf947826	-1.1599166
114	0xbfd67523	-1.6754497
115	0x3cd1fdb8	0.025633678
116	0xbf68f0e3	-0.90992564
117	0x3f72bfe0	0.9482403
118	0xbf70dc42	-0.94086087
119	0xbf9c886e	-1.2229135
120	0xbfb1b871	-1.3884412
121	0x3f092901	0.5357819
122	0xbf67a389	-0.9048391
123	0x3eba19ed	0.36347905
124	0xbf82d9cc	-1.0222716
125	0x3f26cbde	0.65154827
126	0xbd81c458	-0.06336278
127	0xc012d8db	-2.2944858
128	0x3efb7bf6	0.49118012
129	0x3f49bae3	0.7880079
130	0x3f1f3b36	0.62199724
131	0xc011def1	-2.2792323
132	0xbfe38085	-1.7773596
133	0xc0009085	-2.0088208
134	0xbfc6e824	-1.5539594
135	0x3f7c6a0c	0.98599315
136	0x3e9e7f1b	0.3095635
137	0x3e47e3b1	0.19520451
138	0xbefe6852	-0.49688965
139	0xbfbc1d43	-1.469643
140	0xbf026f22	-0.50950825
141	0xbf415b7c	-0.7553022
142	0xc02958e4	-2.6460505
143	0x3ef69a65	0.4816467
144	0xbed6f4f2	-0.41983753
145	0xc003537e	-2.051971
146	0x3ea4af32	0.32164913
147	0xbfd73f9c	-1.6816287
148	0x3f4f1e26	0.8090538
149	0x3f09359b	0.5359742
150	0xbf20dd0b	-0.62837285
151	0xbeb890b7	-0.3604791
152	0xbe4f3bcd	-0.20237656
153	0xbf3e536b	-0.74346036
154	0xbea1ae2e	-0.315782
155	0xbf09e68a	-0.538674
156	0xbd9784e1	-0.073983915
157	0xbf0bbdd8	-0.54586554
158	0xbe9dd768	-0.30828404
159	0xbf2140c4	-0.6298945
160	0xbecd9ad0	-0.40157175
161	0xbf4b0e79	-0.7931896
162	0xbf336b08	-0.7008519
163	0xbea0e544	-0.31424916
164	0xbf3a199a	-0.72695315
165	0xbee6a143	-0.45044908
166	0xbea6aa52	-0.3255182
167	0xbf22906e	-0.6350163
168	0xbf2ae5d0	-0.66756916
169	0xbf2fc3ad	-0.6865795
170	0xbe8bd54a	-0.27311164
171	0xbf31630b	-0.6929175
172	0xbeb53717	-0.35393593
173	0xbea98a34	-0.33113253
174	0xbe7f3625	-0.24922998
175	0xbe1953bb	-0.14973347
176	0xbd32a00f	-0.043609675
177	0xbe92e2f9	-0.2868879
178	0xbee963e5	-0.45584026
179	0xbf201225	-0.62527686
180	0xbf2b42ba	-0.6689869
181	0xbf147a0d	-0.57998735
182	0xbf59e976	-0.8512186
183	0xbefdaf70	-0.4954791
184	0xbf0f739c	-0.5603578
185	0xbf3ec648	-0.74521303
186	0xbf52bfff	-0.8232421
187	0xbf0dfe03	-0.55465716
188	0xbd95998a	-0.07304676
189	0xbf14a7df	-0.5806865
190	0xbf25ff19	-0.64842373
191	0xbf715e1e	-0.94284236
192	0xbef5bb26	-0.47994345
193	0xbf20408a	-0.6259848
194	0xbee989d4	-0.45612967
195	0xbeac2f5e	-0.33629888
196	0xbeb0a9cc	-0.34504545
197	0xbf091baa	-0.53557837
198	0xbf06710c	-0.52516246
199	0xbf14d193	-0.58132285
200	0xbe48db6b	-0.19614951
201	0xbce1d097	-0.027565284
202	0x3e2bb535	0.16768344
203	0xbee9c7eb	-0.45660338
204	0xbf765f17	-0.96238846
205	0xbf5f1788	-0.8714528
206	0xbee4df5a	-0.44701654
207	0xbe53a073	-0.20666675
208	0xbf184896	-0.5948576
209	0x3ccfbcb4	0.025358535
210	0xbf18c5cf	-0.5967683
211	0xbe61ad5d	-0.22038789
212	0xbf3d3d28	-0.7392144
213	0xbf4dc61e	-0.8038043
214	0xbf8eae93	-1.1147026
215	0xbf311845	-0.6917766
216	0xbec4ae5e	-0.38414282
217	0x3ba04cd2	0.00489197
218	0xbe284ec7	-0.16436301
219	0xbe8489c8	-0.2588637
220	0xbf54e0c6	-0.8315548
221	0xbcc93532	-0.024561498
222	0xbec898f3	-0.3917919
223	0x3d815b93	0.063162945
224	0xbeed520f	-0.46351668
225	0xbb86179e	-0.004092171
226	0xbe4241ef	-0.18970464
227	0xbf27d25d	-0.65555364
228	0xbe8be923	-0.27326307
229	0xbeb9778f	-0.36224028
230	0xbece8186	-0.40333194
231	0xbf417fbb	-0.75585526
232	0xbf76c6e4	-0.96397233
233	0xbf53c968	-0.82729197
234	0xbf3b9c79	-0.73285633
235	0x3b818985	0.003953161
236	0xbeab4cdb	-0.33457074
237	0xbea24d31	-0.31699517
238	0xbf1dbd2d	-0.61616784
239	0xbec37b57	-0.38180038
240	0xbf3afbda	-0.73040545
241	0x3e69eb7a	0.22843733
242	0xbf3018a2	-0.68787587
243	0x3cdce5de	0.026965078
244	0xbeb5f7da	-0.35540658
245	0xbf64ff0a	-0.8945166
246	0xbf2c1566	-0.6722015
247	0xbf768096	-0.96289957
248	0xbef238d4	-0.4730898
249	0xbec2e8b8	-0.38068175
250	0x3f16d17f	0.58913416
251	0x3f476839	0.77893406
252	0xbf8a95b4	-1.0826936
253	0x3e92dc26	0.28683585
254	0xbff668cd	-1.9250733
255	0x3e0780df	0.13232754

adv.bias f4 [10]
0	0xbf24bbb0	-0.6434889
1	0xbef7aeaf	-0.4837546
2	0x3f3e7c25	0.7440818
3	0xbf17d3ae	-0.5930737
4	0xbeb8dced	-0.36106053
5	0x3e8c6942	0.27424055
6	0xbef93c42	-0.48678786
7	0xbd90b323	-0.070654176
8	0xbf307821	-0.689333
9	0xbeb239ed	-0.3480982

val.weight f4 [1, 50]
0	0x3f07fc4f	0.5311937
1	0x4002fe4b	2.0467708
2	0xc00d7222	-2.210091
3	0x3f4dd623	0.8040487
4	0xc01ea30a	-2.478701
5	0xbf64d42a	-0.89386237
6	0x3f9c3cf4	1.2206101
7	0xbec43261	-0.38319686
8	0x3f964f61	1.1742975
9	0x3f30f259	0.69119793
10	0xbf83f087	-1.0307778
11	0x3f9697d4	1.1765084
12	0xbe62ff3e	-0.2216768
13	0xbf95a686	-1.1691444
14	0xbf85da24	-1.0457196
15	0xbee7eed5	-0.45299402
16	0xbf9d64ff	-1.2296447
17	0x3f4a6d82	0.79073346
18	0xbfe713ee	-1.8052957
19	0xbfa9f937	-1.3279179
20	0xbff60d3e	-1.9222791
21	0x3f9e5eb7	1.2372655
22	0xbfd7d495	-1.686175
23	0x3ebbbdf0	0.36668348
24	0xbf96c783	-1.1779636
25	0x3f4cc740	0.7999153
26	0x3e8de5e7	0.27714464
27	0xc0401c93	-3.001744
28	0x3efbc90c	0.49176824
29	0x3f790aa2	0.9728185
30	0x3f259c2c	0.64691424
31	0xbf6854a5	-0.9075416
32	0xbfbf7324	-1.4957013
33	0xbfa1cd7b	-1.2640833
34	0xc021784d	-2.5229676
35	0x3f94d230	1.1626644
36	0x3f568aa3	0.8380529
37	0xbee720d2	-0.45142227
38	0xbfaa16a6	-1.3288162
39	0xc003fd67	-2.0623415
40	0xbf85d84d	-1.0456635
41	0x3f65feda	0.89842
42	0xc03bafd1	-2.932606
43	0x3ec7e605	0.39042678
44	0xbf5b0ec8	-0.8556943
45	0xc0107ea5	-2.2577298
46	0x3df85fa9	0.12127621
47	0xbfe3195d	-1.7742115
48	0x3f7e10fa	0.99244654
49	0x3e6d0f35	0.23150332
