models/V1_TOKYO_04_59_21_161.pt (torch_old, 4167 bytes, 5 tensors)

fc1.weight f4 [50, 4]
0	0x3f8b3d19	1.087802
1	0x3f2dc7af	0.6788282
2	0x3f7b1dbe	0.9809226
3	0xbf389eb7	-0.7211718
4	0x3f49a6de	0.78770244
5	0x3f3cf508	0.7381139
6	0x3e41f8a4	0.18942505
7	0x3f101ff3	0.5629875
8	0xbeb70054	-0.35742438
9	0xbf10d02d	-0.5656765
10	0xbe9e6bab	-0.3094152
11	0xbfc5d7b4	-1.5456452
12	0x3fce8ad2	1.6136115
13	0xbf4ab388	-0.7918019
14	0xbf7cbb5f	-0.98723406
15	0xbf1f1fe0	-0.6215801
16	0xbfc0a91c	-1.5051608
17	0xbf9cc990	-1.2249012
18	0xbea8aaaa	-0.32942706
19	0xbe119d05	-0.14220054
20	0x3ed5aa6c	0.41731584
21	0xbf695c6d	-0.91156656
22	0x3f8f44e0	1.1192894
23	0x3f517377	0.8181681
24	0x3fa54644	1.2912068
25	0x3daf8549	0.08570344
26	0xbf8fa646	-1.1222618
27	0x3e68e5c1	0.22743894
28	0xbfe8ac95	-1.8177668
29	0xbf205aa1	-0.6263829
30	0xbebd19b9	-0.36933687
31	0xbf09f0c0	-0.5388298
32	0x3fde7cb2	1.7381804
33	0x3f1e55e2	0.61849797
34	0x3f1632e1	0.58671385
35	0xbec4af4b	-0.38414988
36	0xbe171872	-0.14755419
37	0xbed31445	-0.41226402
38	0x3ea265a3	0.31718168
39	0xbfb33319	-1.3999969
40	0xbf30cca2	-0.69062245
41	0x3da953c6	0.08267932
42	0xbdc30c9d	-0.0952389
43	0xbf60b0f2	-0.8777
44	0x3e25cc35	0.1619118
45	0x3f7829cc	0.96938777
46	0x3f0eee60	0.5583248
47	0x3ea51e08	0.32249475
48	0x3fa4f759	1.2887985
49	0xbe8dc3d0	-0.27688456
50	0x3f879e3f	1.0595168
51	0x3fab0cea	1.3363316
52	0xbfdf1ad0	-1.7430058
53	0xbf949dd2	-1.1610663
54	0x3e202c4b	0.15641896
55	0xbf8bbf41	-1.0917741
56	0x3fc56803	1.5422367
57	0xbe6a542a	-0.22883669
58	0x3f5a748b	0.8533408
59	0x3f1ac24f	0.6045274
60	0xbeb37016	-0.35046452
61	0xbac6edbf	-0.0015177055
62	0xbf0ebbc6	-0.5575527
63	0xbfb05b66	-1.3777893
64	0x3f00fb09	0.5038305
65	0x3fd4f81f	1.663822
66	0x3f02b932	0.51063836
67	0x3f27bbff	0.65521234
68	0x3f85a002	1.0439456
69	0x3f51aa55	0.8190053
70	0x3f01f7c7	0.50768703
71	0xbed297b5	-0.41131368
72	0xbfd69b5f	-1.6766165
73	0xbf83e19c	-1.0303226
74	0xbf6c4330	-0.9229002
75	0x3ee74feb	0.4517816
76	0xbe9c44bc	-0.3052119
77	0x3f9a295e	1.2043874
78	0xbfabafad	-1.3412987
79	0x3fdea272	1.7393324
80	0x3f998fa5	1.1996962
81	0x3fc94c6c	1.5726447
82	0x3e8c6118	0.27417827
83	0xbe25a769	-0.16177143
84	0x3f1cf6fd	0.61314374
85	0x3f9e13f3	1.2349838
86	0xbe5db666	-0.2165161
87	0x3f9ad011	1.2094747
88	0x3eae14a1	0.34000114
89	0x3f0ec4a9	0.5576883
90	0x3d77dbda	0.0605124
91	0x3f9899ca	1.1921933
92	0x3fc7e3bb	1.5616373
93	0xbe845fef	-0.25854442
94	0xbec10405	-0.3769838
95	0xbf87114f	-1.0552157
96	0x39f3f815	0.00046533407
97	0xbd60e906	-0.05490973
98	0x3e52c3b3	0.20582466
99	0xbfed8a0e	-1.8557756
100	0x3f358ca7	0.70917743
101	0xbd9d465c	-0.076794356
102	0xbf20d949	-0.6283155
103	0xbf3567d7	-0.7086157
104	0x3ffad1c9	1.9595271
105	0x3f9271a7	1.1440934
106	0x3d4d74df	0.050160285
107	0xbf65f650	-0.8982897
108	0xbf82fcf7	-1.0233449
109	0xc00f13d0	-2.2355843
110	0x3eb13665	0.34611812
111	0xbd8f7eae	-0.07006584
112	0x3fa50aa5	1.2893873
113	0x3f40b0f1	0.7526999
114	0xbe59bbe8	-0.21263087
115	0x3fc5f40f	1.5465106
116	0x3f485090	0.7824793
117	0x3ea1b9a3	0.31586942
118	0xbf65d366	-0.89775693
119	0x3e180c64	0.14848477
120	0xbdc7a378	-0.09747976
121	0xbf146c64	-0.5797789
122	0x3fb9d7ea	1.4519017
123	0xbe9ec2ba	-0.3100794
124	0x3f405d28	0.75142145
125	0x4002943d	2.0402977
126	0x3ef348a9	0.47516373
127	0x3d424498	0.047428697
128	0x3fce90f0	1.6137981
129	0x3fe53f0b	1.7909864
130	0x3f2f5045	0.68481857
131	0x3fa74d9e	1.3070562
132	0x3fbe782b	1.4880422
133	0xbe548a2b	-0.20755832
134	0x3ecc7dff	0.39939877
135	0xbec18e99	-0.37804106
136	0xc0092240	-2.1427155
137	0xbff0ee7e	-1.8822782
138	0xbddcd3ce	-0.10782586
139	0xbe661b86	-0.22471437
140	0xbf740fb2	-0.9533645
141	0x3e2b8918	0.16751516
142	0x3fcb3cde	1.587795
143	0xbedb0ebb	-0.42784676
144	0x3f3dcac3	0.74137515
145	0x3d8cf6f5	0.06883041
146	0x3dda87a3	0.10670402
147	0x3fa2ad7b	1.2709192
148	0xbec06053	-0.3757349
149	0xbebf96e1	-0.374198
150	0xbfaca317	-1.3487271
151	0x3f8073f7	1.003539
152	0xbf8e81b5	-1.1133333
153	0xbfde1c5a	-1.7352402
154	0x3bd36706	0.0064514903
155	0xbfa843a2	-1.314564
156	0xc0092411	-2.1428263
157	0xbfbf834c	-1.4961944
158	0x3de7d37b	0.113196336
159	0xbebd7736	-0.37005013
160	0xbf8d21b1	-1.1025907
161	0xbfba1a99	-1.4539367
162	0x3f14f3cc	0.58184505
163	0x3fd8c64e	1.6935518
164	0xbf49bde9	-0.78805405
165	0x3ff64fe3	1.924313
166	0x3e2e21cb	0.17005078
167	0x3ecad27b	0.3961371
168	0xbfd67092	-1.6753104
169	0xc0060ed6	-2.0946555
170	0x3eb3d2b0	0.3512168
171	0xbe037ab7	-0.12839781
172	0x3f9e30fb	1.2358698
173	0x3f924587	1.1427468
174	0x3ef70323	0.4824458
175	0x3f50e4c8	0.8159909
176	0xbf643ae8	-0.89152384
177	0xbdb826cd	-0.08991776
178	0xbe8ba4bd	-0.27274123
179	0xbf86ee21	-1.0541421
180	0x3fc3d577	1.5299519
181	0x3f1093da	0.56475604
182	0xbe71bb58	-0.23606622
183	0x3ed405c1	0.4141064
184	0x3f1e5353	0.6184589
185	0xbf761f0a	-0.9614111
186	0xbfa7f1c5	-1.3120657
187	0x3e9c7400	0.3055725
188	0xbf5b07e6	-0.8555893
189	0xbf7c5bb4	-0.9857743
190	0xbf964cdf	-1.1742209
191	0xbfa83e62	-1.3144038
192	0x3f1c52ab	0.6106364
193	0xbf06798a	-0.52529204
194	0xbf45fbd2	-0.7733737
195	0xbcc0ac7b	-0.023519745
196	0x3e74d388	0.23908818
197	0xbf47d0b5	-0.78052837
198	0xbf3e10ba	-0.7424427
199	0xbee2286c	-0.44171464

fc1.bias f4 [50]
0	0x3df9f193	0.1220428
1	0xbb2b550d	-0.0026143224
2	0xbf37036f	-0.71489614
3	0xbf29acf3	-0.66279525
4	0xbf28bb0b	-0.65910405
5	0x3ef2feee	0.4746012
6	0x3f9912b1	1.1958829
7	0xbf2d0473	-0.67584914
8	0x3e375a0e	0.17905447
9	0x3fb7169b	1.4303774
10	0x3fb33ccf	1.4002932
11	0x3fb157d6	1.385493
12	0x3eb7142f	0.35757586
13	0xbf2cffc9	-0.675778
14	0x3dbb90d0	0.0915848
15	0x3f386c3d	0.7204016
16	0xbef187c8	-0.47173905
17	0x3c883e80	0.016631365
18	0xbf518acf	-0.8185243
19	0xbe00a891	-0.12564303
20	0xbf054adc	-0.5206735
21	0x3ecce00f	0.40014693
22	0x3e987181	0.29774097
23	0xbe6c89ce	-0.23099443
24	0x3f6c69fb	0.92349213
25	0x3f455035	0.7707551
26	0xbec0f864	-0.37689507
27	0xbec32134	-0.3811127
28	0xbea4b396	-0.32168263
29	0x3f830ccf	1.0238284
30	0x3f53c80d	0.8272713
31	0x3e697d30	0.22801661
32	0x3ee2c85f	0.44293496
33	0xbf02475f	-0.50890154
34	0xbf587900	-0.8455963
35	0x3f39fe3f	0.72653574
36	0x3c03c076	0.008041492
37	0x3f608c1a	0.8771378
38	0xbeed637a	-0.46364957
39	0xbf6bfd00	-0.9218292
40	0x3e5f977a	0.21835127
41	0xbcdcf688	-0.026973024
42	0xbf14dd0a	-0.5814978
43	0xbd8853b4	-0.0665659
44	0xbf446058	-0.7670951
45	0xbf3e4c1a	-0.7433487
46	0x3f25bae7	0.64738315
47	0x3ea506dc	0.32231796
48	0x3f8fa81c	1.1223178
49	0x3f984352	1.1895545

adv.weight f4 [10, 50]
0	0x3d28d9b3	0.04122324
1	0xbf00a1e3	-0.5024702
2	0xbeab0a70	-0.334064
3	0xbf1f953c	-0.6233709
4	0xbffc4e80	-1.9711456
5	0x3e338e60	0.1753478
6	0x3e53558d	0.20638104
7	0xbf593090	-0.84839725
8	0xbf42caa1	-0.7609044
9	0x3ea30ea5	0.3184711
10	0x3f1751e9	0.5910936
11	0x3ecbefe8	0.3983147
12	0x3e85280f	0.26007125
13	0xbf2567d7	-0.6461157
14	0x3e483a7c	0.1955356
15	0x3ecf99d7	0.40547058
16	0xbe6b6a20	-0.22989702
17	0xbe9b6e20	-0.30357456
18	0xbf3c22ec	-0.73490787
19	0x3f2f247c	0.68415046
20	0xbd8893b3	-0.066687964
21	0xbeb2f57d	-0.34952918
22	0xbe406c51	-0.1879132
23	0xbe610d92	-0.21977833
24	0x3e6f92c5	0.23395832
25	0x3ebb3533	0.36564025
26	0xbf7f6674	-0.99765706
27	0xbfa7a7bc	-1.3098063
28	0x3e2d7524	0.16939217
29	0x3ded37e4	0.11582926
30	0x3f2570bb	0.6462514
31	0xbf1edf40	-0.620594
32	0xbf2f61dc	-0.68508697
33	0xbec6be62	-0.38817126
34	0xbf91665b	-1.1359361
35	0x3e99e569	0.3005784
36	0x3f5fe6bc	0.8746145
37	0x3e7d7738	0.2475251
38	0xbf0c3edd	-0.5478342
39	0xbf4a8a5a	-0.7911736
40	0xbdc29857	-0.09501713
41	0x3f38f34d	0.7224625
42	0xbfb28b5d	-1.394878
43	0xbe8b9a28	-0.2726605
44	0xbf44ed36	-0.76924455
45	0xbe15a361	-0.14613105
46	0x3d98fc32	0.074699774
47	0x3df3b502	0.11899759
48	0xbe05d9e6	-0.13071403
49	0x3e73a152	0.23792008
50	0xbe1c49e5	-0.15262564
51	0xbef23ec3	-0.47313508
52	0xbe84e200	-0.25953674
53	0xbf0a3eb5	-0.54001933
54	0xbf645a99	-0.8920074
55	0xbeb668c7	-0.35626814
56	0xbf8299be	-1.0203168
57	0xbe804695	-0.2505385
58	0xbedecc47	-0.43515226
59	0xbdf8dc38	-0.121513784
60	0x3d68ba23	0.05681814
61	0xbde70a1c	-0.11281225
62	0xbe9c25ec	-0.30497682
63	0xbe98e9aa	-0.29865772
64	0xbf0034f3	-0.50080794
65	0xbf39353a	-0.7234684
66	0x3d5dd33c	0.054156527
67	0xbd3db4c9	-0.04631499
68	0xbf02dc0e	-0.51117027
69	0xbf03ce9d	-0.5148714
70	0xbe63b5d2	-0.22237328
71	0xbf5c7b4e	-0.8612565
72	0xbe3dc728	-0.18533003
73	0xbee526a2	-0.44756037
74	0xbe7dea41	-0.24796392
75	0xbf38e453	-0.72223395
76	0xbf7c86cc	-0.98643184
77	0xbf81ab66	-1.0130432
78	0xbeb6a377	-0.3567159
79	0xbf368db1	-0.71309954
80	0x3e42e5f4	0.19033033
81	0xbe4a946f	-0.19783185
82	0xbdaf86d1	-0.08570636
83	0xbe94efc3	-0.29089174
84	0xbeea9bcf	-0.45821998
85	0x3d82e64e	0.063915834
86	0xbe8c8de7	-0.27452013
87	0xbf5618ec	-0.8363178
88	0xbf1aca0d	-0.60464555
89	0xbedb1fe7	-0.42797777
90	0xbf4eee34	-0.8083222
91	0x3eba579c	0.36394966
92	0xbf3fdae0	-0.7494335
93	0xbe96ebc6	-0.29476756
94	0xbf244de3	-0.64181346
95	0xbf08c4cb	-0.5342528
96	0xbf67377d	-0.90319043
97	0xbf73522a	-0.9504725
98	0xbf057719	-0.52134854
99	0xbf1d46bb	-0.6143605
100	0xbec9d415	-0.39419618
101	0xbf7ab99a	-0.97939456
102	0xbe7e012c	-0.24805135
103	0xbece2e09	-0.40269497
104	0xbf9b6c3f	-1.2142409
105	0x3ecdc826	0.40191764
106	0x3c0c9459	0.008580291
107	0xbdd26171	-0.10272492
108	0xbee8dab2	-0.4547935
109	0x3efa75b8	0.48917937
110	0x3cf17fc5	0.02947987
111	0x3f5588a3	0.83411616
112	0x3d509bd1	0.050929848
113	0xbf77c617	-0.96786636
114	0xbe7f4167	-0.24927293
115	0x3ea1c89c	0.31598365
116	0xbf732046	-0.9497112
117	0xbd677dc0	-0.05651641
118	0xbf15a677	-0.5845713
119	0xbcd55d58	-0.026045486
120	0xbf7723c1	-0.9653893
121	0xbfa14e89	-1.2602092
122	0xbf428696	-0.7598661
123	0x3d152821	0.036415223
124	0xbdc4cf85	-0.09609894
125	0x3ed28459	0.41116598
126	0xbf353b71	-0.70793825
127	0xbfa02f97	-1.2514523
128	0xbf5ff015	-0.8747571
129	0x3e8e54ed	0.27799168
130	0x3f8f7323	1.1207012
131	0xbed5e294	-0.41774428
132	0xbf26eb1a	-0.65202487
133	0xbf384e83	-0.719948
134	0xbf5de103	-0.86671466
135	0x3da2a44a	0.07941492
136	0xbdc5cda5	-0.09658364
137	0x3e824f98	0.2545135
138	0xbf40e093	-0.75342673
139	0xbf9357db	-1.1511186
140	0xbf20ae69	-0.6276613
141	0xbf4d1150	-0.8010454
142	0xbfa88d8e	-1.3168199
143	0xbf0cfc75	-0.5507272
144	0xbefb7002	-0.49108893
145	0xbfbd3456	-1.4781597
146	0x3e114373	0.14185886
147	0xbe1e9a0d	-0.15488453
148	0x3e9f96da	0.31169778
149	0x3ed1b54a	0.40958625
150	0xbf899e87	-1.0751504
151	0xbeae75bf	-0.34074208
152	0xbef532f0	-0.47890425
153	0xbf451128	-0.76979303
154	0x3e4f9bc9	0.20274271
155	0xbf331ae4	-0.69962907
156	0xbead9286	-0.3390085
157	0xbeab160b	-0.33415255
158	0xbecb640f	-0.39724776
159	0xbf88fe78	-1.0702658
160	0xbf58f9b4	-0.84756017
161	0xbf872344	-1.0557637
162	0xbf18f5b7	-0.5974993
163	0xbe429013	-0.19000272
164	0xbf32f6ad	-0.6990765
165	0xbf472a14	-0.7779858
166	0xbf026387	-0.50933117
167	0xbf61a8b6	-0.8814806
168	0xbec3ef74	-0.38268626
169	0xbeb8b9d3	-0.36079273
170	0xbdcace47	-0.099026255
171	0xbf4f5209	-0.8098455
172	0xbeaafe6a	-0.33397228
173	0xbf56a47f	-0.8384475
174	0xbf38c657	-0.7217764
175	0xbf0d47fb	-0.5518796
176	0xbe39e9bc	-0.18155569
177	0x3d3b0a96	0.045664392
178	0xbe8c6d55	-0.27427164
179	0xbf74543d	-0.9544104
180	0xbf631149	-0.8869825
181	0xbf3b97f3	-0.7327873
182	0xbf5f9510	-0.87336826
183	0xbeb14a0d	-0.3462681
184	0xbe7f3fb3	-0.24926643
185	0xbf91e5c2	-1.1398242
186	0xbefea809	-0.49737576
187	0xbf113650	-0.567235
188	0xbde0b2a0	-0.1097157
189	0xbeb0f2e7	-0.3456032
190	0xbf2eff9b	-0.68358773
191	0xbfafd65a	-1.373729
192	0xbe648696	-0.22316965
193	0xbed92dd0	-0.42417765
194	0xbed8586f	-0.4225497
195	0x3dee05de	0.11622213
196	0xbed39383	-0.4132348
197	0xbf625482	-0.884102
198	0xbf21c9c7	-0.6319851
199	0xbf427c6f	-0.7597112
200	0xbecf3984	-0.40473568
201	0xbf04a704	-0.51817346
202	0xbf44ab9e	-0.7682437
203	0xbee26468	-0.4421723
204	0xbe988212	-0.29786736
205	0xbf4c1fa4	-0.7973578
206	0xbf4c3bfb	-0.7977902
207	0xbdd47a51	-0.103748925
208	0xbf15cbb8	-0.58513975
209	0xbec68ba2	-0.38778406
210	0xbf654622	-0.8956014
211	0xbf0e29de	-0.55532634
212	0xbf2624a3	-0.64899653
213	0xbf008661	-0.50205046
214	0xbf25f525	-0.64827186
215	0xbf692cd2	-0.91084015
216	0xbeb9718e	-0.36219448
217	0xbf450dee	-0.7697438
218	0xbcde2e29	-0.02712162
219	0xbf24289b	-0.6412446
220	0xbe79d439	-0.24397363
221	0xbf05a77f	-0.52208704
222	0xbf2ebd50	-0.6825762
223	0xbf42ea39	-0.76138645
224	0xbf355fa3	-0.70849055
225	0xbef0d973	-0.470409
226	0xbf34952e	-0.7054013
227	0x3dd21637	0.102581434
228	0xbef6b31b	-0.48183522
229	0xbf4301f9	-0.76174885
230	0xbeb11cc7	-0.34592268
231	0xbf5a2123	-0.8520681
232	0xbf6bd952	-0.9212848
233	0x3c1c77fe	0.009550093
234	0xbe0f6149	-0.14001955
235	0xbf22b273	-0.6355354
236	0xbf21bc78	-0.63178205
237	0xbefc7174	-0.49305308
238	0xbee5e66d	-0.44902363
239	0x3c8d5e67	0.017256929
240	0xbf32da57	-0.6986441
241	0xbf351356	-0.7073263
242	0xbd95c708	-0.07313353
243	0xbee6b4a0	-0.4505968
244	0xbe9ec71b	-0.3101128
245	0xbee9009d	-0.4550828
246	0xbf0699b7	-0.525783
247	0xbf7aef76	-0.9802164
248	0xbf15740f	-0.58380216
249	0xbed8ceda	-0.42345315
250	0x3e79e6de	0.24404475
251	0xbf2f56e4	-0.6849196
252	0xbf6837e9	-0.9071031
253	0xbe4e615b	-0.20154326
254	0xbf2f785d	-0.68543035
255	0xbeff651e	-0.49881834

adv.bias f4 [10]
0	0x3e750c2a	0.23930421
1	0xbe573c05	-0.2101899
2	0x3ede7201	0.43446353
3	0xbf4c6df5	-0.7985528
4	0xbf17f8d9	-0.59364086
5	0xbe75c809	-0.24002089
6	0xbf173889	-0.5907064
7	0xbf45d109	-0.7727209
8	0xbc813b93	-0.015775478
9	0x3ec83c1c	0.3910836

val.weight f4 [1, 50]
0	0xbc97364a	-0.018458504
1	0xbe5ce1ee	-0.2157056
2	0xbf98a612	-1.1925681
3	0xbdd648cd	-0.104631044
4	0xc00da81a	-2.213385
5	0x3eb2f993	0.34956035
6	0x3ef9f6c5	0.48821083
7	0xbf7e7541	-0.99397665
8	0xbe842617	-0.2581031
9	0x3f8577ae	1.0427148
10	0x3f555de3	0.83346385
11	0x3f92005f	1.1406363
12	0x3ed5f9b6	0.41792077
13	0xbf6177f9	-0.8807369
14	0xbdf142b6	-0.11780302
15	0x3f1f1eee	0.6215657
16	0xbf7eb27e	-0.9949111
17	0xbf01862f	-0.5059537
18	0xbfb6ca32	-1.4280455
19	0x3f1c74c3	0.61115664
20	0xbf8e6c36	-1.1126773
21	0xbe4b4940	-0.19852161
22	0xbdea6d23	-0.114465974
23	0xbe59a42d	-0.21254034
24	0x3f393d79	0.72359425
25	0x3f31f032	0.69507134
26	0xbf48719b	-0.7829835
27	0xc0170140	-2.3594513
28	0xbea914b4	-0.33023608
29	0x3ecc7470	0.39932585
30	0x3fb02acd	1.3763062
31	0xbf0dea7d	-0.55435926
32	0xbf25b5d9	-0.647306
33	0xbf4cbcb9	-0.7997547
34	0xc008f80b	-2.1401393
35	0x3f6af438	0.917789
36	0x3e4c6ca5	0.1996332
37	0x3e82b206	0.25526446
38	0xbfa0c908	-1.256135
39	0xbfcaa343	-1.5831074
40	0xbc933719	-0.017970609
41	0x3f2e3352	0.6804706
42	0xbfe61d1f	-1.7977637
43	0xbeaf2c57	-0.34213516
44	0xbf921169	-1.1411563
45	0xbf0bef28	-0.546618
46	0x3e840b19	0.25789717
47	0x3eb310a8	0.34973645
48	0x3f28c73a	0.65928996
49	0x3eff539d	0.4986848
