models/V1_TOKYO_15_24_59_161.pt (torch_old, 4167 bytes, 5 tensors)

fc1.weight f4 [50, 4]
0.34634918 -0.34569955 1.2889342 -1.0611677 1.4217564 0.8133769 0.1282577 0.20646706
-1.5076587 0.46037322 -0.34653887 -0.6780012 1.5436519 -0.6429776 -1.7836928 -0.172184
-0.3111864 0.38571477 0.07952128 1.2522786 0.529599 -0.80838346 1.4599595 0.721956
1.3555037 -0.122184366 -0.95235765 -0.098214276 -1.6232342 0.042928677 -0.58617955 -0.9306386
1.9213247 0.7510976 0.33701757 -0.0052341316 0.37214118 -0.5821804 0.28907627 -1.2906334
-0.73939276 0.5875292 0.06724314 -0.30265072 -0.07348744 1.5611731 0.35429725 0.36736548
1.4443007 0.2996539 0.51624846 1.642773 -2.1152549 -0.39973715 0.43212608 -0.7446569
1.9124949 0.34959576 0.6635502 0.14544977 -0.023911681 0.22877026 -0.6444345 -1.1062602
1.539432 1.4351321 0.094605476 0.2725186 1.5971774 0.95949745 -0.024008337 -0.8755378
-2.3504012 -1.2270125 -0.67721164 0.3013573 -0.59848243 0.7840978 -1.326558 1.5383242
1.1367726 1.5130708 0.018105125 0.07992487 0.3923835 1.3922255 0.068487965 1.2873863
-0.21661475 0.6221107 -0.060068198 1.0799595 0.6536483 0.26918167 -0.95647347 -1.6690913
-0.78770685 -1.8387643 0.22262172 -1.5501696 1.075095 -0.14351296 -0.5420269 -0.7542987
1.8554995 1.2617292 -0.5025116 -0.2946186 -1.7359263 -2.0656674 -0.07292932 -0.056273192
2.1172016 0.8844169 -0.03536929 0.67433196 0.88770664 0.35779235 -0.8751138 -0.071768716
0.053786915 -0.50408137 1.3668495 -0.7831354 0.22453083 1.8026783 0.3683716 0.644762
1.2389262 2.2397406 0.40511698 1.2099671 1.7329854 0.09826445 0.29023862 -0.31630808
-2.3165872 -2.0569978 -0.040357128 -0.40759915 -0.26203874 0.805734 1.3989291 0.44531947
0.7894828 -0.5519917 0.28864044 0.75446445 -1.3780975 -0.92765975 -0.3906617 0.59316593
-1.3764035 -1.335988 0.19977489 -1.5117457 -2.3753676 -1.6929144 0.2006272 -0.41148096
-0.29649696 -0.83942187 0.8448476 1.7910546 -0.20073482 0.46981952 -0.38902995 1.513561
-2.2011294 -1.8648455 -0.12712045 -0.37120464 1.677606 1.6635547 0.38270095 0.6541082
-0.91522145 -0.100735016 -0.65286505 -1.2787383 1.8892902 1.3839722 -0.0951099 0.35230485
0.63227063 -0.88557005 -1.5137784 -0.14590864 -1.4733843 -2.3484178 -0.72892284 -0.5625814
0.86363465 -0.51271904 -0.80446607 0.016401863 0.7078286 -0.6498817 -0.78254527 -0.45405212
00000000: ae54 b13e 88ff b0be ccfb a43f 58d4 87bf
00000010: 1dfc b53f 7839 503f fd55 033e 1a6c 533e
00000020: f6fa c0bf 0ab6 eb3e 8b6d b1be 7d91 2dbf
00000030: 6396 c53f 2e9a 24bf 0c50 e4bf 0151 30be
00000040: d353 9fbe 687c c53e 0edc a23d aa4a a03f
00000050: cd93 073f 38f2 4ebf f4df ba3f 1cd2 383f
00000060: 2581 ad3f cc3b fabd b6cd 73bf 9124 c9bd
00000070: 23c6 cfbf fbd5 2f3d dd0f 16bf 553e 6ebf
00000080: f8ed f53f ef47 403f 918d ac3e 1483 abbb
00000090: 4a89 be3e c609 15bf ce01 943e 7a33 a5bf
000000a0: d848 3dbf 5068 163f c5b6 893d 09f5 9abe
000000b0: 9580 96bd 85d4 c73f 7366 b53e 5417 bc3e
000000c0: d8de b83f 3c6c 993e dc28 043f 6346 d23f
000000d0: 5660 07c0 59aa ccbe a13f dd3e d6a1 3ebf
000000e0: a2cc f43f 37fe b23e 6dde 293f c9f0 143e
000000f0: 6ee2 c3bc c042 6a3e a9f9 24bf ef99 8dbf
00000100: 1c0c c53f 69b2 b73f 84c0 c13d 8f87 8b3e
00000110: 4f70 cc3f a0a1 753f 22ad c4bc 3f23 60bf
00000120: f96c 16c0 bf0e 9dbf be5d 2dbf 814b 9a3e
00000130: 2536 19bf a2ba 483f a7cc a9bf cfe7 c43f
00000140: c481 913f 4eac c13f 3351 943c a6af a33d
00000150: 7de6 c83e 7234 b23f 6b43 8c3d 13c9 a43f
00000160: 42d0 5dbe a642 1f3f 120a 76bd 1d3c 8a3f
00000170: 7f55 273f 2ed2 893e 72db 74bf c9a4 d5bf
00000180: 28a7 49bf a15c ebbf f3f6 633e f56b c6bf
00000190: b79c 893f 10f5 12be 46c2 0abf b819 41bf
000001a0: 0281 ed3f 5880 a13f 9aa4 00bf 40d8 96be
000001b0: d532 debf e533 04c0 f85b 95bd b87e 66bd
000001c0: 3b80 0740 2569 623f 63df 10bd 05a1 2c3f
000001d0: be40 633f 8f30 b73e 7507 60bf 7afb 92bd
000001e0: ab4f 5c3d 7a0b 01bf edf4 ae3f 907b 48bf
000001f0: 69eb 653e 2abe e63f 349b bc3e 1f0f 253f
00000200: 2295 9e3f e957 0f40 7e6b cf3e 34e0 9a3f
00000210: 77d2 dd3f df3e c93d 289a 943e 22f3 a1be
00000220: f742 14c0 daa5 03c0 844d 25bd d6b0 d0be
00000230: f129 86be 9544 4e3f 1c10 b33f ea00 e43e
00000240: 8b1b 4a3f 544f 0dbf aec8 933e 9524 413f
00000250: 8065 b0bf 1c7b 6dbf cf04 c8be b9d9 173f
00000260: fd2d b0bf a801 abbf ca91 4c3e e280 c1bf
00000270: 0606 18c0 6bb1 d8bf 3771 4d3e a2ad d2be
00000280: 73ce 97be 5ae4 56bf ef47 583f 4741 e53f
00000290: 6e8d 4dbe 2f8c f03e ef2e c7be 5ebc c13f
000002a0: 4edf 0cc0 42b3 eebf dd2b 02be 890e bebe
000002b0: cbbb d63f 5cef d43f 61f1 c33e a373 273f
000002c0: f44b 6abf 294e cebd 2a22 27bf b2ad a3bf
000002d0: 43d4 f13f 0026 b13f fbc8 c2bd 4d61 b43e
000002e0: 7ddc 213f b8b4 62bf 7ec3 c1bf 1369 15be
000002f0: db97 bcbf 7a4c 16c0 b09a 3abf 5605 10bf
00000300: 2917 5d3f 8e41 03bf 7df1 4dbf 335d 863c
00000310: 4134 353f a65e 26bf e354 48bf 8579 e8be

fc1.bias f4 [50]
1.1326605 0.5453073 -0.9259021 1.0553496 0.2840894 0.3937939 1.4453382 -0.84351176
0.7980195 1.6273142 1.4791957 1.6545919 -0.26014155 -1.1709802 -0.36762163 0.9495627
-0.43691954 -0.15057732 -1.0346416 -0.41841558 -0.19260755 -0.44349077 0.5815289 0.68587303
-0.18267299 1.0688837 0.32624435 -0.8496968 -0.84941596 1.1745654 0.8849364 0.047476597
-0.26567504 0.45562503 -1.2021765 1.2390037 -0.044449992 -0.4731029 -0.5456355 -1.2308922
0.5132473 -0.05447266 -1.1109004 -0.71724665 -0.72083616 -0.56627357 0.42826554 -0.6876809
1.6483436 1.365968
00000000: 05fb 903f 4299 0b3f ec07 6dbf b215 873f
00000010: 2a74 913e 5b9f c93e d800 b93f 63f0 57bf
00000020: 024b 4c3f d54b d03f 4956 bd3f abc9 d33f
00000030: 4631 85be aee2 95bf e738 bcbe 8b16 733f
00000040: ebb3 dfbe f130 1abe 236f 84bf 913a d6be
00000050: ea3a 45be 3911 e3be 14df 143f 6095 2f3f
00000060: a10e 3bbe 2ed1 883f 8009 a73e bb85 59bf
00000070: 5373 59bf 2958 963f 318b 623f d276 423d
00000080: 8f06 88be af47 e93e ebe0 99bf ac97 9e3f
00000090: 3211 36bd 8b3a f2be c5ae 0bbf e08d 9dbf
000000a0: 2d64 033f b91e 5fbd fc31 8ebf 7a9d 37bf
000000b0: b888 38bf 4ef7 10bf 9f45 db3e db0b 30bf
000000c0: ecfc d23f 0ad8 ae3f

adv.weight f4 [10, 50]
0.34810954 -1.4282984 -0.8728159 -0.1468614 -0.3462935 -0.068129346 0.1865481 -0.5274807
-1.2324798 0.14740956 0.30065835 0.3709118 -0.31247643 -0.46766788 0.5183807 0.07982186
0.39879584 -0.67442566 -0.6538045 0.25780857 0.49257454 -0.2971359 -0.26281458 -0.30683213
-0.70444894 0.28614888 -0.94245434 -1.4509462 0.123736426 0.06745743 0.17125891 -0.895738
-0.38748306 -0.79022634 -1.5868279 0.13661039 0.46687412 -0.05695016 -0.3959344 -1.2095495
-0.38865218 0.37648138 -1.8950448 -0.2816536 -0.5665036 -0.016181154 -0.04426821 -0.60879153
-0.12888291 0.049416073 -0.13042088 -0.47899857 -0.31671235 0.11548577 -0.04377198 -0.27942228
-0.19943635 -0.43738183 -0.5442085 0.096103854 0.011923652 -0.13637072 -0.47879076 -0.73442394
-0.67421085 -0.40325406 -0.1542043 -0.32225946 -0.7674368 -0.10424862 -0.660778 -1.0137702
0.32701606 0.1846316 -0.44521105 -0.02308465 -0.67522275 -1.2163974 -0.15777698 0.049038414
0.26646817 -0.6095053 -0.46287838 -0.39253327 -0.8079084 0.14629547 -0.1805738 -0.6389633
-0.62763244 -0.78620696 -0.4918147 0.26572505 -1.0863385 -0.6783964 -0.7641646 -0.4007682
-0.16753246 -0.7198108 0.19628714 0.006196575 0.03627435 -0.9892335 -0.37862763 -0.32146338
0.052749585 0.13255522 -0.10577241 -0.11262512 -0.65766627 0.18664125 -0.17669106 0.36999595
-0.46039602 -0.7145042 -0.50083107 -0.0050400896 -0.7152561 -0.41363585 -0.60668933 0.42223623
-0.55952823 -0.78655565 0.05778178 -0.20431142 -0.86279696 0.16724567 -0.7372011 -1.2204795
-0.6451783 0.04981048 0.29970402 -0.21397173 -0.7076501 -0.58490026 -0.67412627 0.074613765
-0.30277961 -0.18994357 -0.41369525 -0.86746776 -0.2575957 -0.23831217 -1.030534 -0.4511538
-0.44232225 -1.0604621 -0.06721222 -0.4970982 0.12696397 0.1337025 -0.059534244 -0.47323483
-0.39805588 -0.32573408 0.47215763 -0.28319833 0.28810468 -0.41860652 -0.119763665 -0.16843563
-0.12167596 -0.20290539 -0.5609578 -0.507331 -0.68814874 -0.041507754 -0.39254788 -0.8946066
-0.7366796 0.11968057 -0.17282674 -0.93244755 0.18265635 0.0036110515 -0.19241372 0.20948039
-0.21436527 -0.51653695 -0.695628 -0.31704262 0.16350031 -0.17578688 -0.8738902 -0.29399362
-0.86852574 -0.15036422 -0.16204134 -0.16246964 -0.28999218 -0.81481004 -0.13370149 0.13981146
-0.8439246 -0.5349414 -0.53768617 -0.536199 0.15261023 -0.38181952 -0.017419921 -0.06437585
0.08451877 -0.44930848 -0.3141455 -0.20510094 -0.27585873 -0.380805 -0.17785671 -0.2553215
-0.40785447 0.097621866 -0.25559643 0.37493324 -0.58875084 -0.87369627 -0.6162383 -0.15157238
0.02005594 -0.7616895 -0.5232941 -0.09018663 0.06495022 -0.5295416 0.0454547 0.14814214
-0.8852805 0.2599294 -0.65551543 -0.824413 -0.30238673 -0.015497716 0.22311701 0.111105435
-0.85239077 -0.22582461 -0.99059194 0.17946815 -0.14946128 -0.16256571 -0.6898202 -0.6655501
-0.471419 0.14305623 -0.96166986 -0.464209 -0.17888038 -0.547349 -0.28264922 -0.6479083
-0.06024843 0.08557354 0.16185294 -0.4689707 -0.6797787 0.090110384 -0.1075582 0.16949227
00000000: 6a3b b23e 7bd2 b6bf dd70 5fbf d662 16be
00000010: 624d b1be 6687 8bbd 7706 3f3e fa08 07bf
00000020: e6c1 9dbf 88f2 163e e4ef 993e 27e8 bd3e
00000030: e9fc 9fbe 2a72 efbe 99b4 043f a579 a33d
00000040: f82e cc3e 29a7 2cbf bb5f 27bf 7cff 833e
00000050: bb32 fc3e 3222 98be a28f 86be 1a19 9dbe
00000060: c456 34bf 1b82 923e b044 71bf 9bb8 b9bf
00000070: 8669 fd3d 1f27 8a3d 7f5e 2f3e 164f 65bf
00000080: 2e64 c6be 464c 4abf 2d1d cbbf 98e3 0b3e
00000090: 200a ef3e 9244 69bd eab7 cabe 85d2 9abf
000000a0: 6bfd c6be 2bc2 c03e d490 f2bf e734 90be
000000b0: 6106 11bf 578e 84bc 9552 35bd c3d9 1bbf
000000c0: e2f9 03be 8268 4a3d 0d8d 05be 4d3f f5be
000000d0: 1f28 a2be ce83 ec3d 3f4a 33bd 7010 8fbe
000000e0: 0b39 4cbe 83f0 dfbe 4051 0bbf 19d2 c43d
000000f0: 6c5b 433c c4a4 0bbe 1024 f5be 3503 3cbf
00000100: 1599 2cbf 5177 cebe bbe7 1dbe 31ff a4be
00000110: bd76 44bf 4d80 d5bd bf28 29bf 39c3 81bf
00000120: a66e a73e 1110 3d3e b4f2 e3be 051c bdbc
00000130: 66db 2cbf e9b2 9bbf 4a90 21be 81dc 483d
00000140: 846e 883e 8a08 1cbf 65fe ecbe 1ffa c8be
00000150: 16d3 4ebf 7bce 153e 57e8 38be 1993 23bf
00000160: 85ac 20bf dc44 49bf 23cf fbbe 1d0d 883e
00000170: 240d 8bbf 63ab 2dbf 4ba0 43bf 7d31 cdbe
00000180: a18d 2bbe 8545 38bf 7fff 483e a30c cb3b
00000190: 6a94 143d 683e 7dbf 7bdb c1be d996 a4be
000001a0: f30f 583d 8ebc 073e 359f d8bd 00a8 e6bd
000001b0: d15c 28bf e21e 3f3e 80ee 34be 1c70 bd3e
000001c0: 07b9 ebbe bfe9 36bf 7736 00bf 5627 a5bb
000001d0: 061b 37bf 14c8 d3be fe4f 1bbf 592f d83e
000001e0: 3e3d 0fbf b65b 49bf 96ac 6c3d 0337 51be
000001f0: 43e0 5cbf 7342 2b3e 36b9 3cbf ac38 9cbf
00000200: 682a 25bf 1306 4c3d ce72 993e 681b 5bbe
00000210: 8f28 35bf 06bc 15bf 8a93 2cbf 1acf 983d
00000220: ee05 9bbe 9180 42be ddcf d3be 5e12 5ebf
00000230: 95e3 83be 1b08 74be 8ae8 83bf a2fd e6be
00000240: 1078 e2be 39bd 87bf 8fa6 89bd a883 febe
00000250: d802 023e 4fe9 083e 2eda 73bd d64b f2be
00000260: fbcd cbbe 9ec6 a6be a5be f13e 5fff 90be
00000270: 7582 933e 9853 d6be a746 f5bd 647a 2cbe
00000280: 3f31 f9bd 6ec6 4fbe ee9a 0fbf 72e0 01bf
00000290: 842a 30bf 0904 2abd 09fc c8be f004 65bf
000002a0: 0997 3cbf 161b f53d 7ef9 30be e2b4 6ebf
000002b0: 440a 3b3e 64a7 6c3b 1a08 45be 0782 563e
000002c0: 9282 5bbe c43b 04bf ad14 32bf 6953 a2be
000002d0: a06c 273e 7a01 34be 45b7 5fbf 5586 96be
000002e0: b457 5ebf 14f9 19be 2aee 25be 715e 26be
000002f0: db79 94be 6497 50bf 0be9 08be bc2a 0f3e
00000300: 710b 58bf ebf1 08bf cda5 09bf 5644 09bf
00000310: db45 1c3e d97d c3be 39b4 8ebc 7cd7 83bd
00000320: 2d18 ad3d c30b e6be aed7 a0be fb05 52be
00000330: 5b3d 8dbe dff8 c2be 1220 36be 80b9 82be
00000340: 4dd2 d0be f9ed c73d 89dd 82be 40f7 bf3e
00000350: 60b8 16bf 8faa 5fbf cbc1 1dbf ca35 1bbe
00000360: 5b4c a43c 15fe 42bf 9af6 05bf c5b3 b8bd
00000370: 9f04 853d 0a90 07bf b52e 3a3d 93b2 173e
00000380: bea1 62bf 7715 853e dccf 27bf bb0c 53bf
00000390: 6fd2 9abe 22ea 7dbc c978 643e 3f8b e33d
000003a0: 4836 5abf 913e 67be 6f97 7dbf 80c6 373e
000003b0: 610c 19be a077 26be 0e98 30bf 7e61 2abf
000003c0: d55d f1be 557d 123e ff2f 76bf cdac edbe
000003d0: 6b2c 37be 101f 0cbf 66b7 90be 51dd 25bf
000003e0: 0fc7 76bd 2e41 af3d c7bc 253e ed1c f0be
000003f0: fa05 2ebf cb8b b83d 7947 dcbd 628f 2d3e

adv.bias f4 [10]
0.19220473 0.007780497 0.079730235 -0.046647467 0.04509441 -0.14897774 -0.037224825 -0.15957382
0.0030183948 -0.2183427
00000000: 51d1 443e 8af3 fe3b 9b49 a33d 6a11 3fbd
00000010: ebb4 383d 9f8d 18be 0f79 18bd 5267 23be
00000020: 43d0 453b 3b95 5fbe

val.weight f4 [1, 50]
1.2679695 -0.4244993 -1.8020935 0.9436827 0.6565847 0.8404498 1.1398904 -0.94492006
-0.3178604 1.2993888 0.7451459 1.574166 -0.17430367 -1.0234209 -0.5678828 0.7791076
-1.8618381 -1.2828586 -2.1468582 0.5623852 -1.1824548 -0.83405197 0.39987737 0.4581716
-0.998339 1.3433658 -0.5401733 -3.0048919 -1.5040728 1.0162889 1.5234044 -0.4368456
-0.92665243 -0.69077754 -3.0485134 1.4078807 0.254818 -0.40790632 -1.1619656 -2.465712
0.26271918 0.7602487 -2.8467088 -1.6144247 -0.9511086 -1.7756625 0.50758994 -0.90352994
1.226497 0.8469358
00000000: d34c a23f f957 d9be 00ab e6bf 3095 713f
00000010: ef15 283f b827 573f eee7 913f 48e6 71bf
00000020: 99be a2be 5f52 a63f e2c1 3e3f 467e c93f
00000030: a97c 32be 75ff 82bf c460 11bf 9873 473f
00000040: b650 eebf b634 a4bf 2066 09c0 7af8 0f3f
00000050: ae5a 97bf 6e84 55bf babc cc3e 7895 ea3e
00000060: 2593 7fbf 69f3 ab3f cc48 0abf 2650 40c0
00000070: 7585 c0bf c115 823f eafe c23f 3aaa dfbe
00000080: 1839 6dbf ccd6 30bf d81a 43c0 6f35 b43f
00000090: 8177 823e 19d9 d0be 4abb 94bf 3ace 1dc0
000000a0: 2183 863e a99f 423f 7a30 36c0 78a5 cebf
000000b0: da7b 73bf e948 e3bf 6af1 013f bd4d 67bf
000000c0: dbfd 9c3f c9d0 583f
