models/V1_TOKYO_02_38_12_161.pt (torch_old, 4167 bytes, 5 tensors)

fc1.weight f4 [50, 4]
0.69980603 0.042026546 0.9599185 -1.2998968 0.5117221 0.5940895 0.08886052 0.5777192
-1.3989491 1.8491144 -0.7126644 -0.894311 1.566612 -1.1802413 -1.5618501 -0.019808767
-2.1312997 -1.3091438 -0.30446082 -0.43954548 -1.7286592 -2.1287081 0.5942801 -0.124700956
1.4473894 -0.0078067803 -0.74386495 -0.048594337 -2.4571204 -0.5580337 -0.6090365 -1.3440729
0.81692845 0.29943535 0.89245796 -0.8226172 0.43730235 -0.81729484 0.40974763 -0.9388857
-2.5413923 -0.9554014 0.4610468 -0.7829263 0.017280621 1.6593148 0.81997293 1.2858238
1.4806522 -0.44785562 1.542737 0.6467422 -2.67268 -0.52778625 0.25976664 -0.9829575
1.4253718 1.3022501 1.13466 1.1786255 -1.2994903 -1.3930211 -0.7085546 -1.22952
1.2210715 1.3848411 -0.0043009487 0.83487344 0.5496735 0.851562 0.39387643 -0.7524446
-2.7027447 -1.2129649 -0.56563216 -0.13239615 -1.7042259 0.6687651 -1.5061723 0.04479465
0.5214487 1.0241066 0.46074307 -0.8682173 -0.41953716 1.007081 0.83339167 1.100862
-1.9284708 -0.9156475 -0.3419601 -0.22630584 1.3186629 -0.079578474 -0.45982644 -1.4639872
-1.4019206 -2.1246154 -0.1726604 -1.7268851 1.0842731 -0.1315079 -0.4513697 -0.5695154
0.666947 1.6016191 -0.5816921 -1.222703 -2.2244518 -2.0789988 -0.11914019 -0.65315837
0.29259244 0.6945817 -0.8605985 1.0459285 1.0289681 0.0672242 -0.6914909 -0.1184329
-0.007944506 0.8526795 1.0937314 -0.021121997 0.9701771 2.4984584 0.47418538 0.6638756
2.3676562 2.8004434 -0.19542632 1.0877459 3.035229 0.6495589 0.7015366 0.05484006
-2.5433843 -2.1598213 -0.08388884 -0.7416569 -0.11360454 1.1127865 1.1854118 0.909592
1.424662 1.5182381 0.03252372 1.3985432 -1.5716151 -0.93117297 -0.91175175 0.4571948
-2.218912 -1.2581007 -0.18925296 -1.806641 -2.7987351 -1.5189877 0.07086842 -0.6071678
-2.4055219 -2.2834911 -0.034933582 -0.29111663 -0.97641927 0.5030147 0.18267521 1.6997949
-2.4516604 -1.9513379 -0.11754575 -0.6226127 0.16017784 -0.51628655 1.7338245 0.9516168
-1.5255301 -0.14175436 -0.66189677 -1.2988169 2.1289957 2.6890876 -0.6802277 0.47965267
0.7988914 -1.7367215 -0.5557902 0.11475392 -2.2524683 -2.045557 -0.72213197 -0.9141843
0.9504303 -0.6486205 -0.5286868 0.3606767 0.6635064 -0.94862884 -0.5507578 -0.2521546
00000000: 7d26 333f 0724 2c3d 38bd 753f 0563 a6bf
00000010: 3800 033f 4016 183f 81fc b53d 68e5 133f
00000020: c410 b3bf c8af ec3f 2d71 36bf 91f1 64bf
00000030: be86 c83f 2612 97bf b4ea c7bf ff45 a2bc
00000040: 3767 08c0 0692 a7bf 4ae2 9bbe 1b0c e1be
00000050: b444 ddbf c13c 08c0 be22 183f 3763 ffbd
00000060: 0e44 b93f 05d0 ffbb ef6d 3ebf db0a 47bd
00000070: 7641 1dc0 4cdb 0ebf d1e9 1bbf 950a acbf
00000080: 3922 513f 974f 993e 2078 643f 0a97 52bf
00000090: 18e6 df3e 3c3a 51bf 71ca d13e d05a 70bf
000000a0: 2ca6 22c0 3095 74bf 530e ec3e dc6d 48bf
000000b0: 1790 8d3c 6d64 d43f bfe9 513f e095 a43f
000000c0: 0386 bd3f 554d e5be 6878 c53f e690 253f
000000d0: 300d 2bc0 001d 07bf 2200 853e 1aa3 7bbf
000000e0: 9572 b63f 22b0 a63f 8a3c 913f 33dd 963f
000000f0: b355 a6bf 844e b2bf d663 35bf e960 9dbf
00000100: 124c 9c3f 7942 b13f f9ee 8cbb 44ba 553f
00000110: 67b7 0c3f f8ff 593f 2caa c93e 36a0 40bf
00000120: c5f9 2cc0 6f42 9bbf 45cd 10bf db92 07be
00000130: 1324 dabf 3134 2b3f 41ca c0bf 987a 373d
00000140: a97d 053f ed15 833f 84e6 eb3e 7d43 5ebf
00000150: 93cd d6be 08e8 803f 2859 553f 0ce9 8c3f
00000160: 22d8 f6bf e067 6abf 6515 afbe b8bc 67be
00000170: f2c9 a83f 0afa a2bd 5f6e ebbe ef63 bbbf
00000180: 2272 b3bf b3f9 07c0 e3cd 30be 920a ddbf
00000190: 76c9 8a3f 02aa 06be ee19 e7be c3cb 11bf
000001a0: 0abd 2a3f db01 cd3f c6e9 14bf 8881 9cbf
000001b0: 6b5d 0ec0 510e 05c0 c6ff f3bd 6335 27bf
000001c0: adce 953e 1bd0 313f 2f50 5cbf fce0 853f
000001d0: 3ab5 833f d7ac 893d 8c05 31bf f38c f2bd
000001e0: ac29 02bc 3449 5a3f 64ff 8b3f 0a08 adbc
000001f0: 875d 783f bee6 1f40 6dc8 f23e c0f3 293f
00000200: ae87 1740 773a 3340 d61d 48be 423b 8b3f
00000210: 3141 4240 7e49 263f e797 333f f99f 603d
00000220: cfc6 22c0 833a 0ac0 eacd abbd 3add 3dbf
00000230: 7fa9 e8bd ca6f 8e3f 93bb 973f 05db 683f
00000240: 535b b63f a055 c23f 9837 053d 7703 b33f
00000250: af2a c9bf 5a61 6ebf 9068 69bf 7015 ea3e
00000260: a702 0ec0 7209 a1bf 87cb 41be 0340 e7bf
00000270: 7a1e 33c0 306e c2bf 7623 913d 596f 1bbf
00000280: 12f4 19c0 b824 12c0 8416 0fbd 3d0d 95be
00000290: 9df6 79bf 92c5 003f 360f 3b3e e192 d93f
000002a0: 01e8 1cc0 71c5 f9bf d4bb f0bd 8c63 1fbf
000002b0: a905 243e 5b2b 04bf f6ed dd3f 299d 733f
000002c0: 9244 c3bf 0e28 11be 1172 29bf a23f a6bf
000002d0: 7741 0840 031a 2c40 6723 2ebf 0995 f53e
000002e0: 2684 4c3f e44c debf 4448 0ebf 1a04 eb3d
000002f0: 7128 10c0 68ea 02c0 a4dd 38bf fb07 6abf
00000300: 664f 733f fe0b 26bf 0558 07bf 9eaa b83e
00000310: 8edb 293f 57d9 72bf 77fe 0cbf 681a 81be

fc1.bias f4 [50]
1.330019 1.4780976 -1.4527694 0.91776556 -1.1464436 -0.6832184 1.8045188 -0.06894777
1.6508725 1.6310517 -0.04485861 1.5166705 1.5234812 -0.8986257 1.0109578 0.27757072
-0.5991643 1.2276026 -1.2707001 -1.4813582 1.3450466 0.8249624 -0.97375834 0.6349128
-0.5108124 1.1576444 1.3714705 -1.2757465 1.202763 1.2942884 0.660712 0.59724313
-0.7141072 1.3482635 -1.4494303 1.3578054 -0.86975724 -0.5082609 -0.36238506 -1.2890098
-1.2532007 0.12569474 -1.3907156 0.6593597 -0.92909724 1.0743685 0.44085556 -1.2876338
1.7332165 1.219737
00000000: 103e aa3f 4d32 bd3f 59f4 b9bf aff2 6a3f
00000010: aabe 92bf 67e7 2ebf 79fa e63f 7d34 8dbd
00000020: ca4f d33f 4dc6 d03f a9bd 37bd 4222 c23f
00000030: 6f01 c33f 550c 66bf 1167 813f c01d 8e3e
00000040: d562 19bf 1522 9d3f 4da6 a2bf 259d bdbf
00000050: 7d2a ac3f bc30 533f 3a48 79bf a589 223f
00000060: 9ac4 02bf b12d 943f 588c af3f a94b a3bf
00000070: 23f4 993f 3eab a53f 6c24 293f ede4 183f
00000080: bbcf 36bf e693 ac3f ef86 b9bf 91cc ad3f
00000090: 69a8 5ebf 631d 02bf 898a b9be 46fe a4bf
000000a0: e168 a0bf 1fb6 003e f802 b2bf cccb 283f
000000b0: 51d9 6dbf e884 893f d2b7 e13e 2fd1 a4bf
000000c0: 0ada dd3f 5820 9c3f

adv.weight f4 [10, 50]
0.5641892 -0.15123379 -0.37463155 -0.18135488 -1.4105624 -1.1981684 0.17781214 -0.60619545
0.08875091 -0.16531171 -0.27205643 0.11354646 -0.569762 -0.7853338 -0.1372059 -0.44238687
-0.3371243 0.19421604 -0.61788774 -0.12323414 0.5245011 -0.009093853 -0.9220663 0.6039425
-0.7947837 0.3186943 -0.19358164 -1.2506621 0.16295497 0.10624318 0.10828258 -0.50720465
-0.80727714 -0.5392146 -1.3002836 -0.1669438 -0.31431514 -0.5518229 -0.6957339 -1.1288563
-1.165484 0.42327914 -1.4948809 -0.43896243 -0.46836478 -0.51841015 -0.51291984 -1.2144165
-0.2839176 -0.15705577 0.30001414 0.9662056 -1.5133783 0.69353974 -2.67324 -2.4195898
0.11757017 -0.12695234 0.58885664 0.51887214 0.21410432 0.95487297 -2.7821605 -0.70788616
-2.3023558 -0.36937428 0.20638107 0.8367732 -1.51011 -2.0620656 0.3995966 0.8465065
-1.4186817 0.11017343 -0.39601064 0.19183433 -0.17648014 -2.7643652 0.3374542 0.20323682
1.0850987 -3.0117679 0.37589785 -3.1214726 -2.2584739 1.4409747 -0.16156863 -0.46905148
-0.43686178 -1.4606618 -3.4573212 0.5934143 -2.569968 -1.1317005 -0.84629065 -2.9654574
-0.7331318 -1.2811143 0.7819923 0.32570305 0.4390308 0.08965128 -0.7798901 -0.2110688
-1.8824311 -0.95870525 0.10835753 -0.17685758 -0.013411286 0.15868837 -0.62830883 0.91286606
-0.8305727 -1.221923 -0.7861659 -0.33884007 -0.15568179 0.3668654 -1.0160155 -0.53830314
0.043987673 -0.5533858 -1.050082 0.064567894 -1.1607348 0.34613013 -0.14252047 -2.2760706
0.5034058 0.33842725 0.36327386 -0.17044601 -0.82054025 -1.253986 -1.843618 0.36461556
-0.6849774 -0.24048974 -0.6881565 -1.7868066 -2.1056764 -0.93151003 -2.3532987 -0.15761136
-0.6627384 -1.4524356 -0.68476313 -1.1636107 0.3237363 0.18080147 -0.21113205 0.21342264
-0.8205487 -0.19899547 -1.0755414 -1.0022402 0.38543272 -0.5032496 0.33896485 -0.35211483
-0.53659135 -0.15224575 -0.45440876 -0.8552134 -0.53023314 -0.5195372 -0.8077354 -0.17150547
-1.1634105 -0.6529634 0.3515345 0.092648946 -0.7073036 -0.03775483 -0.6065926 0.21866783
0.23635417 -1.3925383 -0.034905896 -0.21022414 0.18846335 0.07006925 -0.8291086 -0.33532694
-1.5536275 0.010841457 -1.671896 -0.3224672 -0.33005086 -1.3204993 -1.4451582 0.10498862
-1.4931504 0.06438352 -0.6181042 -0.31961462 0.12090275 -1.1611992 0.057955112 -0.1438374
0.007602058 0.17653833 -0.15743794 -0.09602003 -1.6358025 -1.3449217 0.023503935 -0.4526615
-0.044187907 0.14333746 -0.7616754 0.054809555 -0.6000834 -0.82687765 -0.51295936 -1.1322613
-0.9528234 0.2272944 -0.8170036 -0.08079749 0.48323113 0.25122598 -1.0959787 -0.16911191
-0.9062583 0.3549495 0.1492132 -1.3032489 0.040384125 0.07067198 0.2887161 -0.15648124
-0.4049021 -0.3178985 -1.329188 0.0057817805 -1.1575466 -0.10165295 -0.71846026 -0.83424497
-1.804431 0.023136077 -1.3207233 -0.43484735 -0.21624465 -0.7618497 -0.06301763 -1.1368585
0.04861674 0.06656404 0.09423558 -0.23799336 -0.57761705 0.22133036 -1.4633734 -0.91043603
00000000: b46e 103f 08dd 1abe b5cf bfbe 18b5 39be
00000010: 4f8d b4bf 955d 99bf 6314 363e a02f 1bbf
00000020: 09c3 b53d 7947 29be fb4a 8bbe 0c8b e83d
00000030: ecdb 11bf a30b 49bf b47f 0cbe 8880 e2be
00000040: 8e9b acbe 92e0 463e e42d 1ebf 2e62 fcbd
00000050: b445 063f 62fe 14bc 890c 6cbf fa9b 1a3f
00000060: f276 4bbf e62b a33e 443a 46be b215 a0bf
00000070: abdd 263e 0696 d93d 42c3 dd3d 2ad8 01bf
00000080: b7a9 4ebf f809 0abf b16f a6bf 51f3 2abe
00000090: eaed a0be 4444 0dbf 9e1b 32bf 5d7e 90bf
000000a0: 942e 95bf 0bb8 d83e 4258 bfbf afbf e0be
000000b0: 82cd efbe 87b6 04bf b74e 03bf 0072 9bbf
000000c0: a65d 91be 3ad3 20be 749b 993e 4059 773f
000000d0: 61b6 c1bf d28b 313f 5d16 2bc0 8fda 1ac0
000000e0: a1c8 f03d cbff 01be 4fbf 163f ced4 043f
000000f0: 2a3e 5b3e 8e72 743f eb0e 32c0 0738 35bf
00000100: cc59 13c0 a01e bdbe 8f55 533e c536 563f
00000110: 494b c1bf e2f8 03c0 ed97 cc3e a6b4 583f
00000120: 5d97 b5bf 9ba2 e13d e8c1 cabe 3870 443e
00000130: 36b7 34be 5ceb 30c0 ccc6 ac3e 501d 503e
00000140: 84e4 8a3f cec0 40c0 af75 c03e 35c6 47c0
00000150: d68a 10c0 dc71 b83f 3f72 25be 8427 f0be
00000160: 59ac dfbe f7f6 babf c044 5dc0 00ea 173f
00000170: 5b7a 24c0 90db 90bf 81a6 58bf 0eca 3dc0
00000180: 87ae 3bbf 8efb a3bf a630 483f 8dc2 a63e
00000190: a5c8 e03e 179b b73d e1a6 47bf 6b22 58be
000001a0: 81f3 f0bf b56d 75bf 8dea dd3d 271a 35be
000001b0: 03bb 5bbc 347f 223e d9d8 20bf 97b1 693f
000001c0: 6aa0 54bf f967 9cbf 2b42 49bf 727c adbe
000001d0: 0c6b 1fbe c8d5 bb3e cc0c 82bf 3cce 09bf
000001e0: 6b2c 343d b1aa 0dbf 1669 86bf 2c3c 843d
000001f0: f592 94bf f837 b13e e3f0 11be 24ab 11c0
00000200: 34df 003f 5646 ad3e 08ff b93e 6689 2ebe
00000210: ed0e 52bf 9d82 a0bf adfb ebbf e4ae ba3e
00000220: ae5a 2fbf f142 76be 062b 30bf 14b6 e4bf
00000230: 67c3 06c0 7177 6ebf 729c 16c0 df64 21be
00000240: 39a9 29bf 69e9 b9bf a34c 2fbf 32f1 94bf
00000250: c4c0 a53e 0524 393e 0033 58be 778b 5a3e
00000260: 7b0f 52bf 78c5 4bbe 57ab 89bf 6849 80bf
00000270: 7057 c53e f7d4 00bf cd8c ad3e 6548 b4be
00000280: 0d5e 09bf 4fe6 1bbe 44a8 e8be 44ef 5abf
00000290: 5cbd 07bf 6400 05bf bfc7 4ebf 219f 2fbe
000002a0: a3ea 94bf 9c28 27bf 54fc b33e bbbe bd3d
000002b0: d911 35bf cfa4 1abd a749 1bbf 76ea 5f3e
000002c0: d406 723e b23e b2bf 7cf9 0ebd ff44 57be
000002d0: 89fc 403e 7880 8f3d 7640 54bf f9af abbe
000002e0: 44dd c6bf 5ea0 313c b000 d6bf 6c1a a5be
000002f0: 6dfc a8be 1f06 a9bf f2fa b8bf 4604 d73d
00000300: 8d1f bfbf 82db 833d 143c 1ebf 87a4 a3be
00000310: dc9b f73d 2da2 94bf 5762 6d3d 1d4a 13be
00000320: af1a f93b 77c6 343e 6937 21be 26a6 c4bd
00000330: fa61 d1bf 6526 acbf 538b c03c 40c3 e7be
00000340: 61fe 34bd 0ec7 123e 29fd 42bf fc7f 603d
00000350: 119f 19bf 41ae 53bf 4e51 03bf f0ed 90bf
00000360: 3cec 73bf ddbf 683e 2627 51bf 2879 a5bd
00000370: 126a f73e b1a0 803e 0849 8cbf ac2b 2dbe
00000380: 8b00 68bf f1bb b53e 58cb 183e dcd0 a6bf
00000390: d369 253d 79bc 903d 99d2 933e 9e3c 20be
000003a0: 544f cfbe 98c3 a2be d522 aabf 1775 bd3b
000003b0: 7d2a 94bf 6c2f d0bd 03ed 37bf 1491 55bf
000003c0: 98f7 e6bf df87 bd3c 760d a9bf 50a4 debe
000003d0: 3d6f 5dbe 9508 43bf 630f 81bd 9484 91bf
000003e0: 5922 473d ba52 883d 95fe c03d 88b4 73be
000003f0: b6de 13bf 6da4 623e d24f bbbf 5612 69bf

adv.bias f4 [10]
-0.20947774 0.5309578 0.24012701 -0.07159633 -0.03319595 -0.21293892 -0.0064630164 -0.022619976
-0.13272993 -1.1912006
00000000: 5581 56be daec 073f dbe3 753e 19a1 92bd
00000010: 7af8 07bd a90c 5abe b6c7 d3bb 874d b9bc
00000020: 5bea 07be 4379 98bf

val.weight f4 [1, 50]
1.2737255 2.0849779 -2.8243694 1.4208238 -3.883452 -2.9364254 1.6283268 -0.719412
1.7337126 1.1427917 -0.637495 2.282041 -0.64192873 -1.5674199 -0.90224236 -0.5730174
-2.281664 1.1934036 -2.8950944 -1.9704688 1.0371455 1.2265981 -2.9224813 0.7215981
-1.3726623 1.4770596 0.75043666 -4.365838 1.0338434 1.3088036 1.4548228 -0.950478
-2.0018337 -1.9566562 -4.2367377 2.1426728 -2.938598 -0.67891634 -1.3512645 -3.2419434
-4.4283533 1.046237 -4.0526133 -0.35509416 -1.3916398 -2.348331 -0.35285634 -1.9172323
1.7214596 0.8089897
00000000: 7009 a33f 4770 0540 78c2 34c0 8edd b53f
00000010: 7a8a 78c0 65ee 3bc0 036d d03f 632b 38bf
00000020: 4bea dd3f 0047 923f df32 23bf f60c 1240
00000030: 7155 24bf 37a1 c8bf 5bf9 66bf 45b1 12bf
00000040: c806 12c0 73c1 983f 3a49 39c0 5238 fcbf
00000050: 2fc1 843f 2b01 9d3f ef09 3bc0 a7ba 383f
00000060: 66b3 afbf 4a10 bd3f 9e1c 403f f2b4 8bc0
00000070: fb54 843f e086 a73f a237 ba3f 8752 73bf
00000080: 0b1e 00c0 b673 fabf 5b93 87c0 8d21 0940
00000090: fd11 3cc0 76cd 2dbf 3cf6 acbf 007c 4fc0
000000a0: 12b5 8dc0 18eb 853f 02af 81c0 e7ce b5be
000000b0: 4121 b2bf 0e4b 16c0 96a9 b4be de67 f5bf
000000c0: ca58 dc3f f319 4f3f
