models/V1_TOKYO_06_19_42_161.pt (torch_old, 4167 bytes, 5 tensors)

fc1.weight f4 [50, 4]
00000000: ccac d93e 3795 533c 8ec1 7e3f 4803 81bf
00000010: 8a90 fa3e f7b0 e83e 7336 7d3d 490b 0a3f
00000020: 8006 d1bf 7ccc 683f e8f6 dfbe aa41 a8bf
00000030: 52fc ba3f d0e3 73bf e26f dbbf 51c3 0e3e
00000040: b841 01bf b305 483e 45e7 4fbe c8ef 923f
00000050: 47e4 a9bc 333e 78bf 4de9 bc3f df21 813e
00000060: a290 903f f8cd 1fbc dc67 51bf da18 cdbd
00000070: 86b8 0ec0 8c51 c23d 0ed4 efbe 508f 9ebf
00000080: 98d3 2e3f d79d c73d 392c 763f 2720 6dbf
00000090: d2a4 093f 8ad3 5ebf 9d72 f13e ed49 73bf
000000a0: 39a2 21c0 cdc1 1abf c21b 8e3e 1a1a 8cbe
000000b0: bb62 fdbd 6e92 d43f 52e1 553f 936a 613f
000000c0: 9201 8b3f 6a6a eb3e 28e8 843f f87d de3f
000000d0: 25bf 29c0 da81 66be 80ef d43e 54a7 69bf
000000e0: 98e1 c33f 3327 5f3f d2e6 a13f 7baa 8c3f
000000f0: ec1b c0bf 9c78 d5bf 101d b3be a333 b6bf
00000100: 89d6 953f c6d2 e93f 2d9a b93e af02 653f
00000110: 62fe f23e 632b 183f 1a1e d23e 50bc 3fbf
00000120: 300b 3ac0 46ac 5abf cbb9 3abf a2f8 963e
00000130: e0da 58bf 9cfe 913e 4d1b 83bf c116 d53f
00000140: f139 8e3e 8f5e a83f 4bb4 dd3e 2d28 39bf
00000150: 8f4d 2bbe 5799 bc3f 7136 823d decb 503f
00000160: 2534 f8bf 46c8 0cbf 0f24 dbbe bb67 2d3e
00000170: 1167 883f ebfd 8e3f 8de8 1bbe f665 bebf
00000180: dd25 a9bf 21b1 04c0 8c70 85be ad1d ebbf
00000190: 69e9 8b3f 5976 493d b277 2ebe 64f9 4abf
000001a0: e473 6f3f f465 cd3f 2a98 e5be d0c0 99bf
000001b0: b6cc 0bc0 8177 ffbf ce2e 56be 713f c3be
000001c0: 34d8 943e 3f5e 843f c120 8abf 7d91 563f
000001d0: 1d4d 5f3f f532 383e e00a 42bf fdbc 43be
000001e0: 012a 9d3e 152b 9ebe dd73 8a3f eec4 d1be
000001f0: 51cb 853f 2713 f23f 9fa7 653f 3ee1 483f
00000200: dfe4 0b40 63eb 4640 47b1 b53e 9779 ca3f
00000210: 1250 4840 f38a 7a3f 2538 a43d afbe 80be
00000220: fa44 2ac0 940d fabf 8f6d 363d dd94 25bf
00000230: 3804 13bf bb2f 113f 5594 e73f 2f4f 9fbd
00000240: 12c3 a53f 85b1 a83f 93d8 5c3e 8ec5 ac3f
00000250: b3ed a8bf 956b c7be 9334 9fbf 5391 1c3f
00000260: 415b 07c0 76d0 c0bf 746f dfbd 9083 f6bf
00000270: 6040 3ac0 f914 babf b2db 523e 764a e9be
00000280: 8460 28bf df91 afbf c734 893e 98bb a23f
00000290: f8bc 4ebf 1ab5 6f3e 8d09 77bd bf68 cb3f
000002a0: f8d9 25c0 4ee3 d4bf b1fc 3dbd 2339 ebbe
000002b0: 5a1e 4f3f 2b45 a43f d678 ae3f 64e4 e33e
000002c0: c67c c9bf a3a3 da3e 2cee 34bf 39cb c4bf
000002d0: a7f1 1840 ee15 1240 ffa7 03bf 0f87 a53f
000002e0: db0d cf3f 54c1 99bf 91d5 80bf 7daf 5abe
000002f0: 667d 12c0 1a74 e3bf 3e73 2cbf f593 19bf
00000300: 9487 793f a8fa 2fbf 2598 0fbf 52f0 9e3e
00000310: db2a 393f 9977 7abf eea0 0dbf 0daf bfbe
0.42514646 0.012913994 0.9951409 -1.0079126 0.489384 0.45447513 0.061819505 0.5392347
-1.6330109 0.9093702 -0.43743062 -1.3145039 1.4608252 -0.9526949 -1.7143519 0.13941695
-0.50490904 0.19533424 -0.20303066 1.1479425 -0.020738734 -0.9696991 1.4758698 0.25221154
1.1294138 -0.009753697 -0.817991 -0.10014506 -2.2300124 0.0948821 -0.46841472 -1.2387486
0.68291616 0.097469024 0.9616123 -0.92627186 0.5376712 -0.87041533 0.47157755 -0.95034677
-2.5255263 -0.60451967 0.27755553 -0.27363664 -0.12372347 1.6607187 0.83546937 0.88053244
1.0859854 0.45979625 1.0383348 1.7382193 -2.6522915 -0.22510472 0.41588974 -0.9127095
1.5303221 0.8716919 1.2648566 1.0989527 -1.5008521 -1.6677432 -0.3498311 -1.4234508
1.1706096 1.8267448 0.3625044 0.8945722 0.47459704 0.594412 0.4103859 -0.7489672
-2.9069328 -0.8541912 -0.7293975 0.29486567 -0.84708977 0.28514564 -1.0242707 1.6647569
0.2777858 1.3153857 0.43301615 -0.7232693 -0.16728805 1.4734296 0.0635804 0.81561077
-1.9390913 -0.54993093 -0.42800948 0.16934101 1.0656453 1.117124 -0.1522543 -1.4874866
-1.321468 -2.073311 -0.2606243 -1.8368431 1.0930606 0.04918513 -0.17037848 -0.7928679
0.9353621 1.6046739 -0.44842654 -1.2011967 -2.1843696 -1.9958345 -0.20916292 -0.3813434
0.290712 1.0341262 -1.0791246 0.8381575 0.8722704 0.17988189 -0.75797844 -0.19115062
0.3069611 -0.30892244 1.0816609 -0.40970558 1.0452672 1.8912095 0.89708894 0.7846869
2.1858442 3.1081169 0.35486814 1.5818356 3.129887 0.9786827 0.08018521 -0.2514548
-2.66046 -1.9535394 0.044538077 -0.6468027 -0.5742831 0.56713456 1.8092142 -0.07778775
1.2950156 1.3179175 0.21566992 1.3497789 -1.319754 -0.38949266 -1.2437919 0.6115925
-2.1149447 -1.5063617 -0.1090993 -1.92589 -2.9101791 -1.453765 0.2059162 -0.45564622
-0.6577227 -1.3716391 0.26798078 1.2713499 -0.80757093 0.23408929 -0.060311843 1.5891341
-2.5914288 -1.6631868 -0.046383563 -0.4594203 0.8090569 1.2833608 1.3630626 0.44510186
-1.5741203 0.4270297 -0.7067592 -1.5374519 2.3897493 2.2825885 -0.51428217 1.2931842
1.6176103 -1.2012124 -1.0065175 -0.21356006 -2.2889037 -1.7769806 -0.67363346 -0.5999139
0.974725 -0.68741846 -0.5609153 0.31042725 0.7233102 -0.9783874 -0.55323684 -0.3743824

fc1.bias f4 [50]
00000000: e258 813f 2995 993f 58ef 9abf 0f34 553f
00000010: 0abf d63d 0c88 ed3e 6bd2 c23f 5954 61bf
00000020: 7538 a23f 656e b43f 401a 59bf 7c3e a23f
00000030: f676 603f 909d acbf a577 433f c6f4 063f
00000040: f695 09bf f004 993f e7e7 90bf 3e89 dfbe
00000050: c288 933f b6c6 3a3f d07d 5bbf 4add 2b3f
00000060: 67c7 2dbe 384a 0c3f 553b 4b3f ec7b 97bf
00000070: dbff 623f a565 8d3f cc35 3f3f 0601 f7bb
00000080: 1fb3 11be 7cd9 943f f236 a7bf 6de4 e63e
00000090: 0696 42bf fe80 f7be 0bc8 663e 9a19 a2bf
000000a0: c998 353f 4b98 223e cec0 a9bf 4b14 533f
000000b0: 40f8 7fbf 9f3c d23d f391 ac3e f97a a8bf
000000c0: 8fa5 c03f 246a 883f
1.010525 1.1998645 -1.2104292 0.8328256 0.104856566 0.46392858 1.5220464 -0.8801933
1.2673479 1.409619 -0.8480568 1.2675319 0.8768152 -1.3485584 0.7635444 0.52717245
-0.5374445 1.1954632 -1.1320771 -0.43659395 1.152611 0.7295946 -0.8573885 0.67134535
-0.16970597 0.5480075 0.7938741 -1.1834693 0.88671654 1.1046644 0.7469146 -0.007537964
-0.14228486 1.1628871 -1.3063643 0.4509615 -0.7601017 -0.483406 0.22537248 -1.2664063
0.70936257 0.15878408 -1.3261964 0.8245284 -0.99988174 0.10265469 0.337051 -1.3162528
1.5050524 1.0657392

adv.weight f4 [10, 50]
00000000: cd1c 1f3f a264 fd3e 5101 05bf c063 893d
00000010: 8103 23bf c097 49bf 4c62 e83e 1d71 e5be
00000020: b015 0a3f 2305 b73e c000 0ebf 8906 813f
00000030: 99c5 d5bf 15d7 95bf 7465 8bbf ac3c a3bb
00000040: 093b b7bd 68d0 053f e778 85bf 2dbb aa3d
00000050: 853a 3e3f 1de0 c43e 108f e2bf a7cb 2e3e
00000060: 8805 abbe 6832 c73e d10b 34be 4194 0bc0
00000070: ca96 bb3e a6ea 8a3e 893c e13e 9c05 3bbf
00000080: f008 89bf 9db8 19c0 8835 c8bf 360a 543f
00000090: b5c7 99be ad6c b2be 5035 82be f4a5 c4bf
000000a0: 4cde cdbd 5188 013e 8fee 03c0 8f7a fabf
000000b0: d14c 14bf f99b 88bf b17a 9dbf ff8e 94bf
000000c0: b800 393e fd2b 4b3e 3da6 40be e546 4a3e
000000d0: a324 94be 1479 8f3e 5f07 e5bd 05d7 6e3d
000000e0: d34e 57be 7813 e6be c442 b23c 9d76 ff3d
000000f0: d4df 96be fa67 a2bd a42d 51be 1a49 4dbf
00000100: 2037 0ebf 5fc1 35bf 038a 51be 7c40 f13e
00000110: f378 22bf b016 003e 3987 593d 7fce 99be
00000120: 7c2c ecbe 3d9a f53e 84a6 07bf 74e8 bb3e
00000130: e7ee 7ebd 2bda 8cbf d7ae 2b3d ebe1 073e
00000140: 7b31 f63e 6f0b 95be 6ac2 8bbe 1f64 d6be
00000150: 4600 61bf 72b2 103e 8c9d 16bf c2bb fdbe
00000160: ecc8 39bf e52d 63bf 8e96 40bd 3a98 db3e
00000170: 8d50 95bf 4f20 38bd 6baf 3abf 821d 85bf
00000180: 301f afbd 4957 72bf 1769 7b3e a65c 643c
00000190: 6c3b 913e 950f 18bd 3286 dbbe 77fa 94bd
000001a0: 6cca 093f 25f6 cdbd 8e92 343d a95c 55be
000001b0: cf18 ce3d a5c2 9d3e 2892 57bf 925b 2f3f
000001c0: 04da 02bf ace6 97bf 23f5 13bf 484f 6fbe
000001d0: 7e9b 16bf 39af cc3e 7f61 6cbf 1fe4 adbd
000001e0: f1cb 393e fadb 41be e5c2 8fbf ce7b 6e3e
000001f0: 8cff 41bf 60c1 113f a8b0 4fbe bf0c f4bf
00000200: c59f 883e 5eaa 923e 71a7 433e bec3 18bf
00000210: 1b47 7bbf 147c 72bf cf83 9fbf ca1e c5bd
00000220: 3aec 42bf 6339 70be b7ba cfbe f416 c2bf
00000230: b13d fbbd 648f 323e 55bd edbf b124 30be
00000240: 7a4d 04bf 5408 acbf 045f 8dbe 006a 82bf
00000250: 5976 943e c17f 393e 7f63 45be f66d 6d3e
00000260: 42f3 13bf 85f4 15be 2502 213f 5b83 0b3e
00000270: 2560 d43e 5602 13bf 9203 bc3e edea 8fbe
00000280: 55f5 2cbf 3da3 16bd 5025 10bf 9eba 41bf
00000290: c2e8 45bf ef81 15bf b89d 0bbf b52e 96bd
000002a0: fb5f 6fbf 3459 003f 1a88 f73e 4355 efbb
000002b0: cc40 08bf 6ba9 623c c559 0bbf 76ce 9f3e
000002c0: e521 f63e 7d87 81bf 247e b23d 26e4 3abe
000002d0: 01e2 593e 6e1d cfbe 3487 5fbf 7661 c1be
000002e0: 7a88 9cbf bf7a 31bd 7564 85bf 50e9 923d
000002f0: ceb7 9ebe 7c42 93bf b268 ebbb 80b7 8b3e
00000300: 6de5 9dbf 456f 12be eda5 16bf 68b4 e0be
00000310: ce15 1a3e 4c47 7bbf 3e72 093e 0a4a a3bd
00000320: f474 533e 4745 103e ffb6 1abf fc72 eb3d
00000330: 416b eabd a4d6 8ebd b1fe a2ba e37a cdbe
00000340: 128c e73c de53 9a3e e9de 84bf 1600 c83d
00000350: 3f23 0ebf 94d6 8fbf 19eb 2ebf 1fc7 33bf
00000360: 9e42 07bf 1ba9 b73d edaf 02bf cfbd a8be
00000370: 31e0 9f3e 7b2a 673e d43d 6fbf 1d73 ff3c
00000380: 9d49 2bbf ff94 e53e 65b3 36bd 2ca1 2dbf
00000390: 25b0 5d3d cdce 683d e123 713e 49b1 a6be
000003a0: b243 35bf 5de8 08be 457c 72bf 56eb 53bc
000003b0: cb17 acbf 2e55 3b3d b9d0 39bf ce15 52bf
000003c0: 4811 30be ab8b 473e 9583 80bf 9477 8b3d
000003d0: ca96 d5be 38c2 7ebf a7c6 83be f11a 5ebf
000003e0: e069 fd3d b6c8 323e 3b58 873e 8d62 aabd
000003f0: 7107 4abf af6b 713e 05d1 063e 5eb4 a43e
0.6215332 0.4949084 -0.51955134 0.06708479 -0.6367722 -0.7874718 0.45387495 -0.4481286
0.5393934 0.35746107 -0.55469894 1.0080119 -1.6700927 -1.1706263 -1.0890336 -0.004981598
-0.08946807 0.5227113 -1.0427521 0.08336482 0.74308044 0.38452235 -1.7699909 0.17069875
-0.33402658 0.38905644 -0.17582633 -2.1809237 0.3663848 0.27132148 0.43991497 -0.73055434
-1.0705853 -2.401893 -1.5641336 0.8282808 -0.30035177 -0.34848538 -0.254313 -1.5363145
-0.100521654 0.12649657 -2.0614355 -1.9568652 -0.5792971 -1.0672599 -1.2303067 -1.1606139
0.1806668 0.19840999 -0.18813415 0.19753607 -0.28934202 0.28022063 -0.111830465 0.058310527
-0.21026163 -0.44936728 0.021760352 0.124737956 -0.29467642 -0.07929988 -0.20427567 -0.8018967
-0.55552864 -0.70998186 -0.20462804 0.4711951 -0.63465804 0.12508655 0.053107474 -0.30040357
-0.4612769 0.47969237 -0.5298846 0.36700785 -0.062239554 -1.100408 0.041914787 0.13269775
0.48084626 -0.29110286 -0.27296764 -0.4187326 -0.8789104 0.14130571 -0.5883415 -0.4955731
-0.7257221 -0.88741904 -0.04701858 0.42889577 -1.1665207 -0.044952687 -0.72923917 -1.039963
-0.085508704 -0.94664437 0.24551807 0.013938105 0.28365648 -0.037124235 -0.4287582 -0.07274335
0.53824496 -0.10056714 0.044085078 -0.20836128 0.100633256 0.30812564 -0.8420739 0.684991
-0.51113915 -1.186727 -0.57795924 -0.23370087 -0.5883101 0.39977434 -0.9233627 -0.08490776
0.18144204 -0.1893157 -1.1231352 0.23289415 -0.7578056 0.5693569 -0.20282233 -1.906639
0.26684394 0.28645605 0.19106843 -0.5967368 -0.98155373 -0.9472058 -1.24621 -0.09625013
-0.76141703 -0.23459391 -0.4057214 -1.5163255 -0.12267626 0.17437512 -1.8573405 -0.17201497
-0.5168072 -1.3440042 -0.27611554 -1.0188599 0.28996542 0.1811514 -0.19276236 0.23186478
-0.57793057 -0.14644058 0.628939 0.13624327 0.41479602 -0.5742544 0.36721474 -0.28108922
-0.67561847 -0.03677677 -0.56306934 -0.7567538 -0.77308285 -0.5840139 -0.54537535 -0.073331274
-0.9350583 0.50136113 0.48346025 -0.007303865 -0.5322387 0.013834338 -0.5443385 0.31212205
0.48072734 -1.0119473 0.08715466 -0.18251094 0.2127762 -0.4045214 -0.8731568 -0.3776967
-1.2229149 -0.04332995 -1.0421282 0.07173407 -0.30999607 -1.1504664 -0.0071841115 0.27288437
-1.233564 -0.14300258 -0.5884693 -0.4388764 0.1504738 -0.98155665 0.13422486 -0.07973106
0.20650083 0.14088927 -0.6043548 0.11496541 -0.11446238 -0.06974533 -0.0012435523 -0.40132818
0.028265033 0.3014211 -1.0380527 0.097656414 -0.5552253 -1.1237359 -0.6832748 -0.7022571
-0.52836025 0.08967801 -0.5104969 -0.32957312 0.31225732 0.22574799 -0.9345372 0.03118282
-0.669092 0.44840237 -0.044604678 -0.67824054 0.054123063 0.056837846 0.23548843 -0.32557133
-0.7080642 -0.1336989 -0.9472087 -0.012934526 -1.3444761 0.04573553 -0.7258411 -0.8206452
-0.17194092 0.19486873 -1.0040156 0.06809917 -0.41716605 -0.99515104 -0.25737497 -0.8675986
0.1237371 0.17459378 0.26434502 -0.08319578 -0.78917605 0.23576234 0.13165672 0.3216886

adv.bias f4 [10]
00000000: 894b ab3e 66c6 683c 658b 233e 6d83 c43b
00000010: 3d76 b6bc 3997 57bd 8b94 533e 12cd 7cbd
00000020: d910 dbbd 7443 72bf
0.33456066 0.014207458 0.15971144 0.0059971125 -0.022273177 -0.05263445 0.20662133 -0.061719008
-0.10696573 -0.94634175

val.weight f4 [1, 50]
00000000: 8a2d 2b3f 7e5c c23f 73aa fabf 41dc 923f
00000010: f67d 1b3f 717c 1f3f 5401 923f 3e7a 8abf
00000020: 0ba3 af3f 25bf 743f 4af3 d7bf aef8 c03f
00000030: cfc3 15bf 23f6 fbbf e503 88bf e8e0 42bf
00000040: 1562 ffbf 9109 673f 6a22 1fc0 1f1c e63e
00000050: e7bf 463f 6748 483f 4373 31c0 b1ab 0a3f
00000060: 2665 8fbf 23db a23f c3b7 253f 7e3c 5ec0
00000070: c7df 183f 19e3 6e3f 9a52 a93f 6262 7fbf
00000080: eef9 00c0 8af7 dfbf df78 46c0 436b 923f
00000090: 2c96 0fc0 36ed 34bf 90da 9dbf 5730 3bc0
000000a0: c34e 1d3f 89d3 843f b670 48c0 656f 1fbf
000000b0: 4b14 bcbf 81d6 11c0 0657 8fbe 0333 debf
000000c0: aba5 a73f b516 1c3f
0.6686636 1.5184476 -1.9583267 1.1473466 0.60739076 0.6229926 1.1406655 -1.0818555
1.3721632 0.95604163 -1.6871121 1.5075891 -0.58501905 -1.968449 -1.0626189 -0.7612443
-1.9951807 0.9024897 -2.4864755 0.4494333 0.7763657 0.7823548 -2.77266 0.5416823
-1.1202743 1.2723125 0.64733523 -3.4724422 0.5971646 0.93315274 1.3228333 -0.99759495
-2.0152545 -1.7497418 -3.1011274 1.1438984 -2.2435408 -0.70674455 -1.2332325 -2.9248254
0.61448306 1.0377055 -3.1318793 -0.6227935 -1.4693693 -2.2787173 -0.2799608 -1.7359318
1.3097433 0.6097215
