models/V1_TOKYO_05_49_09_161.pt (torch_old, 4167 bytes, 5 tensors)

fc1.weight f4 [50, 4]
00000000: 085d 4cbd 1264 863e eb07 b73f 9850 91bf
00000010: b752 803f 7748 8e3f 71ff a73e 95fb 843f
00000020: e666 c8be 9810 0f40 8943 54bf 45ff 20bf
00000030: c853 ee3f e00a e6be 0122 99bf c317 733f
00000040: 98be d8bf c0bd 56bf da8f b1be 893d 8ebe
00000050: 3754 88bf 5577 0dc0 8738 893f 4f1a 1c3f
00000060: 0667 c03f 10b8 8f3d 97bf 0bbf aa63 b73e
00000070: 66ca 08c0 036b 143e 7562 f4be 4aaf 00bf
00000080: 846f 283f 5869 743f 10ff 7e3f 2e96 9abe
00000090: 3081 993e b980 ecbe 9e1f 003f d22b 91bf
000000a0: 8f04 ffbf 31ed 8dbe d45e a73e 5372 75be
000000b0: 8df2 e7bd 362f b83f 6bca 3a3f 4f22 923f
000000c0: 07d3 793f 517b a13e 80b0 c83f 8791 b63f
000000d0: 922f 08c0 cda5 25bf 2061 72bd c367 80bf
000000e0: dccb 2f3f 0a25 5cbf 982e fd3f 9b5f a73e
000000f0: 122d 9bbf e91a 94bf db09 23bf d111 6abf
00000100: bb84 0abf 2717 a0bf 9335 d43f bb0b 81be
00000110: 95e4 c03e b5e0 5c3f 26fd c23e 1f05 90bf
00000120: 0824 18c0 0650 66bf 368f 26bf 5453 4abc
00000130: f6d9 9ebf fa73 833e 111d e4bf c226 573f
00000140: 5a20 223e 6c6c 0e40 99a9 97bd 8343 01bf
00000150: 58be f73c b68d 8d3f e920 783e c6d7 c53f
00000160: f912 bebf bae0 debe e8f9 97be c0bc c13d
00000170: 7481 703f da05 3b3e da71 54bd f026 f2bf
00000180: a8ba 8fbf e93b d4bf 0e73 d6be 9d07 c7bf
00000190: c906 5c3f d438 293d a71f 9e3c 56bb 8abf
000001a0: 0e94 a63e 64d4 833f 14bb 61be 0845 a6bf
000001b0: dcd3 dbbf debf 02c0 0c29 b3bc 48f4 4fbf
000001c0: 5e50 d43e ce84 663f 8162 e9be bd06 b03f
000001d0: 21e7 c33f 9e9b acbd 22ca 04bf 8177 c43e
000001e0: d67f 133e 7472 0a40 5ee6 083e c5db 813e
000001f0: bc6c a63e d2e0 0440 2b58 c53e 2f97 833e
00000200: fc92 0f40 214d 3340 cc49 b83d f21d aa3f
00000210: 174f f43f 4782 c63f 3396 233e fdb3 de3e
00000220: c506 01c0 3021 05c0 56cc 833d 9e29 5bbf
00000230: a7d9 e8bc 78bc ac3f 8638 5c3f 7a84 9c3f
00000240: ba91 103e 4640 9e3e 6c2f 8b3d f55b e23f
00000250: 5641 a5bf 5770 36bf 3a6a 6fbf 6544 473f
00000260: 1ebf efbf 65dc 9cbf 2a82 4fbe ecdc d2bf
00000270: a8a0 1bc0 eec5 94bf a6c4 bf3d c8e8 21bf
00000280: 8f13 f4bf 578b 10c0 f5b7 493f ee2e 063f
00000290: ca5f 45bf cede 193f b566 b1bd b87f dd3f
000002a0: 8578 f5bf cc7e e5bf 2c3e 4fbc 280e 29bf
000002b0: ac78 98bd 3884 f93f 09bb 863f 048e 2d3f
000002c0: 65ea 94bf 133d 90be f54d f0be 0162 b0bf
000002d0: f4a3 e63f 270c 0e40 e513 c3be 84cf 8b3f
000002e0: feaf 343b 7714 09c0 b9bd 5ebf 896c c2bd
000002f0: 8ba0 02c0 3b73 bcbf 0990 2cbf d624 78bf
00000300: a94f 413f f1bf 77be 0ce8 b0be 8b31 d73e
00000310: 95de 0b3e 27a6 84bf 489b 1ebf 1b70 12be
-0.04989341 0.26248223 1.4299291 -1.135272 1.0025243 1.1115865 0.32812074 1.0389277
-0.39141005 2.2353878 -0.8291555 -0.6288951 1.8619318 -0.44930172 -1.1963502 0.9495813
-1.6933165 -0.83883286 -0.34680063 -0.27781323 -1.06507 -2.2104084 1.0720376 0.60977644
1.503144 0.07017529 -0.5458922 0.35818225 -2.1373534 0.14493947 -0.47731367 -0.5026747
0.6579516 0.9547324 0.99607944 -0.30192703 0.29981375 -0.46191958 0.50048244 -1.1341498
-1.9923266 -0.27720025 0.32689536 -0.23969392 -0.1132556 1.4389408 0.72965115 1.141672
0.9758763 0.31539395 1.5678864 1.4263161 -2.1279035 -0.64706117 -0.059174657 -1.0031666
0.6867044 -0.8599402 1.9779844 0.3269013 -1.2123129 -1.1570712 -0.63686913 -0.91433436
-0.5410878 -1.2507066 1.657885 -0.25204262 0.37674394 0.86280376 0.38083762 -1.1251563
-2.3771992 -0.89965856 -0.6506227 -0.012348969 -1.2410266 0.2567442 -1.782137 0.84043515
0.15832654 2.2253675 -0.07405395 -0.5049364 0.03024213 1.1058872 0.24231304 1.5456474
-1.484954 -0.43530828 -0.2968285 0.09459829 0.9394753 0.18263951 -0.05186639 -1.8918133
-1.1228838 -1.6580783 -0.41884655 -1.5549198 0.85947853 0.04131396 0.019302202 -1.083842
0.32534832 1.0299191 -0.22044021 -1.2989817 -1.7174029 -2.0429606 -0.021870159 -0.8123212
0.41467565 0.90046394 -0.45582965 1.3752056 1.530491 -0.08428119 -0.5187093 0.38372424
0.14404234 2.1632357 0.13369128 0.25362983 0.32504833 2.076222 0.3854383 0.2570128
2.2433462 2.8015826 0.08998451 1.3290389 1.9086636 1.5508507 0.15975265 0.43496695
-2.0160382 -2.0801506 0.06435458 -0.8561038 -0.028424097 1.3495016 0.8602375 1.2227929
0.1411809 0.30908412 0.067961544 1.7684313 -1.2910564 -0.71265167 -0.93521464 0.77838737
-1.8730199 -1.2254759 -0.20264497 -1.647367 -2.4316807 -1.1622903 0.093636796 -0.6324582
-1.9068469 -2.2585046 0.7879632 0.5241536 -0.7709929 0.601056 -0.08662168 1.7304602
-1.9177405 -1.792932 -0.0126491 -0.66037226 -0.07444891 1.9493475 1.0525829 0.67794824
-1.1634032 -0.28171596 -0.46934476 -1.3779908 1.8018785 2.2194917 -0.38101116 1.0922704
0.002757072 -2.141874 -0.87008244 -0.09493358 -2.0410488 -1.4722666 -0.6740728 -0.9693121
0.75512177 -0.24194314 -0.34552038 0.42029986 0.13659127 -1.0363206 -0.6195569 -0.14300577

fc1.bias f4 [50]
00000000: d23c 513f 2bff 843f dddf 8cbf 81c7 203f
00000010: 8f5a 19bf e424 3a3e 3133 9e3f c1ed 6c3f
00000020: 7d22 8b3f c349 9a3f cc76 e8bd dbab 913f
00000030: ad80 7d3f 4ff4 11bf 6915 973f b853 a3be
00000040: dffe 5b3e 0044 853f ad60 2bbf 8b75 5abf
00000050: c618 08bf b3a9 4d3f cb34 c1be f606 b13e
00000060: 4027 90be 9e79 f13e 60ec 573f 757c 41bf
00000070: 48dc 863f 3486 243f 9011 84be da61 84bd
00000080: 8e38 703f eb7e 483f d127 5cbf 812d 793f
00000090: 8307 223f 3ac6 533f 143f 73be 1727 20bf
000000a0: 21b0 16bf c351 8ebc da14 52bf 0c55 6d3f
000000b0: b747 c2be 0bc4 213f c2e1 013d 2685 2cbf
000000c0: 8453 a83f 1e20 853f
0.8173343 1.0390371 -1.1005818 0.6280442 -0.59903806 0.18178135 1.2359372 0.92550284
1.08699 1.205376 -0.11350784 1.1380571 0.9902447 -0.5701341 1.1803409 -0.3189981
0.21483944 1.0411377 -0.6694439 -0.85335606 -0.531628 0.80337065 -0.3773559 0.34575623
-0.28154945 0.471631 0.84345055 -0.7558053 1.0535975 0.6426728 -0.2579465 -0.06463976
0.93836296 0.7831866 -0.85998255 0.9733506 0.6329271 0.82724345 -0.23754531 -0.62559646
-0.588625 -0.017372971 -0.82063067 0.92707896 -0.3794534 0.6318976 0.03170944 -0.6739067
1.3150487 1.0400426

adv.weight f4 [10, 50]
00000000: c7ef c73e d5f5 10bf 6120 d1be 6109 0abf
00000010: 47c2 37bf 18e7 6fbf b1f7 ed3e 8e59 cfbe
00000020: 3321 34be 5a7a 353e 1904 17be 6f72 05be
00000030: dd15 19bf 4033 a5be 598e 35bf 6d22 193d
00000040: 953a 53bf 8015 543e d0be 0abe c8f2 8dbe
00000050: 6cd1 9a3e 4e40 2fbf 0202 27bf ee13 2a3f
00000060: 025c dcbd 398f 643f 2300 5d3d 4814 9abe
00000070: 574c ad3c 393e 84be 8680 88be 0414 39bf
00000080: 8641 51bf 5715 7dbf 3290 a4be a6b2 82bf
00000090: 4522 543e 9c3f 5cbe 49f8 85be cffa efbe
000000a0: 05e3 63bf 5d7e 94be 2cf2 23bf 12f1 30bf
000000b0: ee13 3abe 9036 34bf 7f46 83bd 6808 d8be
000000c0: fce5 a1bc fbd0 a73d 85be 1cbf dd84 0abe
000000d0: f803 25bd f3c8 42bf 485c 26bf ecee 45bf
000000e0: 481a 83bf 898e dabe bc70 1cbf 8a3a 58be
000000f0: a2ee 2ebe b4f9 88bf 32a7 b3bd fd3e 02bf
00000100: 0b1c 24bf 4a43 fabe 9ccb 6bbe 091b 0c3e
00000110: bc32 67be 2c19 fbbe d297 62be 5414 0fbf
00000120: bf23 23be a38e dc3d 8f9b 63be a3ff 3dbe
00000130: 10bc 04bf db69 a4be cdcc 3ebf d67d 56bf
00000140: a59b c7ba b82c cdbe fc7e a5bc 2545 d9be
00000150: 7c23 4cbe ef9b d1be 64e0 b6be 4ed6 38bf
00000160: 1fef 09bf 638a c5be ed6a 7abf 03fd babd
00000170: 54e8 f1be 6506 adbe 5277 06bf c049 3bbf
00000180: 15db c3be 6e7a c7be a1db 19bf 1688 b0be
00000190: 3caf 9f3f c827 883f e91c a0bf 5614 903e
000001a0: 58a4 a1bf 686d c0be ed9f 083f 6a03 873e
000001b0: 1094 773f 4d73 433f e4aa 9fbe 67ce a53f
000001c0: 1e33 9cbf 3de7 90bf d3ef 97bf a04c 87be
000001d0: a0e5 33bf 7d5d 533f 88f9 13bf fbd4 3ebf
000001e0: 3b54 65bf 292b e23e 9956 ffbe f724 bb3e
000001f0: 7588 76bf c90f 173f c01d 973d f1fe 09c0
00000200: 3fcd 3b3f c13d 893f 0973 afbf 9e9b abbf
00000210: 791a efbf 092a 0cc0 5158 d8bf 6a67 5e3f
00000220: d655 113f 3fa1 383e c3e8 e2be 921c a0bf
00000230: 1cac 55bf f92a d73d 1a4d 0ac0 e0f5 753f
00000240: 04eb dabe e22f 12c0 838a 1fbf 42bd a9bf
00000250: aaa4 2d3f d7ca c23e 237f 0ebf 10c6 6bbe
00000260: 41ef 15bc cf26 20bf ebcb a7be d1f5 c8be
00000270: 30fc bd3d 0dca fdbe 41c4 dabe cf02 2bbf
00000280: 3dab aebe 5808 25bf d4e8 3cbf 7da5 8abe
00000290: f136 37bf 29e5 c7be 3ab5 69be dbf4 09bf
000002a0: 7a25 11bf 6e0a 1abf d803 ea3e 7eda 2abf
000002b0: c7f4 7cbe 4cb9 babe 928a 8ebe 10f6 cdbc
000002c0: 5e72 733d 6553 b6be 1723 61be dbed dabe
000002d0: c72f 24bf 4ebe 33bf 9cdb 6fbf 4dd5 2bbf
000002e0: f03b 0cbf cf3a 50bf b0cb 52bf f119 ecbe
000002f0: 65dc 76bd 9aca 0cbf edf5 c1be 2311 6ebf
00000300: 84d7 0abf 30af 2abf a8aa cabe 09c2 95be
00000310: b726 aebe eb99 11bf dbfb d2be f63b 12bf
00000320: 18b7 d13d f155 343f 6c3a 18bf 4add e63e
00000330: 2124 82bf ea21 66bf 0868 903e 2795 38bd
00000340: f6e3 1cbe c07f 193e 5f36 09bf 7d55 9f3e
00000350: aae7 96bf 126a 47bf 3e66 a1bf 77bf 64bf
00000360: c49d 7ebd b9e9 c13e c8c1 aebe ee80 79be
00000370: 8b29 fd3e 454f 053f f189 0abf b1f8 16be
00000380: dd65 30bf 9a99 543e 39c9 d13d 7105 5fbf
00000390: 2270 833e d313 fe3e d045 19bf e776 26bf
000003a0: f17a 3dbf 3ac1 80be 5a9e 58bf a405 ff3e
000003b0: c745 7f3e ad1b 9bbc 38cb 39bf d464 acbe
000003c0: c550 50bf 40bd f53d a2bd 3ebf 95bb ca3e
000003d0: 3ac0 1cbf 0b02 21be c5de b1be abec 9bbf
000003e0: f324 473e 310c 52bd b665 023f 3aaf a13f
000003f0: e26f 48bf 312e e13e 8dae a8bf 0802 afbe
0.39050123 -0.5662511 -0.40845016 -0.5392056 -0.7178082 -0.93711996 0.46478036 -0.40498012
-0.1759079 0.17722455 -0.14747657 -0.13031934 -0.59798986 -0.32265663 -0.7092033 0.037386347
-0.82511264 0.20711327 -0.13549352 -0.2772429 0.302379 -0.68457496 -0.6523744 0.6643666
-0.107597366 0.8928104 0.05395521 -0.30093598 0.021154566 -0.25828722 -0.26660556 -0.72296166
-0.81740606 -0.98860687 -0.32141262 -1.0210769 0.20716198 -0.2150864 -0.2616599 -0.4687104
-0.8901828 -0.29002658 -0.640414 -0.69117844 -0.18171665 -0.70395756 -0.064099304 -0.42193913
-0.019762985 0.08194157 -0.6122821 -0.13527246 -0.040286988 -0.76087874 -0.6498456 -0.7731769
-1.0242395 -0.4268687 -0.6110952 -0.21116081 -0.17083219 -1.0701203 -0.08772124 -0.5087736
-0.6410529 -0.48879462 -0.2302689 0.13682188 -0.22577947 -0.49042642 -0.22128227 -0.55890393
-0.15931605 0.10769393 -0.2222731 -0.18554549 -0.5184946 -0.3211201 -0.7453125 -0.8378576
-0.0015228881 -0.4007318 -0.020202152 -0.42435566 -0.19935411 -0.4093928 -0.3571807 -0.72202003
-0.53880495 -0.38582143 -0.97819406 -0.091302894 -0.47247565 -0.3379394 -0.5252582 -0.7315941
-0.38253084 -0.38960594 -0.6010075 -0.34478825 1.2475352 1.063714 -1.2508823 0.28140515
-1.2628279 -0.3758347 0.5336903 0.26369792 0.967103 0.7634781 -0.31185067 1.2953614
-1.22031 -1.1320568 -1.1870064 -0.26425648 -0.70272255 0.82564527 -0.5780263 -0.7454373
-0.8958165 0.44173554 -0.49870756 0.3655164 -0.96301967 0.5900846 0.07378721 -2.1561854
0.73360056 1.0721971 -1.3706981 -1.3406866 -1.8679954 -2.1900656 -1.6901952 0.8687655
0.567716 0.1803026 -0.44318208 -1.2508719 -0.83465743 0.10506243 -2.160956 0.960783
-0.42757428 -2.2841725 -0.6232073 -1.3260882 0.6782938 0.3804538 -0.55662745 -0.23024774
-0.009151281 -0.6255922 -0.32772765 -0.39250043 0.092766166 -0.49568215 -0.42727855 -0.6680116
-0.3411502 -0.64465857 -0.7379277 -0.27079383 -0.7156821 -0.39042023 -0.22823039 -0.53889245
-0.5669781 -0.60172164 0.45706058 -0.6673964 -0.2470275 -0.36469495 -0.27840096 -0.025141746
0.05943524 -0.356105 -0.21986042 -0.42759594 -0.641354 -0.70212257 -0.9369447 -0.67122346
-0.5477896 -0.81339735 -0.8234205 -0.46113542 -0.06026878 -0.54996645 -0.3788294 -0.929949
-0.542351 -0.66673565 -0.39583325 -0.292496 -0.34013912 -0.56875485 -0.41207775 -0.57122743
0.102400005 0.70443636 -0.59464145 0.45090705 -1.0167276 -0.898955 0.2820437 -0.045064118
-0.15321335 0.14990139 -0.5359859 0.3111991 -1.1789448 -0.77896225 -1.2609327 -0.8935465
-0.062162176 0.3787363 -0.34132218 -0.24365589 0.49445757 0.5207408 -0.5411673 -0.14743306
-0.6890543 0.2076172 0.10243458 -0.8711768 0.25671488 0.496245 -0.5987215 -0.6502518
-0.7401572 -0.2514742 -0.84616625 0.4980899 0.24928962 -0.018934095 -0.7257571 -0.33670676
-0.81373245 0.11998987 -0.74508107 0.3959624 -0.61230814 -0.15723436 -0.34740272 -1.21816
0.19447689 -0.051281158 0.5093645 1.26316 -0.7829572 0.43980554 -1.3178269 -0.34181237

adv.bias f4 [10]
00000000: ac2c 11be 7677 e3be 38c3 273f 1c12 ffbe
00000010: f188 d63d cbfa 723e 6649 dfbe b42a 21be
00000020: 7354 27bf af06 38bf
-0.14177197 -0.4442708 0.65532255 -0.49818504 0.10475338 0.23728482 -0.43610686 -0.15738946
-0.65363234 -0.718852

val.weight f4 [1, 50]
00000000: 3e81 bf3e 986b 1640 a8bd 11c0 b5f6 713f
00000010: 5ece dfbf 3950 a8bf 0da6 a93f 3d53 98be
00000020: 3dae a73f 1c23 323f fd33 3ebf 2da1 723f
00000030: f2e9 87be bbca 6dbf 7f1c 7fbf 74d5 0abf
00000040: 3f5a 9bbf dfe3 383f 1085 afbf 3f7e 77bf
00000050: d02d 76bf 6da7 953f 9b79 abbf 516a de3e
00000060: b0a6 46bf 4e00 7b3f 754e dd3e 9772 0bc0
00000070: 15a9 473f 7d33 973f 4133 c0bf 3878 55bf
00000080: 91a4 0cc0 6c5a cbbf a9bd 0fc0 c21b a33f
00000090: 1752 8a3f 85fc c9be 3bed 83bf 73d1 d9bf
000000a0: b1ce e7bf 2347 663f 49d6 02c0 171f 853f
000000b0: c5c2 45bf fef4 24c0 d8b7 21bf 1122 94bf
000000c0: fa9f 8d3f 92a1 203e
0.3740329 2.350317 -2.2772007 0.9451707 -1.7484853 -1.3149482 1.32538 -0.29751006
1.3100048 0.6958482 -0.7429808 0.94777185 -0.26545674 -0.9288747 -0.99652857 -0.54231954
-1.2136916 0.72222704 -1.3712482 -0.9667701 -0.96163654 1.1691719 -1.3396486 0.43440488
-0.77598095 0.9804734 0.4322392 -2.178869 0.77992374 1.1812588 -1.5015641 -0.83386564
-2.1975443 -1.588697 -2.245951 1.2742846 1.0806302 -0.3945047 -1.0306772 -1.7017044
-1.8109952 0.89952296 -2.044329 1.0400113 -0.7725032 -2.5774531 -0.6317115 -1.1572896
1.1064446 0.15686634
