models/V1_TOKYO_04_00_58_161.pt (torch_old, 4167 bytes, 5 tensors)

fc1.weight f4 [50, 4]
0	0xbceab1a9	-0.028649168
1	0x3f90d686	1.1315467
2	0x3fa41c29	1.2821094
3	0xbecbca8b	-0.39802966
4	0x3f78bd72	0.9716407
5	0x3e8469fc	0.2586211
6	0x3e3eb955	0.18625386
7	0x3f237cbe	0.63862216
8	0xbf30f249	-0.691197
9	0xbeb6ed9f	-0.35728166
10	0xbe617a5a	-0.2201933
11	0xc00227de	-2.0336833
12	0x4008dd86	2.1385207
13	0xbf69e681	-0.91367346
14	0xbf899d2e	-1.0751092
15	0xbdc6ff9c	-0.09716722
16	0xbfff95b3	-1.996756
17	0xbfd5571b	-1.6667207
18	0xbe7630a1	-0.24041988
19	0xbe323db1	-0.17406346
20	0x3e276c44	0.16349894
21	0xbf8440b0	-1.0332241
22	0x3f9888e6	1.1916778
23	0x3f68b15d	0.90895635
24	0x3fd20844	1.6408772
25	0xbe42beb1	-0.19018055
26	0xbf91b0a9	-1.1382037
27	0x3dc90277	0.09814923
28	0xc003944f	-2.055927
29	0xbec13b83	-0.37740716
30	0xbf050ce9	-0.51972824
31	0xbf344067	-0.7041077
32	0x3fe3a505	1.7784735
33	0x3ede0b1b	0.43367848
34	0x3f2881bd	0.65822965
35	0xbe19b6be	-0.15011117
36	0x3e563136	0.2091721
37	0xbf1ff554	-0.62483716
38	0x3f0ec237	0.557651
39	0xbfd1e02d	-1.6396538
40	0xbf2f19ea	-0.68398917
41	0xbd2da940	-0.042397738
42	0xbe1a76d4	-0.15084392
43	0xbf442719	-0.7662216
44	0x3e9e8d74	0.30967295
45	0x3fa5eba6	1.2962539
46	0x3e94ff93	0.29101238
47	0x3eaf28ad	0.3421072
48	0x3f09884a	0.53723586
49	0x3f71a16e	0.9438695
50	0x3f885b7f	1.0652922
51	0x3faf34f8	1.368804
52	0xc00f395c	-2.237876
53	0xbf3c833e	-0.7363776
54	0x3d0d61c3	0.03451706
55	0xbfa810ed	-1.3130165
56	0x3fddff96	1.7343624
57	0x3eb6d404	0.3570863
58	0x3f3f8a0b	0.7482001
59	0x3f22e4ee	0.6363057
60	0xbd9539cf	-0.07286417
61	0xbb16d9a7	-0.0023017915
62	0xbeab63de	-0.3347463
63	0xbfb34f41	-1.4008561
64	0x3ec89946	0.39179438
65	0x3fb2e122	1.3974955
66	0x3f35c579	0.71004444
67	0x3f7bd64c	0.98373866
68	0x3f94e031	1.1630918
69	0x3f671d48	0.90279055
70	0x3e59b2c0	0.21259594
71	0xbe485df6	-0.19567093
72	0xc01b1e8b	-2.4237392
73	0xbfe9acc5	-1.825585
74	0xbf07a682	-0.52988446
75	0x3d995fcc	0.07488975
76	0xbf93f9d4	-1.1560616
77	0x3fc8199f	1.5632819
78	0xbf920712	-1.1408408
79	0x3f50d786	0.8157886
80	0x3f42f9ba	0.761623
81	0x3fe8ebd9	1.8196975
82	0x3e9f8f75	0.31164137
83	0xbdf85771	-0.12126053
84	0x3e083a5f	0.13303517
85	0x3f270d60	0.65254784
86	0x3e372be0	0.1788783
87	0x40064ae5	2.0983212
88	0x3dbab699	0.09116859
89	0x3d0a5d90	0.033780634
90	0x3de50be7	0.11183911
91	0x3fdc1a01	1.7195436
92	0x3f875b8b	1.0574812
93	0x3f32c6f2	0.69834816
94	0xbf956925	-1.1672713
95	0xbf9ffbab	-1.2498678
96	0xbecd0714	-0.40044463
97	0xbc9fca1a	-0.01950555
98	0x3e9d99de	0.30781454
99	0xc000a784	-2.0102243
100	0x3f9c401d	1.2207066
101	0xbe5fabec	-0.21842927
102	0xbeee3e4c	-0.46531904
103	0xbf20f3e0	-0.62872124
104	0x400b4054	2.1758013
105	0x3f82010b	1.0156568
106	0xbecdda89	-0.40205792
107	0xbf289a53	-0.6586048
108	0xbffea7ac	-1.9894919
109	0xbfef2022	-1.8681681
110	0xbe3558ce	-0.17709658
111	0xbde9f184	-0.114230186
112	0x3fc823e1	1.5635949
113	0x3f4fb323	0.81132716
114	0xbd3e8621	-0.046514634
115	0x3f9c12e0	1.219326
116	0x3f88ec31	1.069708
117	0x3e86a29c	0.26295936
118	0xbf7489b3	-0.9552261
119	0x3d33dd48	0.043912202
120	0xbd518ed6	-0.05116161
121	0xbf070e16	-0.5275587
122	0x3faadac3	1.3348011
123	0xbea09e86	-0.31370944
124	0x3f164ce4	0.58711076
125	0x400b1fee	2.1738238
126	0x3ea55e64	0.32298577
127	0x3da3f4e9	0.08005697
128	0x3fd90f48	1.6957788
129	0x3fd1bd48	1.6385889
130	0x3f54708a	0.8298422
131	0x3f6df601	0.929535
132	0x3fd053df	1.6275595
133	0x3babb84b	0.0052404753
134	0x3eb8d6b1	0.36101297
135	0xbde0c9a9	-0.109759636
136	0xc018f200	-2.3897705
137	0xc0094712	-2.1449628
138	0xbda04945	-0.07826475
139	0xbe9a4315	-0.30129305
140	0xbd319c4a	-0.04336194
141	0x3e81fbc3	0.2538739
142	0x3fd59926	1.6687362
143	0xbea8798b	-0.3290523
144	0x3e156af6	0.14591584
145	0x3f21967a	0.63120234
146	0x3f1adb15	0.6049054
147	0x3f8ebbc7	1.1151055
148	0xbf45f234	-0.773227
149	0xbdbdd0b4	-0.092683226
150	0xbfb89915	-1.4421717
151	0x3f49cf43	0.7883188
152	0xbfc68553	-1.5509437
153	0xc00bc264	-2.1837397
154	0xbdd511a4	-0.10403755
155	0xbf80a9e1	-1.0051843
156	0xc01fa350	-2.4943428
157	0xbfec1576	-1.8444049
158	0x3ceaa1c0	0.028641582
159	0xbee9a963	-0.45637044
160	0xbfe6ec16	-1.8040798
161	0xc009ed4a	-2.155108
162	0x3c545393	0.012959379
163	0x3e96d03c	0.29455745
164	0xbf832da4	-1.0248303
165	0x3f8ae416	1.0850856
166	0xbe437d4e	-0.19090769
167	0x3f7a1d95	0.9770139
168	0xc00e7c6f	-2.2263448
169	0xc005ae4f	-2.088764
170	0xbd696109	-0.056977306
171	0xbe1ee80a	-0.15518203
172	0x3effc565	0.49955288
173	0x3ff4e01c	1.9130893
174	0x3e84896f	0.25886104
175	0x3f0a54c2	0.5403558
176	0xbf222f13	-0.6335308
177	0xbf6d897b	-0.92787904
178	0xbf12083c	-0.57043815
179	0xbfcaf01a	-1.5854523
180	0x3f7a6135	0.97804576
181	0x3fb09a50	1.3797092
182	0xbb956896	-0.0045595868
183	0x3f177c74	0.59174275
184	0x3f593020	0.8483906
185	0xbf9ff854	-1.2497659
186	0xbfa02127	-1.2510117
187	0x3dff7097	0.12472647
188	0xbf8a7fe6	-1.0820282
189	0xc00ce68d	-2.2015717
190	0xbf839df6	-1.0282581
191	0xbfc3a229	-1.5283862
192	0x3f4d544b	0.80206746
193	0xbec79204	-0.3897859
194	0xbf445141	-0.76686484
195	0x3d4ce1fb	0.0500202
196	0x3eec3e10	0.461411
197	0xbf4e2d2e	-0.8053769
198	0xbf4ead80	-0.8073349
199	0xbf20a964	-0.6275847

fc1.bias f4 [50]
0	0x3f447afa	0.7675015
1	0x3eeedbbf	0.46652028
2	0xbf085d3f	-0.5326728
3	0xbd9dcc7c	-0.07705018
4	0xbf617d67	-0.88081974
5	0x3f03a655	0.5142568
6	0x3f7569c9	0.9586454
7	0xbf6200b1	-0.88282305
8	0x3f1a738c	0.6033256
9	0x3f9dd235	1.2329775
10	0x3fb60a17	1.4221829
11	0x3fbbcd32	1.4671996
12	0xbf0068fa	-0.5016018
13	0xbf723acb	-0.9462096
14	0x3ef5d1da	0.48011667
15	0x3f46a1b2	0.7759048
16	0xbdf3ebd7	-0.11910217
17	0x3ec9e821	0.39434913
18	0xbf860135	-1.0469118
19	0xbe9e1fbc	-0.30883586
20	0x3e3976e7	0.18111764
21	0x3e9da059	0.30786398
22	0x3e9d1964	0.30683434
23	0x3efbb29b	0.49159703
24	0x3f4320a7	0.762217
25	0x3f41f1c3	0.75759524
26	0x3c788b9b	0.015170003
27	0xbf568469	-0.8379579
28	0xbca0a532	-0.019610021
29	0x3f586503	0.8452913
30	0x3f67b6f5	0.90513545
31	0x3e1ac34e	0.15113565
32	0x3f229159	0.6350303
33	0x3ed37d2b	0.41306433
34	0xbf832918	-1.0246916
35	0x3f440f51	0.7658587
36	0xbf155df4	-0.58346486
37	0x3f609854	0.87732434
38	0xbe98d27a	-0.2984808
39	0xbf872d0c	-1.0560622
40	0xbeab970b	-0.33513674
41	0xbf2700d2	-0.65235627
42	0xbf6d4d43	-0.9269602
43	0x3e37b9b6	0.17941937
44	0xbe06aadd	-0.13151117
45	0x3dc04e19	0.09389896
46	0x3f0c0970	0.547019
47	0x3e89c9dc	0.2691182
48	0x3f9624f8	1.1730032
49	0x3f94de43	1.1630329

adv.weight f4 [10, 50]
0	0x3e0fcc1e	0.14042708
1	0xbf84a5a9	-1.0363055
2	0xbec2c677	-0.38042042
3	0xbf069236	-0.5256685
4	0xc01cbf4f	-2.4491765
5	0xbd5d8ab5	-0.05408736
6	0x3e9e823c	0.30958736
7	0xbf3c7506	-0.73616064
8	0xbf75b22f	-0.9597501
9	0x3ef35458	0.47525287
10	0x3f1c0301	0.60942084
11	0x3f15ab8d	0.5846489
12	0xbe4d428a	-0.20044914
13	0xbf64f1ea	-0.8943163
14	0x3e38e1e3	0.18054919
15	0x3eabb8b5	0.33539358
16	0x3d9977bc	0.07493541
17	0xbf2c24fe	-0.67243946
18	0xbfaf206a	-1.3681767
19	0xbed458fe	-0.41474146
20	0xbef8e854	-0.48614752
21	0xbf3675fe	-0.7127379
22	0xbf25e3dc	-0.6480081
23	0x3d51e92e	0.051247768
24	0x3ed1610b	0.4089435
25	0x3ef098a4	0.46991456
26	0xbf7b029a	-0.98050845
27	0xbfe3d948	-1.7800684
28	0x3f25062c	0.6446254
29	0x3e540198	0.20703733
30	0x3f58ab9b	0.8463685
31	0xbf7eb658	-0.99496984
32	0xbf4b3b35	-0.7938722
33	0xbf2d813c	-0.6777532
34	0xbfc36ad2	-1.5266974
35	0x3eb70f71	0.35753968
36	0xbc958db6	-0.01825605
37	0x3e7043ed	0.23463412
38	0xbe619892	-0.22030857
39	0xbfbd2cef	-1.4779338
40	0xbf5ac3f0	-0.85455227
41	0x3f75eccf	0.96064466
42	0xbff84f02	-1.9399111
43	0xbf458897	-0.77161545
44	0xbeafd325	-0.34340778
45	0xbe96008b	-0.2929729
46	0x3deeba9e	0.11656688
47	0xbda55eae	-0.08074699
48	0xbc999565	-0.018747995
49	0x3e9076d9	0.28215674
50	0xbf4fa826	-0.8111595
51	0xbf60759c	-0.8767946
52	0xbe007986	-0.12546358
53	0xbf15be40	-0.58493423
54	0xbf0c4bbd	-0.5480307
55	0xbf2a1c37	-0.664493
56	0xbf836202	-1.0264285
57	0xbe6a4aa2	-0.22880033
58	0xbf395a9b	-0.7240388
59	0xbe9f0d18	-0.31064677
60	0xbe849a7f	-0.2589912
61	0xbf31c952	-0.69447815
62	0xbf28dba1	-0.6596013
63	0xbe8cb2ef	-0.27480265
64	0xbf65e252	-0.8979846
65	0xbf3e259f	-0.74276155
66	0xbf152a0b	-0.5826728
67	0xbea1227a	-0.31471616
68	0xbe59eaee	-0.21281025
69	0xbf0bae3c	-0.54562736
70	0xbf57a3f0	-0.84234524
71	0xbfb02a72	-1.3762953
72	0xbf46721b	-0.7751786
73	0xbeeceb60	-0.46273327
74	0xbed101bf	-0.40821645
75	0xbf4c8669	-0.79892594
76	0xbf7587a9	-0.95910126
77	0xbf100a2f	-0.5626554
78	0xbf4abfa7	-0.7919869
79	0xbf41880f	-0.75598234
80	0xbe863630	-0.26213217
81	0xbf43fd46	-0.7655834
82	0xbf099855	-0.53748065
83	0xbf188779	-0.59581715
84	0xbdff526d	-0.12466893
85	0xbf1f2004	-0.62158227
86	0xbf2c2252	-0.6723987
87	0xbf61e579	-0.8824077
88	0xbf09ae58	-0.5378165
89	0xbe4b6669	-0.19863285
90	0xbf8b9d6d	-1.0907418
91	0xbf5003c3	-0.8125574
92	0xbed4a818	-0.41534495
93	0xbf4a2742	-0.7896615
94	0xbf2daf8c	-0.6784599
95	0xbf79c317	-0.9756331
96	0xbf707d0a	-0.93940794
97	0xbf37ce01	-0.7179871
98	0xbf0e645a	-0.55621874
99	0xbf1bc6d1	-0.60850245
100	0xbf54d1d9	-0.831327
101	0xbf8500b0	-1.0390835
102	0xbe9e9457	-0.3097255
103	0xbeaf35a7	-0.3422062
104	0xbfbcf738	-1.4762945
105	0xbde97cf2	-0.114007846
106	0x3dc24bd7	0.094871216
107	0xbf20ae23	-0.6276571
108	0xbf574d38	-0.841022
109	0x3e991b33	0.29903564
110	0xbddcbcff	-0.10778236
111	0x3f442f7e	0.7663497
112	0xbf5918c3	-0.8480341
113	0xbfbc473a	-1.4709237
114	0xbf8177d2	-1.0114691
115	0x3ebb689c	0.36603248
116	0xbf84b9cc	-1.0369201
117	0xbd82b296	-0.06381719
118	0xbf7282b4	-0.9473069
119	0x3e1bf537	0.15230261
120	0xbe9a7620	-0.30168247
121	0xbf9f87c7	-1.2463311
122	0xbf824cdc	-1.0179706
123	0x3ee3472e	0.44390243
124	0xbe8481d8	-0.25880313
125	0x3efecf80	0.49767685
126	0xbf05ffd6	-0.523435
127	0xbfb983ad	-1.4493309
128	0xbeee79d8	-0.46577334
129	0x3ecb3e8c	0.39696157
130	0xbe5d216e	-0.21594784
131	0xbe4098c4	-0.18808275
132	0xbf7011a6	-0.9377693
133	0xbf76c4d5	-0.9639409
134	0xbf8edc03	-1.1160892
135	0xbf0fae83	-0.5612566
136	0xbf1bb907	-0.60829204
137	0x3e9b5bc6	0.30343455
138	0xbf033ef2	-0.5126792
139	0xbfd9c899	-1.7014343
140	0xbf6f5752	-0.93492615
141	0xbf19921d	-0.59988576
142	0xbfcfb6b1	-1.6227628
143	0xbe7b5507	-0.24544154
144	0xbee7eec0	-0.4529934
145	0xbf429b09	-0.76017815
146	0x3e375904	0.1790505
147	0xbdcbefce	-0.099578485
148	0x3eacca26	0.33747977
149	0x3ed7d324	0.42153275
150	0xbfabc42e	-1.3419244
151	0xbf0d80b7	-0.5527453
152	0xbedbc267	-0.42921755
153	0xbf4af098	-0.79273367
154	0x3ee92a70	0.4554019
155	0xbf76789d	-0.9627779
156	0xbeb5e47a	-0.35525876
157	0xbe229bd2	-0.15879753
158	0xbef45e27	-0.47728083
159	0xbf81b002	-1.0131838
160	0xbf4245d2	-0.7588779
161	0xbf9119d8	-1.1336012
162	0xbf3834a1	-0.71955305
163	0x3d2d48e9	0.04230586
164	0xbf742006	-0.95361364
165	0xbf31030f	-0.6914529
166	0xbf40aadb	-0.75260705
167	0xbf658201	-0.89651495
168	0xbd891db5	-0.06695119
169	0xbf288c5f	-0.6583919
170	0xbee8ab67	-0.4544327
171	0xbf74ede1	-0.95675474
172	0xbf0033f1	-0.50079256
173	0xbf537f06	-0.826157
174	0xbf20ec0b	-0.62860173
175	0xbf05ca02	-0.52261364
176	0xbe5ca710	-0.21548104
177	0x3e8c8837	0.27447674
178	0xbf093279	-0.5359264
179	0xbf728c43	-0.9474527
180	0xbf7f592d	-0.99745446
181	0xbf53225a	-0.8247429
182	0xbf852b5f	-1.0403861
183	0xbf136843	-0.57580966
184	0x3cf37942	0.029720906
185	0xbfa29bf5	-1.2703844
186	0xbf2f9e53	-0.6860096
187	0xbf113f5f	-0.5673732
188	0x3cf0d077	0.029396279
189	0x3c45f409	0.012082108
190	0xbedf2e51	-0.43590024
191	0xbfaa4946	-1.3303611
192	0x3dae7938	0.085192144
193	0xbf2b0856	-0.66809595
194	0xbf045315	-0.51689273
195	0xbe861e3e	-0.26194948
196	0xbed18f3c	-0.40929592
197	0xbf39a273	-0.725135
198	0xbf267180	-0.6501694
199	0xbf378dff	-0.71701044
200	0x3e5a6d5e	0.21330783
201	0xbe7e6bce	-0.24845812
202	0xbf799a94	-0.9750149
203	0xbf248778	-0.6426921
204	0xbfa95a09	-1.3230602
205	0xbf3f3b71	-0.74700075
206	0xbf31947b	-0.6936719
207	0xbe39dc2a	-0.18150392
208	0x3e4a16a3	0.19735198
209	0xbcc8c283	-0.024506813
210	0xbe386bff	-0.18009947
211	0x3ecb7376	0.39736527
212	0xbf0993f2	-0.5374137
213	0xbf4ca074	-0.7993233
214	0xbe768c8a	-0.24077049
215	0xbf75ed47	-0.9606518
216	0xbb959acc	-0.0045655724
217	0xbe7ab6cf	-0.24483798
218	0xbe8492b1	-0.25893167
219	0x3f223f86	0.6337818
220	0xbe751bd4	-0.23936397
221	0x3e383454	0.17988712
222	0x3cb6f908	0.022335544
223	0xbf76aa5d	-0.96353704
224	0xbf0748c9	-0.52845436
225	0xbedac597	-0.42728874
226	0xbf76280d	-0.9615486
227	0xbf87f74c	-1.0622344
228	0xbf08aa15	-0.53384525
229	0xbf0caec3	-0.54954165
230	0x3e96b845	0.29437461
231	0xbe51c1fc	-0.20484155
232	0xbec8e4e0	-0.39237118
233	0x3f149995	0.5804685
234	0xbf636457	-0.8882498
235	0x3e9c326b	0.30507216
236	0xbf488b48	-0.78337526
237	0x3ddf9894	0.10917774
238	0xbf581d13	-0.84419364
239	0xbec7929e	-0.38979048
240	0xbf285bcb	-0.65765065
241	0x3f073be3	0.52825755
242	0xbf4b159f	-0.79329866
243	0xbe75b76f	-0.23995756
244	0xbf45f7a5	-0.77331
245	0xbf5f11cd	-0.87136537
246	0xbf2e2840	-0.68030167
247	0xbfae2221	-1.3604165
248	0xbe74dae8	-0.23911631
249	0xbf0bbc41	-0.5458413
250	0xbee4134c	-0.44545972
251	0xbf6ecb1c	-0.9327867
252	0xbf29e733	-0.66368407
253	0xbe915434	-0.28384554
254	0xbe93f902	-0.28900915
255	0xbf1655d1	-0.58724695

adv.bias f4 [10]
0	0x3ec7a902	0.3899613
1	0xbf0be4e1	-0.54646116
2	0x3ea8f51d	0.32999507
3	0xbf520288	-0.8203511
4	0x3c7a3cfe	0.015273331
5	0xbf13870c	-0.5762794
6	0xbf23d7dc	-0.6400125
7	0x3d0067b2	0.03134889
8	0x3d8d3cd6	0.06896369
9	0xbea7c09c	-0.32764137

val.weight f4 [1, 50]
0	0x3e1c7139	0.15277566
1	0xbe8a7975	-0.2704579
2	0xbfa35632	-1.276068
3	0x3db6cd1c	0.0892584
4	0xc038db03	-2.8883674
5	0x3edc99fc	0.4308623
6	0x3f1d1de5	0.6137374
7	0xbfae2a2a	-1.3606617
8	0xbea774ba	-0.32706243
9	0x3f804a4f	1.0022677
10	0x3f262ecc	0.64915156
11	0x3f978eea	1.1840489
12	0xbe0cded9	-0.13756885
13	0xbfb5ec09	-1.4212657
14	0xbe1b8599	-0.15187682
15	0x3f0b521b	0.5442216
16	0xbf2b7356	-0.66972864
17	0xbf0b33c6	-0.54375875
18	0xc01bdd37	-2.435377
19	0x3e0d3886	0.13791093
20	0xbf65405f	-0.8955135
21	0xbebeb478	-0.37247062
22	0xbed17737	-0.40911266
23	0x3e663a16	0.22483096
24	0x3f257599	0.64632565
25	0x3f5a0b12	0.8517314
26	0xbf2fbe5b	-0.68649834
27	0xc042dd16	-3.044744
28	0x3cda00c7	0.026611699
29	0x3f081a0c	0.53164744
30	0x3fb6a63a	1.4269478
31	0xbf38c25e	-0.7217158
32	0xbf22af56	-0.6354879
33	0xbf035bbc	-0.5131185
34	0xc0309823	-2.7592857
35	0x3f6d8be1	0.92791563
36	0xbf6a3033	-0.91479796
37	0x3e40ac99	0.18815841
38	0xbfac502f	-1.346197
39	0xc01ee8b5	-2.4829533
40	0xbfec6643	-1.8468708
41	0x3f7872dd	0.9705027
42	0xc02ac418	-2.6682186
43	0xbf0c2bcd	-0.54754335
44	0xbf6a2a44	-0.9147074
45	0xbf318e97	-0.693582
46	0x3ea66ab7	0.32503292
47	0xbe2bd93b	-0.16782086
48	0x3f48ebd8	0.7848487
49	0x3f00353c	0.5008123
