models/V1_TOKYO_12_11_36_161.pt (torch_old, 4167 bytes, 5 tensors)

fc1.weight f4 [50, 4]
00000000: 4a77 203f f828 d83d c536 873f 64f8 a7bf
00000010: 6a3f fc3e dabe 633f 19d6 28bd bf3b f23e
00000020: d12d a3bf 510c af3f c72d 02bf fafb 37bf
00000030: 8352 b03f d3fe 70bf 2ab2 b3bf fa5f 4e3d
00000040: a525 dcbf 4b13 9cbf 731e 17be 588f 00be
00000050: 5544 24bf 7046 e4bf 200f b93f 8b5a 123e
00000060: b789 b33f d0d6 313e 8309 32bf c46b bfbd
00000070: 0815 04c0 aa62 44bd d73f 0ebf 2935 47bf
00000080: c222 453f bda8 083f b56a 4c3f 1bb3 7dbf
00000090: bf21 ca3e 98f9 f8be 5967 f23e 1b58 a5bf
000000a0: 25a3 17c0 5ccc 05bf bc22 143f a07e 98bd
000000b0: f2b5 293e 62ca c43f afc7 283f 04db 6b3f
000000c0: a7fe 633f adbd 79bf 72c3 c33f 7b94 663f
000000d0: 042e 18c0 2ff5 86bf 7d25 733e a9fc 26bf
000000e0: fc0e 9b3f 575f 49be 20b6 a83f 4e5d 303f
000000f0: 18d7 6bbf bda1 86bf 32ec 13bf a10f a5bf
00000100: 8136 713f 40d9 ad3f 588a 553e 6c79 4c3f
00000110: e2ca aa3e 6984 983f 910c d53e 475b 85bf
00000120: efb7 24c0 71fd 6bbf 9b38 febe cd2d 7c3e
00000130: 89cb e6bf 2a97 b43e 3ba6 b0bf 3ceb 773e
00000140: 63af b83f 3cbb dd3f 5e18 9c3d e836 6f3e
00000150: 99c9 b9bd defb 903f 20d4 f93d cae0 e63f
00000160: 3d41 f2bf 2d41 cdbe b8e1 91be 2a8d 6f3e
00000170: cfea 713f 196e ce3d f964 18bf 61ab bcbf
00000180: a6cc a9bf 9d2f 15c0 951c c0bd 2fef 99bf
00000190: b7eb 853f 1b04 00be 9ab5 acbe c121 2cbf
000001a0: 89e6 f83e 8a36 d23f e23b 72bf cf6c afbf
000001b0: 59f6 04c0 b7a5 04c0 b913 8cbd b9fc acbe
000001c0: d5d3 6f3e 1567 683f c2c4 34bf c729 ac3f
000001d0: 66e3 823f 3c0b ab3d 246a 3dbf 97c8 bdbd
000001e0: f9ae bb3e 386a c03e 39d8 493f 3dbe 3cbf
000001f0: d4d7 873f 3d56 0440 7efb 983e 6224 513f
00000200: 3f02 2b40 8532 0840 f949 073d bdae c93e
00000210: 1b97 1940 01a2 663f 3f4e 503e a68f 20bd
00000220: 1ec6 18c0 87a7 0ac0 e392 dabc 3ca2 e2be
00000230: e037 aa3d 8b2c 833f 82e0 873f 4eb3 683f
00000240: a572 33bd f4e3 19be 17e4 11be 2303 c73f
00000250: 803f bebf d143 acbf 3a91 29bf 6d29 0d3f
00000260: 8734 f3bf f5f9 abbf 5b2e b6bd 214d a3bf
00000270: 9f9a 23c0 211c debf 1b3e 6a3e 9604 9dbe
00000280: 7754 01c0 992c 23c0 63ec d33e eb53 fe3e
00000290: a323 35bf 45d7 7e3f 398d 17be 42cf f03f
000002a0: 7634 0ec0 cbde f4bf c756 87bc e1e3 a7be
000002b0: 72a6 2f3e 771e 803f 9407 cf3f 1ee2 e43e
000002c0: 05f1 b9bf eb0d 98be d32c 19bf f98d 8abf
000002d0: 11f3 ff3f e970 f43f 57a0 9bbe 5c6b 883e
000002e0: 49ad 3e3f fcf8 41bf c87f 9ebf b11a ec3d
000002f0: 7ffb fbbf 658e 09c0 4eec 16bf 72c9 61bf
00000300: 41f9 6a3f 8628 d2be 588d 1bbf f8a4 783e
00000310: 1a7c 0a3f 2425 3cbf 344f 1cbf 76ca cfbe
0.6268202 0.10554689 1.0563589 -1.3122678 0.4926713 0.8896309 -0.041219804 0.47311208
-1.2748357 1.3675634 -0.508511 -0.7186886 1.377518 -0.9413883 -1.4038746 0.0503845
-1.7198988 -1.2193388 -0.14757709 -0.12554681 -0.64166766 -1.7833996 1.4457741 0.14292352
1.4026402 0.173671 -0.69545764 -0.093467265 -2.0637836 -0.047945656 -0.5556616 -0.7781549
0.7700616 0.53382474 0.7985032 -0.9910142 0.3947887 -0.48627925 0.47344473 -1.2917513
-2.3693326 -0.5226495 0.578655 -0.07446027 0.16573313 1.5374262 0.65929693 0.92131066
0.89060444 -0.9755505 1.529402 0.90070313 -2.3778086 -1.0543574 0.2374477 -0.6522928
1.2113948 -0.19665276 1.318058 0.6889237 -0.9212508 -1.0518109 -0.5778228 -1.2895395
0.9422379 1.3581924 0.20853555 0.79872775 0.33357912 1.1915408 0.4161115 -1.0418481
-2.5737264 -0.92183596 -0.49652562 0.24626847 -1.8030864 0.3527158 -1.380073 0.24210829
1.4428524 1.7322764 0.07621835 0.23360789 -0.09071655 1.1326864 0.12198663 1.803735
-1.8926159 -0.40088788 -0.28492522 0.23393694 0.94498914 0.10079593 -0.5952907 -1.4739801
-1.3265579 -2.331031 -0.093804516 -1.2026118 1.046256 -0.12501566 -0.337323 -0.67239004
0.48613384 1.6422894 -0.94622624 -1.3705081 -2.0775359 -2.0726144 -0.06839699 -0.33786562
0.23420651 0.9078229 -0.7061273 1.345025 1.0225646 0.08351752 -0.7399008 -0.09266775
0.3665693 0.37581038 0.78845555 -0.7372778 1.061274 2.0677636 0.29879373 0.8169614
2.672012 2.1280835 0.03302953 0.39391127 2.3998477 0.9009095 0.20342349 -0.039199494
-2.387092 -2.166475 -0.02668137 -0.442644 0.083114386 1.0247968 1.0615389 0.908986
-0.043810505 -0.15028363 -0.14247166 1.5547832 -1.4863129 -1.3458196 -0.66237223 0.55141336
-1.9000405 -1.3435656 -0.0889556 -1.2757913 -2.5563123 -1.7352334 0.22875254 -0.3066756
-2.0207803 -2.549597 0.41391286 0.496734 -0.707575 0.99547225 -0.14799966 1.881325
-2.221952 -1.9130491 -0.01652087 -0.32791045 0.17153338 1.0009297 1.6174188 0.44703764
-1.4526678 -0.2969812 -0.5983402 -1.0824577 1.9996053 1.9096957 -0.30395767 0.2664441
0.7448316 -0.75770545 -1.2382746 0.115285285 -1.9686126 -2.149316 -0.5895432 -0.88198006
0.9178658 -0.41046542 -0.6076255 0.2428168 0.54095614 -0.7349417 -0.61058354 -0.40584153

fc1.bias f4 [50]
00000000: 2e19 993f 044b b53f 94cd 92bf 1eac 9b3f
00000010: c43c 5cbf 2beb aa3e 4395 da3f a4db bcbe
00000020: 2458 c43f 6be5 a63f 1ce8 c6be 934e b73f
00000030: 5f28 a4bd b5dc 8dbf 59b9 893f 7501 2bbe
00000040: f055 1dbe c448 8b3f c9de 86bf 897f 97bf
00000050: ecd0 373f b7de 783f d211 21bf 83a7 a83e
00000060: 31e3 1dbf e4a8 653f 2aef 213f 862c 8fbf
00000070: 4315 6e3f b607 743f 6acb 5b3f 3d6a 5e3e
00000080: c789 aa3f b400 843f b50b a3bf 56e2 9f3f
00000090: 7c17 a93e b0e0 04bf 4280 5abf 69e9 90bf
000000a0: f3fe 2abf d5a1 a63e 9182 94bf c1da 233f
000000b0: 8cf5 29bf 37f9 693f 106e e63e cd56 92bf
000000c0: 21cd cb3f 1bc0 8b3f
1.1960809 1.4163518 -1.1468987 1.2161901 -0.8603022 0.33382544 1.7076801 -0.36886322
1.5339398 1.3038763 -0.3884896 1.4320854 -0.08015513 -1.108298 1.0759689 -0.16699775
-0.15364814 1.0881581 -1.0536739 -1.1835796 0.71803164 0.97214836 -0.62917817 0.329403
-0.6167479 0.8971083 0.6325556 -1.1185462 0.9300119 0.95324266 0.8585726 0.21720214
1.3323296 1.0312715 -1.2737948 1.2490947 0.3302573 -0.51905346 -0.85351956 -1.1321231
-0.6679527 0.32545343 -1.1602346 0.64005667 -0.663903 0.91395897 0.45005846 -1.143274
1.5921975 1.0918001

adv.weight f4 [10, 50]
00000000: 114a 053f b864 333e b054 0cbf 3986 62bd
00000010: b16d d2bf a3d5 65bf 76d0 103f 19e0 fcbe
00000020: 4119 623e dc50 a43d 738a e5be c47d f93e
00000030: 8ca0 0b3d 2be6 44bf dff5 583c b880 aebd
00000040: e500 0a3d 82d3 873e 9e93 64bf 5ca5 7fbf
00000050: 4a54 eebd 2eab 163e 0d12 a7bf be3e 833e
00000060: 5d06 bebe e3ac 133f 4769 44be 237b 87bf
00000070: 876a bd3e 30a9 ba3e e483 473e e271 bdbe
00000080: 2c33 a2bf a900 efbf 04eb 8bbf 13b8 033f
00000090: f140 f03e 130a 02bf 5390 d3be f7b4 97bf
000000a0: 1a58 d4bf d0f0 89bd 2994 bcbf 6094 9cbe
000000b0: b6db a9be da98 a3bf 4a43 7abe 27ed 17bf
000000c0: 76e9 24bd 86b1 c03c 86a3 3f3e ac05 1c3f
000000d0: 7067 6ebf ccae 423e 0fdc b1bf f00a 53bf
000000e0: 9216 52be e81d 8fbc f0ef bc3e 6399 aa3e
000000f0: d9fa 843e a0f9 ba3e 8508 663d f6eb 27bf
00000100: 36e9 91bf c932 1bbf 7a6b 713e dcb1 453f
00000110: 4d5e 07bf c6c6 4dbf c766 91bf 6f7f ae3e
00000120: f390 65bd 972d 043e 8d4f 9fbf 46d7 b23d
00000130: 1a13 edbe 8239 12c0 016f 203e e0a0 03be
00000140: 182c 243f 9263 3ebf c869 8dbf ff2a 3bbf
00000150: 6218 c8bf 6ecf 2d3f e960 a53d 515b efbe
00000160: 0e22 26bf 2442 31bf 6e03 bfbf d6f6 143f
00000170: d3d8 d0bf b262 20bf eeac 3abf 24c9 d1bf
00000180: 1492 19be 0acc a9bf 32b2 df3e 6a32 f13d
00000190: 1a45 ff3e 9b31 85be 080e 10bf eb3a 4dbe
000001a0: 8898 96bf 0f47 00bd 585e 923b 32d0 40be
000001b0: 0831 a3bd 648d 893e a53c 4bbf e47c 1f3f
000001c0: 6aa3 8bbe 7275 a4bf 320b 28bf d0c8 4dbe
000001d0: c095 32bf 5aa6 933e 8349 48bf 7205 d4be
000001e0: 82c2 33bc f86e 4abb 1a7a 29bf 05a8 423e
000001f0: 97cc 85bf 29c6 be3e ecd0 c7be 85f4 d9bf
00000200: 2755 2a3e 6906 9d3e 0b60 d93e 37ee f9be
00000210: da7b 86bf 037a 2cbf cd9a a1bf be6a 523b
00000220: 3de1 143e d3b1 fbbd 8ec2 1abf 4ec1 c1bf
00000230: 1903 54bf ba2c e23d fd23 e5bf 1a0f 1e3e
00000240: c404 19bf f640 92bf be23 b33d 3688 5dbf
00000250: 7f53 7d3e 143c 6e3e fd86 383d 3433 8f3e
00000260: 8194 0fbf 8558 72be 9f83 80bf 3ec3 14be
00000270: 19e0 f13e a6f7 0abf 9cb6 e53e 1f39 5bbe
00000280: 049b 0abf 1a7d 3cbd 7d00 fdbd c929 25bf
00000290: 819d b1be 7fe5 eebe bf8f afbe 97f0 bebd
000002a0: a021 8dbf 645c 16bf c13d bbbe 3fd2 8e3c
000002b0: 4b15 29bf 8331 c3bd c1d3 cdbe eda6 953e
000002c0: 8e98 943e 2418 9cbf 0d6f a43c 0208 92bd
000002d0: 4f17 f33e a193 20be 84a6 58bf 141d 15bf
000002e0: 88aa b1bf e7e0 683e 7f8f 96bd 3ec0 f5be
000002f0: 531a 2ebe b0ff 96bf 1569 88bf 80d2 893d
00000300: 93b3 afbf 11ee 893e 315a 15bf 7fee d5be
00000310: b4a7 cc3d f493 4abf 0a55 883d 6541 19be
00000320: b12e 8e3e 6d52 563e c08f efbe 25bd 613d
00000330: 8aa1 97bf d5cc ddbe 773e b73d 94c4 acbe
00000340: acd2 f63d ef6b 233e f755 56bf 5fa5 993d
00000350: 84d4 4fbe 3919 77bf f7ee a0be 67b3 16bf
00000360: ad9a 87be b238 963e d24b 25bf b080 50bf
00000370: 9883 a4be fd2c a33e 4262 69bf 8ad2 5abd
00000380: 8033 0bbf 2137 bd3e fdcc 4abd d077 8bbf
00000390: 54f9 22bc 76cf ef3d 7f40 023e 7fd0 e2be
000003a0: 0410 54bf 4556 08be e2d5 92bf 0351 f93d
000003b0: 7fc8 293d 1962 dfbe eac2 1fbf 5bd5 37bf
000003c0: 1ca1 8abf 0076 4cbd afdf 8ebf 783d 5c3e
000003d0: ec8f bdbe 274d 56bf 4571 debd 43e6 80bf
000003e0: 5c61 fe3b 831a 51bd 26de 903e 0d32 a4bc
000003f0: d168 05bf f942 803e fe81 a0bf 1c22 05bd
0.5206614 0.1751889 -0.5481672 -0.055303786 -1.6439725 -0.8977911 0.56568086 -0.49389723
0.22079946 0.08023235 -0.4483219 0.48728764 0.034088656 -0.7691371 0.013242214 -0.08520645
0.03369226 0.26528555 -0.89287746 -0.99861693 -0.116371706 0.14713737 -1.3052384 0.25633806
-0.3711423 0.5768568 -0.19180785 -1.0584453 0.36995336 0.36457205 0.19483906 -0.37000948
-1.2671866 -1.8672076 -1.0931096 0.5145275 0.46924546 -0.5079662 -0.41321048 -1.1852101
-1.6589386 -0.067353845 -1.4732715 -0.3058195 -0.3317544 -1.2781022 -0.24439731 -0.5934624
-0.04026171 0.02352215 0.18714723 0.60946155 -0.93126583 0.19011992 -1.3895282 -0.82438564
-0.20516422 -0.017470315 0.36901808 0.3332015 0.25972632 0.36518574 0.05616047 -0.6559442
-1.1399295 -0.60624367 0.23576155 0.77224517 -0.52878267 -0.8038143 -1.135949 0.340816
-0.056046437 0.12908016 -1.2446152 0.087324664 -0.46303636 -2.28476 0.15667345 -0.12854338
0.6412978 -0.7437068 -1.1047907 -0.7311248 -1.5632441 0.6789464 0.08075125 -0.46749356
-0.64895713 -0.6924155 -1.4922922 0.5818914 -1.631617 -0.626506 -0.7292012 -1.6389508
-0.1499713 -1.3265393 0.4369064 0.11777194 0.49857408 -0.26014408 -0.5627141 -0.20042007
-1.1765299 -0.031317767 0.004466813 -0.1882942 -0.07968336 0.26865685 -0.7938941 0.6229994
-0.27273113 -1.2848341 -0.6564208 -0.20096135 -0.6975975 0.28837854 -0.7823717 -0.41410404
-0.010971667 -0.0030888896 -0.6620194 0.19009407 -1.0453061 0.3726056 -0.39026582 -1.7027746
0.16634046 0.30668953 0.42456087 -0.48814556 -1.0506546 -0.67373675 -1.2625366 0.003210708
0.14539047 -0.12289777 -0.60453117 -1.5137117 -0.82817227 0.11043687 -1.7901608 0.15435448
-0.59772897 -1.1426075 0.08747052 -0.86535966 0.24738882 0.23265105 0.04505061 0.27968752
-0.56085974 -0.2366658 -1.0040168 -0.14527604 0.47241285 -0.5428413 0.44865882 -0.21408509
-0.54142785 -0.046017744 -0.12353609 -0.64516884 -0.34690478 -0.46659467 -0.34289357 -0.093232326
-1.1025887 -0.58734727 -0.36570552 0.017434238 -0.66048115 -0.09530928 -0.40200618 0.29228917
0.2902264 -1.2194867 0.020072484 -0.071304336 0.4747872 -0.15681316 -0.8462908 -0.58247495
-1.3880167 0.22742043 -0.073515885 -0.47998232 -0.1700223 -1.179678 -1.0657068 0.06729603
-1.3726677 0.26939443 -0.58340746 -0.4178352 0.09992924 -0.7913201 0.06656845 -0.14966352
0.27769998 0.2092988 -0.4678936 0.055112023 -1.1846173 -0.43320337 0.08947461 -0.33743727
0.12051901 0.15959142 -0.8372492 0.07502245 -0.20295912 -0.9652286 -0.31432316 -0.58867496
-0.26485196 0.2934013 -0.6456882 -0.8144636 -0.32131648 0.3187026 -0.91165555 -0.053423442
-0.5437546 0.36956123 -0.0495119 -1.0895939 -0.00994714 0.11709492 0.12719916 -0.44299695
-0.8283694 -0.13314159 -1.1471522 0.12173655 0.041450974 -0.4362953 -0.6240679 -0.7180993
-1.0830417 -0.04991722 -1.1162013 0.21507823 -0.37023866 -0.83711475 -0.10861448 -1.007027
0.007763071 -0.051050674 0.28294486 -0.020043397 -0.5211306 0.25051096 -1.253967 -0.032503232

adv.bias f4 [10]
00000000: 4e28 e1bc 9906 b43e a34c 6b3e bba8 d0bb
00000010: 75a6 cfbd fe8c ef39 c8ea ca3d cee2 5ebd
00000020: d57f 9d3d 4542 77bf
-0.02748504 0.35161284 0.22978453 -0.0063677705 -0.10139171 0.0004569068 0.09908062 -0.054415517
0.07690398 -0.96585494

val.weight f4 [1, 50]
00000000: 83ec a63f 006c db3f 1034 12c0 0323 8c3f
00000010: a188 33c0 7e15 ebbe f9a9 b53f 25ad 32bf
00000020: c7ae bd3f d0ab 723f 7b48 9dbf 8224 de3f
00000030: d21f ae3e 4c3f d6bf 2140 b5be b0d4 00bf
00000040: 931c b6bf 02de 843f 4b32 17c0 e1de cbbf
00000050: d328 b3bf 4ecb c43f 908e 03c0 2b8d d13e
00000060: 19d6 c5bf c50e ad3f dc9a ac3e 0cc1 67c0
00000070: bbbd 603f 1205 823f 3509 ac3f 2b6c 6abf
00000080: 12bc e2bf e192 b3bf 2bbb 5fc0 0b86 cf3f
00000090: b287 4b3f 4eb4 6ebf 2f8e b2bf c7d0 34c0
000000a0: e9cb 29c0 1a8f 943f 92bb 55c0 fdae 693e
000000b0: dbb9 96bf 2634 f8bf f353 0b3f f436 b4bf
000000c0: ba4b bc3f 8198 163f
1.3040928 1.7142334 -2.2844276 1.0948185 -2.8052142 -0.45914835 1.4192497 -0.6979545
1.4818963 0.94793415 -1.2287744 1.7354891 0.34008652 -1.6738067 -0.3540049 -0.50324535
-1.422747 1.0380251 -2.3624446 -1.5927392 -1.3996834 1.5374544 -2.0555763 0.40928015
-1.5455962 1.3520132 0.33711898 -3.6211576 0.87789506 1.0157797 1.344031 -0.915713
-1.7713645 -1.4029199 -3.4957988 1.6212782 0.7950393 -0.93243873 -1.3949641 -2.8252428
-2.6530707 1.1606171 -3.3395734 0.22820659 -1.1775469 -1.9390914 0.5442497 -1.407927
1.471061 0.5882645
