models/V1_TOKYO_11_52_31_161.pt (torch_old, 4167 bytes, 5 tensors)

fc1.weight f4 [50, 4]
00000000: 243f 0e40 6604 81c0 bf4a f940 c685 76bf
00000010: 4d11 0d3f eab0 10c0 5868 d43e 9722 8dbe
00000020: 55f2 ac40 e7c6 c83f 7891 f23f e7fa b8bf
00000030: d860 9140 c83f b4c0 3e0d 99be 574f d6bd
00000040: a21f f3bf 5421 c4bf 0669 08c0 529a cbbf
00000050: a25e 373d cd00 fdbc ccfe 8140 e9a1 c73e
00000060: 03e2 4140 8456 82bf faeb 91bf dde3 553f
00000070: e2cb ccbf b13e 27c0 ff55 0e40 9859 94c0
00000080: 7712 eb3f 671d 2440 b653 73c0 5041 123f
00000090: fb1e be3f 982b e83f a0e9 8c3f 8573 27c0
000000a0: 4977 533e 0aac 1fbf f2e8 83c0 7cde 0140
000000b0: 747b 93c0 28d1 5140 39c5 02bf 55ef e440
000000c0: 295d 9e40 55d6 2640 3280 0440 c266 77bf
000000d0: 8441 97c0 7699 0bbc c485 1340 d04e 19c0
000000e0: 35c2 ddbf 91c5 0dbf cb5b 0d40 5c6b 0440
000000f0: 6ba8 c9bf 83ff b9bd 229f 22c0 54d9 47bf
00000100: d2df ed3f 1539 4b40 f5dd bc3f cb83 6e3d
00000110: bde2 bc40 f34c 613f 2587 3e40 b74b fb3e
00000120: 3775 6dbf 5bf6 4540 ae42 74c0 4fa9 04bf
00000130: 7d24 c2c0 7a86 07be 4124 18c0 13d3 c83f
00000140: d7bd df3f 28eb 1b40 78d2 70c0 daa0 4ebf
00000150: e41c c5bf 170c 44bf 970a d8bf 9887 3b40
00000160: 6645 003e 131a 0d40 b135 aebf 2dcb f4be
00000170: 1692 053e c95e 37be cd6e 6dbf 4728 35c0
00000180: d149 cb3f 9ca4 fabf 9f13 46c0 e800 25bf
00000190: c6b3 883f 8ee6 ed3f db30 73bf 41ec 4e40
000001a0: bee3 7240 bd15 cbbe 0543 8b3f f403 6240
000001b0: 551c 8e3e 52e1 57c0 7c00 b43f bacf 38c0
000001c0: 7d5a f03f a8be e03e a284 6fbf 3658 0440
000001d0: 27b5 5cbf 307f f8bf 3243 4fc0 c9ec 1d40
000001e0: c8ac a2bf c5e5 f93f e993 0f40 a4ce 6ac0
000001f0: 6ebf 98bf df29 f53f 1101 8340 ef8d 28bf
00000200: bd3b 763d 390e 5440 287a 8bbe a801 b33f
00000210: fcc6 a53f c203 bcbf fc00 003f 6cf7 933e
00000220: 4762 7ac0 2cad c7bf de12 1c3f c061 e1bf
00000230: 0003 22c0 33dc fd3f ee17 1640 93d5 6b3f
00000240: cf9f 2fbf 75dc 043f 1916 e0bf de7b fa3f
00000250: e823 2fbf ff88 80bf 57d5 85c0 b257 32bf
00000260: e2a9 7a3e 25ca b33f 5df5 a7bf b75a 29c0
00000270: 48b0 ab40 5917 53bf fc69 643f 26f6 5fbe
00000280: fb76 be3f b25a e6bf fb0f 123f d5cb b2be
00000290: ad48 8940 3073 9840 816c 693f 781e 4b40
000002a0: 24f9 c2c0 997a 25bf d6b2 acbd d225 3a40
000002b0: 332b f3bf 2891 fe3f 256a 0440 fbe2 d13f
000002c0: cbf2 90c0 fafa 3040 5960 0ac0 a278 1dbf
000002d0: 9db5 a840 6fff 0b3f a43d e4bf d66a a5bd
000002e0: 4e86 0240 2b58 8c40 cbd9 4fc0 755a 6040
000002f0: 5353 e4c0 58cc 67c0 1f75 8dbf ce3e 8dc0
00000300: 40a8 d73f 3111 afbe 5774 82bf 0afd 2340
00000310: 6cc0 0ac0 2a15 88bf ada3 b83c 9703 35c0
2.2226038 -4.031787 7.7903743 -0.9629787 0.55104524 -2.260798 0.41485858 -0.27565452
5.4045815 1.56857 1.8950644 -1.4451569 4.5430717 -5.632786 -0.29892915 -0.104643516
-1.8994029 -1.5322671 -2.1314101 -1.590647 0.044767983 -0.03088417 4.062353 0.38990715
3.0294197 -1.0182652 -1.1400139 0.83550817 -1.599972 -2.6132014 2.2239988 -4.6359367
1.836501 2.5642946 -3.8019843 0.5713091 1.4853204 1.8138304 1.1008797 -2.6164258
0.20650972 -0.62371886 -4.1221857 2.0292044 -4.60882 3.278391 -0.5108219 7.1542153
4.948872 2.6068318 2.0703244 -0.9664117 -4.7267475 -0.008520475 2.3050394 -2.3954353
-1.7324892 -0.5537959 2.2087276 2.0690527 -1.5754522 -0.09081938 -2.5409627 -0.7806599
1.858393 3.175359 1.4755236 0.058231156 5.902678 0.8800804 2.9769986 0.49081203
-0.9275698 3.0931613 -3.8165698 -0.51820844 -6.066954 -0.13234892 -2.3772128 1.5689415
1.747981 2.4362278 -3.762846 -0.8071419 -1.5399442 -0.7658095 -1.6878232 2.930151
0.12526473 2.2047164 -1.3610135 -0.4781126 0.13044009 -0.17907251 -0.92747194 -2.8305833
1.5881902 -1.9581485 -3.0949476 -0.6445451 1.0679862 1.8585985 -0.9499642 3.2331698
3.7951503 -0.39665022 1.0879828 3.5314913 0.2775599 -3.3731275 1.4062648 -2.8876786
1.8777615 0.4389546 -0.93561757 2.067884 -0.86213917 -1.9413815 -3.2384763 2.4675772
-1.2708979 1.9523245 2.2434027 -3.6688623 -1.193342 1.9153403 4.09388 -0.65841573
0.060115565 3.313368 -0.27241635 1.398488 1.295135 -1.4688647 0.500015 0.28899705
-3.9122484 -1.5599723 0.6096629 -1.7607956 -2.531433 1.9832824 2.3452106 0.92122763
-0.68603224 0.5189889 -1.7506744 1.9569051 -0.68414164 -1.0041808 -4.1822925 -0.6966506
0.24478868 1.4046065 -1.3121754 -2.6461618 5.3652687 -0.824575 0.8922422 -0.21871242
1.488006 -1.7996428 0.57055634 -0.34921136 4.2901216 4.764061 0.9118119 3.1737347
-6.0929127 -0.64640194 -0.08432548 2.9085584 -1.8997558 1.9888048 2.0689785 1.6397394
-4.529638 2.7653184 -2.1621306 -0.61512196 5.2721696 0.54686636 -1.7831311 -0.08077018
2.0394473 4.3857627 -3.247668 3.505521 -7.1351714 -3.6218472 -1.1051368 -4.4139166
1.6848221 -0.34192804 -1.0191754 2.5623193 -2.1679945 -1.0631459 0.022538984 -2.828344

fc1.bias f4 [50]
00000000: f9ac d8bf 9ea0 b1c0 5e49 3dbf 9006 ca3e
00000010: 72b5 bb3f 6f3d 4840 1f28 a8bf 2a69 52c0
00000020: 8824 633f 2f4b d43f 1b8f c83e fc6f 06bd
00000030: 8984 5cc0 83d8 75c0 b9da 8940 788a 23c0
00000040: d5b4 4e40 c332 0ac0 8782 a53f 99f9 0540
00000050: f017 febf e060 5140 fd53 0c40 4fb4 473f
00000060: 25db 463f c6ee 0440 4304 653f 35b7 61bf
00000070: 7cb7 48bf 70e4 38c0 1df8 9a40 1f27 733f
00000080: 2222 24c0 5be9 8340 94c2 97bf f3da a33f
00000090: 3306 eebf b3fb c840 fd7c 31c0 63d3 713e
000000a0: 9229 57c0 0550 f53c 9b95 1740 fcec 32c0
000000b0: 6721 5a3f 8fe5 95c0 48d1 72bf e46d 84c0
000000c0: b296 373f 66d9 b1c0
-1.6927787 -5.5508566 -0.73940074 0.39458132 1.4664748 3.1287496 -1.3137244 -3.2876687
0.8872762 1.6585444 0.3917168 -0.03282164 -3.4455893 -3.8413398 4.3079495 -2.5553265
3.229787 -2.1593482 1.2930459 2.0933592 -1.9851055 3.2715378 2.1926262 0.78009504
0.7767814 2.0770736 0.8945963 -0.88170177 -0.78404975 -2.8889427 4.8427873 0.9498157
-2.5645833 4.122236 -1.1856256 1.2801193 -1.8595642 6.280725 -2.7732537 0.23615794
-3.3619123 0.029945383 2.3685062 -2.7957144 0.8520722 -4.6842723 -0.9485059 -4.1384144
0.7171432 -5.557788

adv.weight f4 [10, 50]
00000000: a29c 0740 0fbe ff3f 7075 7b3f ef54 1240
00000010: d825 43c0 0f9a 51bd 86b9 99bf 54cf 5340
00000020: 00a0 3c40 c371 42c0 93c7 473f d397 89bf
00000030: 2540 de3f 064e bb3f 87a6 f9bf 50e2 bfbf
00000040: a7d1 b43f 1a70 86c0 e24c 9a3f bd03 24bf
00000050: 784f abc0 3cd1 2040 a3ba 5b40 2642 5d3f
00000060: 20de 66c0 88f1 353f 8888 3ec0 4a57 23c0
00000070: 108e 803f 9459 f6bb d2a8 0640 0deb c93e
00000080: 88d3 683f c275 7bc0 e734 e63e b657 fb3e
00000090: a964 8840 75aa 3bbe fe05 a2c0 d59f 0e40
000000a0: b23c f23e f64d 463f 9124 5bbf 37c3 00c0
000000b0: 21d1 89c0 fcd8 0740 b484 a0c0 b48b c93f
000000c0: 81f2 2340 f015 a740 5c60 85bf 0333 9cbf
000000d0: f6d5 0cc0 998d ba3d b4aa 30bd c744 c83f
000000e0: 0dd2 7840 d4eb 12c0 adf8 d43e 4fd1 8a3f
000000f0: e61f e33f 74f1 9c3f a698 95c0 6f98 3b3f
00000100: 9357 c53f 25db d83f 9d63 aa3f f485 70bf
00000110: 3a9d 40c0 89b3 403e 57e6 4540 6b7a 40c0
00000120: 52d1 fd3f 0c94 3f3e 0bf2 023f b96e 2ebf
00000130: b494 60c0 0675 813e 3b26 f4be 2569 2fbe
00000140: c5f5 6cbe c8c0 3c40 9673 9b40 6f6b 62c0
00000150: 4c0e e43d e41a 86c0 e337 1e40 b10f 32bf
00000160: e4d0 093f 5b7f 8840 09f1 3dc0 4c4a ab3f
00000170: 06cc 88bf 80cb 793f 0493 9e3f 2ebc a4be
00000180: f2d5 9fbf ece0 efbc 20ac 3f40 55fd f0bf
00000190: 9445 123e 20c2 803f f0d0 07bf c1f2 9a3f
000001a0: 3832 7340 db61 44c0 7b78 21bf 2a49 0dc0
000001b0: 2419 8b40 917a c8bf fcb3 90c0 f315 65be
000001c0: 9c31 bebf 0cc1 8d40 424c 95be 02c3 a440
000001d0: f1ce 2040 75f0 0a3e 5701 f3c0 61c0 a2bf
000001e0: 073f 893f 2ccf e7bf 8846 2a3f 613e ae3f
000001f0: 246d 77c0 6e8e e13f 567f f63f 7aac 48bf
00000200: 517b 7e3e c543 5f3f 33a6 563f 105a e83f
00000210: c41a a23f a7e6 3dc0 0d41 79c0 fe6a 44c0
00000220: 733d 3840 1256 2140 8a01 90c0 8ba1 8cbe
00000230: 763d 5cbe 443f 87bf 0846 883f a5f9 98bf
00000240: 2732 923f c3a4 a33f 2726 47bf cccd fcbf
00000250: ff1c 1740 39d0 ad40 c2ef 32c0 8c95 efbf
00000260: a1ac 51bf 1a40 5bbf 73d9 11c0 ddbb 8c3f
00000270: 625a 5b40 8653 8cbf eea8 1740 d17d 6dbe
00000280: 326e 8940 6846 0a40 3f04 aabf 9489 813f
00000290: 880a 7a40 22e8 b53f 8c41 f6bf ac5f 48bf
000002a0: 2275 0940 ced2 60c0 ced2 09c0 dbf2 293f
000002b0: 1ddc dbbf 8f00 79bf f121 77c0 c3ae 1ac0
000002c0: 9e92 4040 d70b 14c0 e16b 04c0 c19b 14bf
000002d0: 2aad 0240 d63f c4bf 34cf 29bf 9cd7 3ac0
000002e0: 7b15 1d40 fe11 6440 d49c 813d cc4e 0040
000002f0: 6694 0ebf 6b42 59bf 624b d13f 6b20 6fbf
00000300: edbc c3c0 de40 6940 137a 2ec0 558c c23f
00000310: 700d 82c0 5cc4 fa3f c3a2 8ebf 7467 353f
00000320: 834a 94bf 8515 babf 18fe 6ac0 7f7a 71bd
00000330: 28d7 b9c0 3069 b2bf dcd7 df3f f711 0b40
00000340: 078a 6e3f 4afb 9e3f 08c0 b4be 269d 16c0
00000350: 0e84 7bbe ce24 483e b153 4ec0 bfc7 3740
00000360: 107b 1b40 1ecf f8bf 57cb edbf 7cdd a340
00000370: 0ede 9d3f 6354 2d40 959e e63f 8eff 22c0
00000380: 8c56 cc40 9afb b8be 0a3f 093f 8731 ce3f
00000390: a493 173e 12a2 0540 108d 4240 a553 963f
000003a0: 9146 2840 7179 0140 b379 1940 50ee 42c0
000003b0: f9f6 2a40 34d5 c4c0 68b8 90bf e759 5240
000003c0: 9479 3bc0 2d72 f63f ac8f aebf 38ed c8bf
000003d0: 4604 cf3f 22ed a7c0 9a63 71bf 73be e8bf
000003e0: 9ab0 54c0 5c94 8b3f 0426 1fc0 498c 1240
000003f0: 5166 3f40 e4a2 f0bf b3cb bbbf b194 0cc0
2.118935 1.9979876 0.9822607 2.286434 -3.0491848 -0.051172312 -1.2009742 3.3095293
2.9472656 -3.0381935 0.780389 -1.0749458 1.7363325 1.4633186 -1.9503945 -1.499094
1.4126481 -4.2011843 1.2054713 -0.64068204 -5.353451 2.5127707 3.4332664 0.8642906
-3.6073074 0.7107167 -2.9770832 -2.5522027 1.0043354 -0.0075180028 2.104054 0.39437142
0.9094777 -3.9290624 0.44962236 0.49090356 4.2622876 -0.18326743 -5.0632315 2.2285054
0.47311932 0.7746271 -0.8560267 -2.011915 -4.3067784 2.1226187 -5.016199 1.5745759
2.5616763 5.221428 -1.0420032 -1.2203068 -2.2005591 0.09109039 -0.043131545 1.5645989
3.8878205 -2.2956438 0.41595975 1.0845126 1.774411 1.2261186 -4.674884 0.7327947
1.541735 1.6941878 1.331165 -0.93954396 -3.0095963 0.18818487 3.0921838 -3.0074718
1.9829504 0.18708819 0.5115058 -0.681377 -3.509076 0.25284594 -0.47685418 -0.17129953
-0.23140629 2.9492664 4.8578596 -3.5378072 0.111355394 -4.1907825 2.472161 -0.69555193
0.53834367 4.2655463 -2.9678366 1.3382049 -1.0687263 0.9757614 1.2388616 -0.3217482
-1.2487166 -0.029282056 2.9948807 -1.8827311 0.14284354 1.0059242 -0.5305319 1.2105333
3.79994 -3.0684726 -0.63074464 -2.2075906 4.346819 -1.5662404 -4.5219707 -0.22371654
-1.485889 4.4298153 -0.29159743 5.1488047 2.5126307 0.1356829 -7.5939136 -1.2714959
1.072236 -1.8110099 0.6651387 1.3612787 -3.8660364 1.7621591 1.925761 -0.7838818
0.24851729 0.87212783 0.8384735 1.8152485 1.2664418 -2.967203 -3.8945954 -3.0690303
2.8787506 2.5208783 -4.500188 -0.27466998 -0.2150782 -1.0566182 1.0646372 -1.1951185
1.1421555 1.2784656 -0.7779259 -1.9750304 2.3611448 5.431668 -2.7958837 -1.8717513
-0.81904036 -0.85644686 -2.278897 1.0994831 3.4273915 -1.0962989 2.3696856 -0.23192526
4.2947016 2.1605473 -1.3282546 1.012011 3.9068928 1.4211466 -1.9238753 -0.78270984
2.1477742 -3.5128665 -2.1534915 0.66386193 -1.7176548 -0.9726648 -3.8614466 -2.4169166
3.0089488 -2.3132226 -2.0690844 -0.5805016 2.041819 -1.5331981 -0.6633179 -2.9194098
2.454436 3.5635982 0.06328741 2.0048094 -0.5569519 -0.8486697 1.635113 -0.9340884
-6.116812 3.6445842 -2.7262008 1.5199076 -4.0641403 1.9591174 -1.1143421 0.7086098
-1.1585239 -1.4537817 -3.6717587 -0.058954712 -5.807514 -1.3938351 1.748775 2.1729715
0.93179363 1.2420437 -0.35302758 -2.3533416 -0.24562094 0.1954529 -3.223858 2.8715665
2.4293861 -1.9438207 -1.8577679 5.1207867 1.2333391 2.7082756 1.8017145 -2.5468478
6.385565 -0.36129457 0.53611815 1.6108865 0.14802414 2.088017 3.0398598 1.1744276
2.629307 2.0230372 2.398053 -3.0457954 2.671324 -6.151026 -1.1306276 3.2867372
-2.9292955 1.9253594 -1.3637595 -1.5697393 1.6173179 -5.247697 -0.94292605 -1.818312
-3.323279 1.0904651 -2.4866953 2.2898123 2.99062 -1.879971 -1.4671539 -2.1965754

adv.bias f4 [10]
00000000: 3d25 873e fb28 7440 a0d3 6ac0 1259 cc3f
00000010: a2cb 1940 445f 473f 2cd4 c53e 6d63 13c0
00000020: 16b1 c0bf 172b f9bf
0.26395598 3.8150012 -3.6691666 1.5964682 2.4030538 0.7787974 0.38638437 -2.3029435
-1.5054042 -1.9466275

val.weight f4 [1, 50]
00000000: eb59 4240 bf0a b7bf ba07 40be 25eb c6bf
00000010: 5d76 03c0 cd9e 4ebe 7045 a6c0 6004 83be
00000020: e832 883f 0a87 7040 0c49 86bf 1379 2d3f
00000030: 5a6e 86c0 42ca 5dbf 7235 2bbf 64c7 4cbf
00000040: 64de a7bf a953 2440 784d 97bf db41 70bf
00000050: 5b6c 0e40 c7d2 3340 e89d d93f f0ec 75bf
00000060: 051a 4ebf ece2 9240 0774 5140 540a bfbf
00000070: 8e01 04c0 0293 0340 41ff 7f3e a5b9 0e40
00000080: 57ff 3c3f 3786 a93f 8296 02c1 08a7 723f
00000090: 66bc 753f 2ef6 8840 c8f8 3cbe fd57 3c40
000000a0: 0e3e cf3f fb6a 0fc1 6626 9cbf 4cc4 df3f
000000b0: e4a6 11c0 0c54 3b40 d2e1 a2bf d37f 73c0
000000c0: 3f27 b03f 04e0 cebf
3.0367382 -1.4300154 -0.18752947 -1.554051 -2.0540993 -0.20177765 -5.1959763 -0.25589275
1.0640535 3.7582421 -1.0491042 0.6776287 -4.2009706 -0.86636746 -0.66878426 -0.79991746
-1.3114743 2.5676062 -1.1820517 -0.9385049 2.2253635 2.8097398 1.7001314 -0.9606466
-0.8050845 4.5902004 3.2727067 -1.4925027 -2.062595 2.0558476 0.24999715 2.2300808
0.7382712 1.3244084 -8.161745 0.9478612 0.959906 4.280051 -0.18454278 2.9428704
1.6190813 -8.963618 -1.2199218 1.748178 -2.2758112 2.9270048 -1.2725165 -3.8046768
1.3761977 -1.6162114
