models/V1_TOKYO_10_24_51_161.pt (torch_old, 4167 bytes, 5 tensors)

fc1.weight f4 [50, 4]
0	0x3ecefbdc	0.40426528
1	0x3ec48930	0.38385916
2	0x3f85d571	1.0455762
3	0xbf630acc	-0.8868835
4	0x3e93ebe4	0.28890908
5	0x3eb1ffd8	0.34765506
6	0x3d1002a0	0.035158753
7	0x3f08ef46	0.534901
8	0xbe00e498	-0.12587202
9	0x3f95f011	1.1713887
10	0x3d9c6a40	0.07637453
11	0xbf81879d	-1.0119511
12	0x3f969133	1.1763061
13	0xbf48bf46	-0.7841686
14	0xbf93c37a	-1.154403
15	0x3ec57cec	0.3857187
16	0xbf0e4f80	-0.5559006
17	0x3ddaff60	0.1069324
18	0x3dfbf590	0.12302697
19	0x3ea97174	0.3309437
20	0xbdd72e40	-0.10506868
21	0xbf649af9	-0.8929897
22	0x3f3301d2	0.6992465
23	0x3ef13b20	0.4711542
24	0x3f962ded	1.1732765
25	0x3cf5a140	0.029984117
26	0xbf318a21	-0.69351393
27	0x3e3b9f70	0.1832254
28	0xbf8341d4	-1.0254464
29	0x3f532b76	0.8248819
30	0xbe9b2d7c	-0.3030814
31	0xbf22f96c	-0.6366184
32	0x3f4de886	0.8043293
33	0x3e073b90	0.13206315
34	0x3f4cad96	0.7995237
35	0xbe977e64	-0.29588616
36	0xbda5c360	-0.080939054
37	0xbf8d071d	-1.1017796
38	0x3ec32af0	0.38118696
39	0xbf9876fe	-1.1911314
40	0xbf9c6c0f	-1.2220477
41	0x3e95fdcc	0.29295194
42	0x3edde8e0	0.43341732
43	0xbeb68a8c	-0.35652578
44	0xbe8532de	-0.2601537
45	0x3f998bbf	1.1995772
46	0x3f231576	0.6370462
47	0x3f2df52c	0.6795223
48	0x3f7feff6	0.99975526
49	0xbe0d9150	-0.13824964
50	0x3f2bf3c4	0.6716883
51	0x3f8d1dfd	1.1024777
52	0xbf8f9581	-1.12175
53	0x3f1315fc	0.5745542
54	0x3f58699e	0.8453616
55	0xbf8a3932	-1.0798705
56	0x3f79b8c6	0.97547567
57	0xbf11a9b9	-0.568996
58	0x3f9ae5df	1.2101401
59	0x3ea5b6fc	0.32366168
60	0xbe1c54d8	-0.1526674
61	0xbe9f0808	-0.31060815
62	0xbeb2456c	-0.3481859
63	0xbf6dc74e	-0.9288224
64	0x3eadedc0	0.3397045
65	0x3f2ffe74	0.6874764
66	0x3f73de06	0.95260656
67	0x3d1354a0	0.035969377
68	0x3f1c272a	0.6099726
69	0x3f121a3e	0.5707129
70	0x3eb846a0	0.35991383
71	0xbee18e44	-0.44053853
72	0xbf967bb2	-1.1756499
73	0x3e82fe04	0.25584424
74	0xbf307069	-0.68921524
75	0x3f3b8dc0	0.7326317
76	0xbf91a497	-1.1378354
77	0x3f09e356	0.5386251
78	0xbf72c71e	-0.9483508
79	0x3f59cb2e	0.8507565
80	0x3ef6e38c	0.4822048
81	0x3f9a5a53	1.2058815
82	0x3f000d1c	0.50020003
83	0xbefd4054	-0.4946314
84	0xbe27f3b8	-0.16401565
85	0x3f84b92b	1.0369009
86	0xbe150d08	-0.14555752
87	0x3f37058e	0.7149285
88	0xbeb69c62	-0.35666186
89	0x3f02c6fe	0.5108489
90	0xbd73f700	-0.05956173
91	0x3f2c67ca	0.6734587
92	0x3f896e71	1.0736829
93	0x3f2c05b4	0.671962
94	0xbf18ad55	-0.59639484
95	0xbf5d31c9	-0.8640409
96	0x3c1c0680	0.009523034
97	0xbf3c9bb6	-0.73675096
98	0xbcefaf00	-0.029258251
99	0xbf93d04b	-1.1547941
100	0x3f115dac	0.56783557
101	0xbe0cc100	-0.13745499
102	0xbf260317	-0.64848465
103	0xbf20cc4c	-0.6281173
104	0x3f69747e	0.9119338
105	0x3f789966	0.9710907
106	0xbf13072b	-0.5743281
107	0xbefe1130	-0.49622488
108	0xbece7950	-0.4032693
109	0xbf83a7bb	-1.0285562
110	0xbf06eec1	-0.5270806
111	0x3e180618	0.14846075
112	0x3f113ba2	0.5673162
113	0x3f2aff0c	0.6679542
114	0xbf28ebd7	-0.65984863
115	0x3f945451	1.1588231
116	0x3f40f308	0.75370836
117	0x3e7de568	0.24794543
118	0xbf382236	-0.719272
119	0x3e1416e0	0.14461851
120	0x3e872d8c	0.26401937
121	0xbdc9ac10	-0.098472714
122	0x3f48303e	0.7819861
123	0xbe0c23e0	-0.1368556
124	0x3e6ff758	0.23434198
125	0x3f95e025	1.1709028
126	0x3f81c191	1.0137197
127	0xbdc12ec0	-0.09432745
128	0x3f87053f	1.0548476
129	0x3f971619	1.1803619
130	0x3f853841	1.0407792
131	0x3f7587c6	0.959103
132	0x3f4dbd0a	0.80366576
133	0xbf063fb6	-0.52440965
134	0x3ef814c4	0.48453343
135	0xbe81dcfa	-0.25363904
136	0xbf74f13c	-0.95680594
137	0xbf101455	-0.56281024
138	0x3e8043c8	0.25051713
139	0xbe9df87c	-0.3085364
140	0x3d938de0	0.07204795
141	0x3f34ef68	0.70677805
142	0x3f826057	1.018565
143	0x3f16dd56	0.5893148
144	0x3e2944e8	0.16530192
145	0xbec24a00	-0.37947083
146	0x3e057f80	0.13036919
147	0x3f427d6a	0.75972617
148	0xbeabb69e	-0.33537763
149	0xbe8368c6	-0.25665873
150	0xbf8de3fd	-1.1085202
151	0x3f400ffa	0.7502438
152	0xbf398f9c	-0.72484756
153	0x3dbcc560	0.09217334
154	0x3e98e764	0.29864037
155	0xbf88c91d	-1.0686375
156	0xbf97cd60	-1.185955
157	0x3e97d13c	0.2965182
158	0x3f59f02e	0.8513211
159	0xbe798904	-0.24368674
160	0xbf80539f	-1.0025519
161	0xbf9c1345	-1.219338
162	0x3e3f27c8	0.18667519
163	0x3f679b3a	0.9047123
164	0xbf49d31c	-0.7883775
165	0x3f0631b6	0.524196
166	0x3e2ea628	0.17055571
167	0x3f66f89e	0.9022311
168	0xbf52a368	-0.8228059
169	0xbef006ca	-0.4688018
170	0x3eeb9824	0.46014512
171	0x3ddd5830	0.10807836
172	0x3f46cdee	0.77657974
173	0x3f770262	0.9648801
174	0x3f72ab6a	0.9479281
175	0x3f3a01ec	0.7265918
176	0xbe531e58	-0.20617044
177	0x3f8e7c27	1.1131638
178	0xbe31a428	-0.17347777
179	0xbf6b13e4	-0.91827226
180	0x3f0e908c	0.5568931
181	0x3f59c25e	0.85062206
182	0xbe472da0	-0.19450998
183	0x3f20584a	0.6263472
184	0x3e8e17c8	0.2775252
185	0xbf887f37	-1.0663823
186	0xbf54fd7e	-0.831993
187	0x3db10600	0.086437225
188	0xbf34fc32	-0.7069732
189	0xbf1a193a	-0.6019474
190	0xbf82bdbf	-1.0214156
191	0xbf44929e	-0.7678622
192	0x3f2e089c	0.67981887
193	0xbf5a526a	-0.85282004
194	0xbf0d9166	-0.55299985
195	0x3efbf278	0.49208426
196	0x3e16cbd8	0.14726198
197	0xbf88ddc2	-1.0692675
198	0xbf6d64c0	-0.9273186
199	0xbf12b220	-0.5730305

fc1.bias f4 [50]
0	0x3e86de16	0.26341313
1	0x3d75b8e0	0.059990764
2	0xbebb2ed2	-0.3655916
3	0x3c11a4c0	0.008889377
4	0xbeca61c0	-0.39527702
5	0xbe93a2a8	-0.28835034
6	0x3eb3542c	0.35025156
7	0x3eda3146	0.42615718
8	0x3eac8274	0.33693278
9	0x3efe68ca	0.49689323
10	0x3ed1a8f4	0.40949214
11	0x3ef9ef68	0.48815465
12	0xbda80e90	-0.082059026
13	0xbdfe8dd8	-0.12429398
14	0x3dec95a0	0.11551976
15	0xbcf06d40	-0.02934897
16	0x3dc62b68	0.09676248
17	0x3ea487fc	0.32134998
18	0xbe09aa88	-0.13443959
19	0xbefd0350	-0.4941659
20	0x3de276e0	0.1105783
21	0xbd4789f0	-0.04871553
22	0xbc858a00	-0.016301155
23	0xbe9cf40a	-0.30654937
24	0x3e226dfc	0.15862268
25	0x3daab0b0	0.08334482
26	0xbe039968	-0.12851489
27	0xbe037dfc	-0.12841028
28	0xbd1afd10	-0.037838995
29	0x3da36778	0.079787195
30	0xbddba998	-0.10725707
31	0x3e203f6c	0.15649194
32	0x3edd706a	0.43249828
33	0x3ea12d5c	0.3147992
34	0x3cc29da0	0.023756802
35	0x3d9a95a0	0.0754807
36	0xbe2d3924	-0.16916329
37	0x3eb9acec	0.3626474
38	0x3ec28952	0.37995392
39	0xbe15e080	-0.14636421
40	0x3db385c0	0.08765745
41	0xbeeb0848	-0.45904756
42	0x3d84cb08	0.06484038
43	0xbe235ce0	-0.15953398
44	0x3dc40170	0.09570587
45	0xbebb749c	-0.36612403
46	0xbdf9f510	-0.12204945
47	0xbe1e161c	-0.15438122
48	0x3ee78b52	0.4522348
49	0x3ebefdda	0.37303048

adv.weight f4 [10, 50]
0	0x3ddd8e98	0.10818213
1	0xbe45160a	-0.19246688
2	0x3e80a84d	0.25128403
3	0xbe4697cc	-0.19393843
4	0xbe83653f	-0.25663182
5	0xbe59e766	-0.21279678
6	0x3df15330	0.11783445
7	0xbe8d20d0	-0.27564096
8	0xbe53e3ee	-0.20692417
9	0xbc839c70	-0.016065806
10	0x3e6e16e6	0.23250923
11	0x3d2eb788	0.042655498
12	0xbdab053e	-0.08350609
13	0xbd2512b0	-0.040301025
14	0x3e902869	0.2815583
15	0x3ddbc518	0.10730952
16	0x3e5f3f56	0.21801504
17	0xbd17a5b0	-0.037023246
18	0x3e8705a7	0.263715
19	0x3e9c4087	0.3051798
20	0x3e663dfe	0.22484586
21	0xbdf9153c	-0.12162253
22	0xbe0a15d6	-0.13484892
23	0x3e2409d8	0.1601938
24	0xbd9e89b2	-0.07741107
25	0x3e9ad3a9	0.3023961
26	0xbe6271f4	-0.22113782
27	0x3d0b8050	0.034057915
28	0x3e3ec1de	0.18628642
29	0x3d8f7720	0.07005143
30	0xbdf3e5ac	-0.11909041
31	0xbe5c1d2e	-0.21495506
32	0xbe2136c2	-0.15743545
33	0xbe36d9ad	-0.17856474
34	0x3c3528c0	0.011057079
35	0xbe7eaeea	-0.24871412
36	0x3ea18d53	0.31553134
37	0xbd726a00	-0.05918312
38	0xbe1d4753	-0.1535924
39	0xbd832310	-0.06403172
40	0x3cdc1a20	0.026867926
41	0x3e4ba2ba	0.19886294
42	0xbe39396d	-0.18088312
43	0xbe26adfc	-0.16277307
44	0xbde643be	-0.112433895
45	0xbdb93a82	-0.090443626
46	0xbe0d7fe6	-0.1381832
47	0xbe6dc39c	-0.2321915
48	0xbe7de456	-0.24794134
49	0x3cb73be0	0.022367418
50	0xbe5c6310	-0.21522164
51	0x3c6d92e0	0.01450035
52	0x3e986881	0.2976723
53	0xbc965800	-0.018352509
54	0xbdcd9c68	-0.10039598
55	0x3cf076d0	0.02935353
56	0xbe9e7ff5	-0.30956998
57	0x3d3375b8	0.043813437
58	0xbe103c79	-0.14085568
59	0x3e748bba	0.23881426
60	0x3e87ec5f	0.26547524
61	0xbe402837	-0.18765341
62	0x3cfcb120	0.030846179
63	0xbd616038	-0.055023402
64	0xbe7b8b9a	-0.24564973
65	0xbdf94bbe	-0.1217265
66	0x3e1820f8	0.14856327
67	0x3e9a0da1	0.30088523
68	0x3e714a16	0.23563418
69	0xbdf519bc	-0.11967799
70	0xbe27acf7	-0.16374575
71	0xbe9cd872	-0.30633885
72	0x3e83381d	0.2562875
73	0x3e60d392	0.21955708
74	0x3e03f44c	0.1288616
75	0xbdbd3e6e	-0.09240423
76	0xbe8f8335	-0.2802979
77	0x3c8a0e00	0.016852379
78	0x3d25c060	0.040466666
79	0xbd191b88	-0.03737977
80	0x3ea1a96d	0.31574574
81	0xbd742cf8	-0.059613198
82	0x3e852b05	0.26009384
83	0xbc060e00	-0.008182049
84	0x3e5f2c46	0.21794233
85	0x3d4481a8	0.047975212
86	0x3be5bf80	0.007011354
87	0xbe617742	-0.2201815
88	0xbe08617e	-0.1331844
89	0x3d8ae524	0.06781986
90	0xbe7cddfa	-0.24694052
91	0x3e8a142f	0.26968524
92	0xbd65fb20	-0.056147695
93	0x3d50ffd8	0.05102524
94	0xbe7a8356	-0.24464163
95	0xbe1e248c	-0.15443629
96	0xbe8ab833	-0.27093658
97	0xbdc7f57c	-0.09763619
98	0x3e06e430	0.13172984
99	0x3d9cec38	0.07662243
100	0xbde5338c	-0.111914724
101	0xbe9da0e2	-0.30786806
102	0x3e72b3aa	0.23701349
103	0xbe22dddf	-0.1590495
104	0x3d85133c	0.06497809
105	0x3e065fa2	0.13122419
106	0xbdea5074	-0.114411265
107	0x3e16c912	0.1472514
108	0xbe1a3e2a	-0.15062776
109	0x3e9503f9	0.29104593
110	0xbe03510a	-0.12823883
111	0x3e7eba7e	0.24875829
112	0xbd2243f8	-0.0396156
113	0xbe5e534c	-0.21711463
114	0xbd9693ba	-0.07352395
115	0x3e59164a	0.21199909
116	0xbd9551d0	-0.07290995
117	0x3e2e3f16	0.17016253
118	0x3de8e110	0.11371052
119	0x3cf03590	0.029322416
120	0x3a99c200	0.001173079
121	0xbe982a5c	-0.29719818
122	0xbd820454	-0.06348482
123	0x3e509d16	0.20372424
124	0xbe64b19e	-0.2233338
125	0x3e9b6769	0.30352333
126	0xbe54969c	-0.20760578
127	0xbe9f4baa	-0.31112415
128	0x3e42a07a	0.1900653
129	0x3e1527ee	0.14566013
130	0x3dcc6da0	0.09981847
131	0xbda5fc8e	-0.081048116
132	0xbe05c170	-0.13062072
133	0xbe6e515c	-0.23273224
134	0x3e46f3ce	0.19428942
135	0x3c959b80	0.018262625
136	0xbdd81cdc	-0.105523795
137	0x3decf91c	0.11570951
138	0x3b212880	0.002459079
139	0xbe2a44a1	-0.16627742
140	0x3da4a3f0	0.08039081
141	0xbe9da15e	-0.30787176
142	0xbda86046	-0.08221488
143	0x3e960c83	0.2930642
144	0xbddc0c4c	-0.10744533
145	0xbe630be8	-0.2217251
146	0x3e073244	0.13202769
147	0xbdbab3b2	-0.091163054
148	0x3e4e1562	0.20125344
149	0x3ea00665	0.3125488
150	0xbe9f42ca	-0.31105644
151	0x3da015e8	0.07816678
152	0xbd15c658	-0.03656611
153	0xbe9791da	-0.29603463
154	0x3ddcdaf8	0.107839525
155	0xbe28151d	-0.16414304
156	0x3e991b8f	0.29903838
157	0xbd7a5cd0	-0.06112367
158	0x3e58afae	0.21160766
159	0xbe746fdc	-0.23870796
160	0xbc090560	-0.008363098
161	0xbe71e75c	-0.23623413
162	0xbe2d4e25	-0.16924341
163	0x3d1b2178	0.037873715
164	0xbe80053c	-0.25003994
165	0x3b91bc00	0.00444746
166	0x3b959900	0.004565358
167	0xbe763580	-0.24043846
168	0xbe3a230a	-0.18177429
169	0xbdb44166	-0.08801536
170	0x3e8b4339	0.27199724
171	0xbe93782d	-0.28802624
172	0x3e12ae86	0.14324388
173	0xbe3a4e97	-0.18194042
174	0x3dbd1e9c	0.09234354
175	0x3e2ac498	0.16676557
176	0x3e9eedab	0.310407
177	0xbcc46350	-0.023973137
178	0xbca63580	-0.020289183
179	0xbe95f2c1	-0.2928677
180	0x3c492e40	0.012279093
181	0x3ccb1f40	0.024795175
182	0xbe9792d5	-0.2960421
183	0x3d7495e0	0.059713244
184	0xbe7590a0	-0.23980951
185	0xbe4d7c8a	-0.20067039
186	0xbe5891d5	-0.2114938
187	0x3d447cf0	0.047970712
188	0x3e912b2b	0.28353247
189	0xbe557a60	-0.20847464
190	0xbe16c542	-0.14723685
191	0xbe9fc870	-0.3120761
192	0xbe5ec403	-0.2175446
193	0x3cc3e2a0	0.023911774
194	0xbdc34156	-0.09533946
195	0x3e81a529	0.2532132
196	0x3e330b10	0.17484689
197	0xbe41a6ae	-0.1891124
198	0x3cd4efb0	0.025993198
199	0xbd1e8900	-0.038704872
200	0x3dcf889c	0.10133478
201	0xbc428520	-0.01187256
202	0xbe94675c	-0.28985107
203	0xbdc2157e	-0.094767556
204	0xbe5cd078	-0.215639
205	0xbe5591a0	-0.20856333
206	0xbe5b1002	-0.21392825
207	0x3e0000a4	0.12500244
208	0xbdc3a232	-0.09552421
209	0x3e94d6c1	0.29070094
210	0xbe1cfc08	-0.15330517
211	0x3de8c0bc	0.11364886
212	0xbe29b024	-0.16571099
213	0xbe8d8985	-0.27643982
214	0xbe741790	-0.23837113
215	0xbe0c1d45	-0.1368304
216	0x3e0f1d00	0.13975906
217	0xbe5a586c	-0.21322793
218	0x3e91f895	0.28509966
219	0xbd746178	-0.059663266
220	0x3da6d2e0	0.0814569
221	0x3e16f2fe	0.14741132
222	0xbd0a65e0	-0.03378856
223	0xbe4bcd9c	-0.19902653
224	0x3c7b2d60	0.015330642
225	0x3e0c08aa	0.1367518
226	0xbe7f8826	-0.2495428
227	0x3e8c60f5	0.27417722
228	0xbd9df934	-0.07713547
229	0xbe07f1e7	-0.13275872
230	0x3e9f0867	0.31061098
231	0xbe481418	-0.19538915
232	0xbe9f1479	-0.31070307
233	0x3e979705	0.29607406
234	0x3d3424d8	0.04398045
235	0x3dfc8bd8	0.123313606
236	0xbe23e024	-0.16003472
237	0x3e4902ba	0.19629946
238	0xbd6606d0	-0.05615884
239	0x3e874573	0.26420173
240	0xbcd3cfd0	-0.025855929
241	0x3db3650c	0.087595075
242	0x3df55644	0.119793445
243	0x3d8d9300	0.06912804
244	0xbbe87600	-0.007094145
245	0xbe5b62aa	-0.21424356
246	0xbc665740	-0.014058888
247	0xbe7711a5	-0.24127825
248	0x3a7e0c00	0.0009691119
249	0x3e6b6e6e	0.22991344
250	0x3dc6a15c	0.096987456
251	0xbdba66d4	-0.09101644
252	0xbe9cefa5	-0.30651584
253	0x3e6966f6	0.22793183
254	0xbe21e204	-0.15808874
255	0x3e56368a	0.20919243

adv.bias f4 [10]
0	0xbdf1fd81	-0.1181593
1	0x3da9f002	0.08297731
2	0x3dff6306	0.12470059
3	0xbccd887c	-0.025089495
4	0x3e035d07	0.12828456
5	0x3cd92970	0.026509017
6	0x3e0420e9	0.12903179
7	0xbdcec7a9	-0.10096676
8	0x3d6f1fe8	0.058380038
9	0xbd81d63f	-0.06339692

val.weight f4 [1, 50]
0	0xbe4e00e8	-0.20117533
1	0x3e8664cf	0.26248786
2	0xbeac2898	-0.3362472
3	0x3e8a8b71	0.2705951
4	0x3e62cb2e	0.2214782
5	0x3e2ac48a	0.16676536
6	0x3e2c139a	0.16804352
7	0xbcd74cc0	-0.026281714
8	0x3d9a33c4	0.07529405
9	0x3e51282a	0.20425478
10	0x3e2831ce	0.16425249
11	0x3ea36b19	0.31917647
12	0x3e97e305	0.2966539
13	0x3e896abb	0.2683924
14	0xbe1c49d9	-0.15262546
15	0x3e088656	0.13332495
16	0xbea80c25	-0.32821766
17	0xbe58ca42	-0.21170905
18	0xbda8c5b8	-0.08240837
19	0x3e95e669	0.29277351
20	0xbe811204	-0.25209057
21	0x3dd013e4	0.10160044
22	0x3c6cb1c0	0.014446676
23	0xbe0b7d3b	-0.1362199
24	0x3d162610	0.036657393
25	0x3e7de50e	0.24794409
26	0x3d876bb4	0.066123396
27	0xbe193ea2	-0.14965299
28	0x3d640d38	0.05567667
29	0x3dc9d560	0.09855151
30	0x3e8b8999	0.27253416
31	0xbe10f1df	-0.14154766
32	0xbea3c879	-0.31988886
33	0xbe59d136	-0.21271214
34	0xbe70406e	-0.23462078
35	0x3e8c3513	0.27384242
36	0x3ccd6210	0.025071174
37	0xbde68998	-0.11256713
38	0xbe56339c	-0.20918125
39	0xbe22b1a2	-0.15888074
40	0x3e71b2ee	0.23603413
41	0x3e9637c3	0.29339418
42	0x3de45520	0.11149049
43	0x3d4e6f30	0.050399005
44	0xbe738aac	-0.23783368
45	0xbe3acb71	-0.18241669
46	0x3c452c00	0.012034416
47	0x3e540586	0.20705232
48	0x3e9d498b	0.3072017
49	0x3d0b34b0	0.033985794
