models/V1_TOKYO_05_06_22_161.pt (torch_old, 4167 bytes, 5 tensors)

fc1.weight f4 [50, 4]
-0.027427783 -0.09360731 1.646496 -1.1255068 0.37181798 0.45246243 0.16121663 0.71422434
-0.466866 2.3927205 -0.91825634 -0.5672149 0.8435283 -1.1979771 -1.2916389 -0.20016362
-2.005951 -1.2755392 -0.17683154 -0.13490658 1.0008417 -0.6310135 1.34008 1.5470799
1.4763745 -0.31508043 -0.6806159 -0.10965333 -1.9760945 -0.23690538 -0.4506742 -0.49948648
0.25416917 -0.24130695 0.96212083 -0.96651536 0.14195646 -1.075407 0.69962066 -1.2742684
-2.1562386 -0.43495423 0.31409186 -0.9126494 -0.25615945 1.1445106 0.679483 1.0641767
1.9794918 1.1331472 0.54402226 2.614148 -2.452771 -0.8130598 0.04095887 -1.0802939
2.3746748 0.033746634 1.6302212 1.7100201 -1.395397 -1.2736002 -0.030265668 -1.5644823
0.36654258 2.2328687 0.3308885 0.70581955 0.068372294 0.67350763 0.39278495 -0.91187614
-2.6680028 -1.3935002 -0.50280005 0.16343498 -1.4565303 0.5269361 -1.3337504 0.33326563
0.31224167 1.1911967 0.3446643 -1.0797845 -0.45031467 0.9761104 0.28583094 0.9546346
-1.7182322 -0.92765033 -0.22702226 0.10704564 0.89158946 0.63966525 -0.11712821 -1.8598295
-1.3961152 -1.8417157 -0.33182442 -2.1231313 0.78819644 -0.22571574 -0.10053585 -1.1856569
0.2883698 1.4861951 -0.631451 -1.3897702 -1.8544414 -2.778838 0.3168125 -0.503812
0.09743413 0.54507273 -0.5877133 1.3090295 0.7737694 -0.50938225 -0.69653916 -0.5184461
-0.28352726 0.7403433 0.86140996 -0.19856472 1.9165628 2.0682833 0.6355918 1.635278
3.1204693 3.5219288 0.45997986 2.0996625 2.934724 1.5654906 0.10101918 0.47005633
-2.2393963 -2.6919088 0.3968775 -0.698025 -0.47126913 0.76424426 1.1986357 0.6805239
-0.013164828 0.14394842 0.1794171 1.2467549 -1.012241 -0.71945494 -1.0707105 0.81883043
-2.0232995 -1.8542892 -0.11291726 -2.0733976 -2.6273422 -1.7574061 0.32344314 -0.38749078
-0.87628883 -2.175326 0.32427 1.7484215 -1.2598754 0.4980564 -0.01173773 1.5690305
-2.1962702 -2.1979191 0.21279109 -0.5361266 -0.6598138 1.3424901 1.187643 0.22636338
-1.4371511 -0.5222318 -0.35828888 -1.931931 2.7547395 3.1516614 -0.54227245 1.6165638
-0.028601509 -1.9019053 -0.81108314 0.120407484 -2.2522063 -2.0377865 -0.3123258 -0.57680416
0.42907703 -0.89276475 -0.45751488 0.2726075 0.029010577 -1.499916 -0.5768302 -0.2809655
00000000: 3bb0 e0bc 30b5 bfbd 62c0 d23f 9b10 90bf
00000010: ed5e be3e 28a9 e73e f915 253e 68d7 363f
00000020: 0f09 efbe 5522 1940 d912 6bbf ff34 11bf
00000030: 78f1 573f 5057 99bf 6c54 a5bf b1f7 4cbe
00000040: 8061 00c0 de44 a3bf 5413 35be f324 0abe
00000050: 951b 803f 1a8a 21bf be87 ab3f b706 c63f
00000060: d7f9 bc3f 3952 a1be d83c 2ebf ed91 e0bd
00000070: aaf0 fcbf 5397 72be c5be e6be b1bc ffbe
00000080: 7622 823e 2b19 77be 8d4d 763f 8d6d 77bf
00000090: 095d 113e f0a6 89bf 571a 333f 3a1b a3bf
000000a0: d0ff 09c0 52b2 debe a6d0 a03e 64a3 69bf
000000b0: 5527 83be 537f 923f 99f2 2d3f f136 883f
000000c0: fd5f fd3f f80a 913f 0b45 0b3f 334e 2740
000000d0: 33fa 1cc0 b024 50bf 7dc4 273d 1247 8abf
000000e0: acfa 1740 e939 0a3d 17ab d03f f0e1 da3f
000000f0: 5e9c b2bf 5505 a3bf b5ef f7bc f540 c8bf
00000100: 78ab bb3e 52e7 0e40 386a a93e 97b0 343f
00000110: c606 8c3d ff6a 2c3f 1c1b c93e b770 69bf
00000120: 8fc0 2ac0 375e b2bf 81b7 00bf 805b 273e
00000130: 966f babf 49e5 063f 55b8 aabf cba1 aa3e
00000140: 24de 9f3e 2279 983f d777 b03e 6136 8abf
00000150: a58f e6be 5fe2 793f 6f58 923e ef62 743f
00000160: 08ef dbbf 7e7a 6dbf 8678 68be bf3a db3d
00000170: 353f 643f 1ac1 233f eae0 efbd e50e eebf
00000180: e7b3 b2bf 57bd ebbf e4e4 a9be 62e1 07c0
00000190: 3ec7 493f 0722 67be bde5 cdbd 9bc3 97bf
000001a0: 35a5 933e a43b be3f c6a6 21bf fde3 b1bf
000001b0: 565e edbf 7bd8 31c0 3f35 a23e d3f9 00bf
000001c0: 8c8b c73d e389 0b3f 6174 16bf 478e a73f
000001d0: c015 463f e066 02bf 6450 32bf e2b8 04bf
000001e0: 7c2a 91be 2387 3d3f 5d85 5c3f 8d54 4bbe
000001f0: ee51 f53f c15e 0440 25b6 223f ca50 d13f
00000200: c5b5 4740 4867 6140 7b82 eb3e df60 0640
00000210: 85d2 3b40 ff61 c83f 25e3 ce3d 39ab f03e
00000220: 4552 0fc0 3c48 2cc0 8733 cb3e c4b1 32bf
00000230: 304a f1be 83a5 433f e56c 993f d036 2e3f
00000240: 4ab1 57bc 3767 133e 1eb9 373e aa95 9f3f
00000250: 1d91 81bf 332e 38bf 0b0d 89bf df9e 513f
00000260: bd7d 01c0 5959 edbf 2a41 e7bd 8cb2 04c0
00000270: 6026 28c0 aff2 e0bf 579a a53e 3165 c6be
00000280: 7754 60bf 8b38 0bc0 b806 a63e 47cc df3f
00000290: 9943 a1bf 4001 ff3e 9c4f 40bc fed5 c83f
000002a0: b18f 0cc0 b5aa 0cc0 e8e5 593e 983f 09bf
000002b0: 8fe9 28bf b7d6 ab3f b004 983f cdcb 673e
000002c0: 91f4 b7bf fcb0 05bf a471 b7be 8449 f7bf
000002d0: a74d 3040 d2b4 4940 5ed2 0abf 90eb ce3f
000002e0: b64d eabc a271 f3bf 25a3 4fbf 3398 f63d
000002f0: 2624 10c0 186b 02c0 2be9 9fbe 70a9 13bf
00000300: fcaf db3e 3b8c 64bf 643f eabe 3693 8b3e
00000310: 97a7 ed3c 3ffd bfbf 25ab 13bf b6da 8fbe

fc1.bias f4 [50]
0.9635368 1.1077079 -0.99435717 0.9411594 -0.7228044 0.5116968 1.078821 1.1217096
1.1943915 1.1860572 0.06431793 1.1729084 -0.6015482 -0.41012627 0.63506275 0.7197934
-0.18523332 1.1528751 -0.7647937 -1.1823862 0.8989648 0.35814324 -0.5612785 0.4357779
0.4740715 0.43096676 0.60582936 -0.7812839 1.0390025 0.7192075 0.27962637 -0.35790437
-0.64084774 0.39581105 -0.89254075 0.7798824 0.4514383 0.9017637 0.89218575 -0.79593515
0.4793563 -0.5023427 -0.9095209 0.39832386 0.34565395 -0.07565806 -0.013025351 -0.82153255
1.3242949 1.1732824
00000000: 59aa 763f 5fc9 8d3f 318e 7ebf d3ef 703f
00000010: b609 39bf 90fe 023f ce16 8a3f 2e94 8f3f
00000020: d2e1 983f b9d0 973f 1eb9 833d dd21 963f
00000030: 10ff 19bf 12fc d1be 7993 223f 6144 383f
00000040: cead 3dbe 6991 933f 85c9 43bf 6e58 97bf
00000050: 8f22 663f 8d5e b73e f3af 0fbf 481e df3e
00000060: 80b9 f23e ada7 dc3e a217 1b3f 3902 48bf
00000070: 09fe 843f fc1d 383f 302b 8f3e 3e3f b7be
00000080: 990e 24bf bfa7 ca3e 8d7d 64bf 5fa6 473f
00000090: ec22 e73e fcd9 663f 4966 643f 68c2 4bbf
000000a0: 306e f53e 8899 00bf 5dd6 68bf 1bf1 cb3e
000000b0: 8ef9 b03e 9df2 9abd 4868 55bc f54f 52bf
000000c0: 7f82 a93f 1e2e 963f

adv.weight f4 [10, 50]
0.2635647 -0.289446 0.09329923 -0.06500267 -1.0541228 -0.8446005 0.8454888 -0.50898504
-0.11723224 0.06311786 -0.16736563 -0.042462572 -0.6497248 -0.4845784 -0.38806388 -0.08159086
-0.5882967 0.0745456 -0.38483214 -0.75103897 0.5658566 -0.64047205 -0.8523575 0.9457734
-0.2587448 0.8790078 0.07661313 -0.8933945 0.27532282 0.27267662 -0.38892615 -0.92355794
-0.87556684 -0.9532948 -0.8456953 -0.39060277 -0.10444075 -0.3727233 -0.41072267 -0.8358726
-1.3709142 -0.6087058 -1.0966233 -0.5218704 -0.3018266 -0.8398583 -0.6569733 -0.8215126
-0.26135936 -0.13635382 -0.7514362 -0.2014756 -0.042078067 -0.5662482 -0.5501223 -0.52412915
-1.3346753 -0.36288333 -0.5994378 -0.3040755 -0.07269658 -1.070507 -0.14295334 -0.47748482
-0.67030823 -0.47634006 -0.23771296 0.009950374 -0.15653044 -0.40666908 -0.37774223 -0.43189755
-0.0021379495 0.38330507 -0.20634852 -0.010725313 -0.39667612 -0.26167443 -0.7585638 -0.738019
-0.3492336 -0.07396368 0.0098890485 -0.6940454 -0.1683481 -0.15379664 -0.20549317 -0.71759534
-0.542033 -0.32780308 -1.22618 0.35209078 -0.43708527 -0.08825899 -0.5546793 -0.85178554
-0.756902 -0.32450333 -0.6778774 -0.35894784 0.93714184 0.73588055 -1.59964 -0.03858424
-1.8418881 -0.9472482 0.23843458 0.317574 0.541376 0.6102903 -0.5042291 1.1412072
-2.1148891 -1.2622175 -1.6592122 -0.05278865 -0.32742953 0.7051656 -0.816992 -1.109733
0.20359099 0.2252126 -0.85107136 0.31694943 -0.8860558 0.42535308 -0.19915631 -2.4756079
0.63429755 0.37821618 0.6841725 -1.8357034 -2.4089837 -1.7207637 -1.7768341 0.67589444
0.6084524 0.30756018 -0.41924664 -1.6663369 -0.09709541 0.13576598 -2.3757179 0.6885068
-0.49277985 -1.9596483 -0.12776458 -1.6242553 0.6461673 0.4752229 -0.6579229 -0.44081852
0.05641048 -0.88082963 -0.33644277 -0.6780553 -0.020822503 -0.4540673 0.074953035 -0.7910434
-0.31282526 -0.569861 -0.5469176 -0.25327468 -0.78765607 -0.39851406 -0.56964195 -0.5268587
-0.60083765 -0.45325667 0.30383545 -0.7112398 -0.23697966 -0.34142163 -0.32772693 -0.15006755
0.11267319 -0.49170837 -0.59989434 -0.55870193 -0.6275424 -0.33548725 -0.6511035 -0.5427466
-0.65289664 -0.86573774 -0.83517855 -0.53915024 -0.09601549 -0.5907932 -0.709205 -1.291419
-0.6660448 -0.689751 -0.37089038 -0.2379911 -0.27667055 -0.6235923 -0.60757923 -0.7175877
-0.3992312 0.26519623 0.19632764 0.2456374 -1.1828035 -2.2839642 0.25110763 0.28797972
-0.33162805 0.37929854 -0.96655667 0.059454724 -1.397639 -0.9380044 -2.0501416 -0.89693576
0.10758503 0.31319478 -0.58658224 0.19625315 0.41721803 0.12807299 -0.81567746 0.3491705
-0.84134203 0.8198753 0.5091124 -0.6586242 0.20933989 0.37645733 -0.23572086 -1.258368
-0.68891376 -0.38012034 -0.8167606 -0.45101503 -0.22095022 0.20947939 -1.0001125 -0.562122
-1.4331423 0.84243256 -0.78416795 0.16970599 -0.8114449 -0.22430606 0.37036762 -1.1323807
0.04644604 0.14515688 1.22499 0.4957897 -0.6833077 0.32000753 -1.6002806 0.17690213
00000000: f4f1 863e 4432 94be ab13 bf3d 1f20 85bd
00000010: 7fed 86bf bd37 58bf f471 583f d84c 02bf
00000020: 7517 f0bd f043 813d e561 2bbe 3ced 2dbd
00000030: 5d54 26bf a91a f8be 4fb0 c6be 1c19 a7bd
00000040: 9d9a 16bf 5dab 983d b808 c5be 1744 40bf
00000050: fadb 103f faf5 23bf 1a34 5abf 351e 723f
00000060: 337a 84be a806 613f 58e7 9c3d 80b5 64bf
00000070: 1df7 8c3e 459c 8b3e 5421 c7be 4b6e 6cbf
00000080: 2625 60bf 210b 74bf 7d7f 58bf 16fd c7be
00000090: 08e5 d5bd 97d5 bebe 3e4a d2be bffb 55bf
000000a0: 1e7a afbf 25d4 1bbf 275e 8cbf 4c99 05bf
000000b0: 0489 9abe f400 57bf 672f 28bf a64e 52bf
000000c0: e5d0 85be 56a0 0bbe 1f5e 40bf 9f4f 4ebe
000000d0: 0d5a 2cbd a4f5 10bf d1d4 0cbf 542d 06bf
000000e0: a4d6 aabf d8cb b9be c174 19bf c9af 9bbe
000000f0: f2e1 94bd 6006 89bf 5c62 12be e478 f4be
00000100: 5299 2bbf d8e2 f3be 076b 73be e506 233c
00000110: 8449 20be ee36 d0be 6e67 c1be ad21 ddbe
00000120: d71c 0cbb 9040 c43e 074d 53be 39b9 2fbc
00000130: 2219 cbbe 31fa 85be 3d31 42bf d0ee 3cbf
00000140: bfce b2be 457a 97bd ad05 223c f6ac 31bf
00000150: 7263 2cbe de7c 1dbe cd6c 52be 54b4 37bf
00000160: adc2 0abf ced5 a7be 77f3 9cbf 3e45 b43e
00000170: a4c9 dfbe 21c1 b4bd 76ff 0dbf 9e0e 5abf
00000180: 54c4 41bf 4d25 a6be 6089 2dbf 03c8 b7be
00000190: 87e8 6f3f ab62 3c3f 01c1 ccbf 820a 1ebd
000001a0: fdc2 ebbf dc7e 72bf 3228 743e 0f99 a23e
000001b0: 9e97 0a3f fc3b 1c3f 2915 01bf 1413 923f
000001c0: 585a 07c0 5890 a1bf 1161 d4bf e938 58bd
000001d0: d8a4 a7be bc85 343f 6326 51bf bb0b 8ebf
000001e0: 287a 503e 229e 663e d0df 59bf 3247 a23e
000001f0: 8ed4 62bf e1c7 d93e a2ef 4bbe 5c70 1ec0
00000200: 5361 223f 8da5 c13e ee25 2f3f 54f8 eabf
00000210: ca2c 1ac0 fc41 dcbf 4d6f e3bf 6b07 2d3f
00000220: 89c3 1b3f 8778 9d3e 7fa7 d6be 874a d5bf
00000230: f5d9 c6bd 3d06 0b3e c30b 18c0 fb41 303f
00000240: a44d fcbe c1d5 fabf b8d4 02be 99e7 cfbf
00000250: 386b 253f 6a50 f33e a36d 28bf f7b2 e1be
00000260: ad0e 673d 0d7e 61bf 3a42 acbe 0895 2dbf
00000270: f493 aabc 827b e8be fa80 993d d281 4abf
00000280: a22a a0be 69e2 11bf cb02 0cbf 38ad 81be
00000290: d4a3 49bf 090a ccbe 0ed4 11bf 36e0 06bf
000002a0: 7fd0 19bf 4211 e8be 5290 9b3e d013 36bf
000002b0: ccaa 72be d1ce aebe d3cb a7be 4fab 19be
000002c0: 34c1 e63d 33c1 fbbe ad92 19bf 1707 0fbf
000002d0: 9ea6 20bf fcc4 abbe b8ae 26bf 71f1 0abf
000002e0: 3c24 27bf fda0 5dbf 43ce 55bf c005 0abf
000002f0: c5a3 c4bd 393e 17bf 758e 35bf 384d a5bf
00000300: e981 2abf 8693 30bf 58e5 bdbe f0b3 73be
00000310: c3a7 8dbe bfa3 1fbf 508a 1bbf d4b3 37bf
00000320: 0868 ccbe cdc7 873e 1d0a 493e 5f88 7b3e
00000330: 1b66 97bf 782c 12c0 2e91 803e 1472 933e
00000340: 27cb a9be 6b33 c23e 4270 77bf cc86 733d
00000350: d6e5 b2bf 0e21 70bf 8535 03c0 959d 65bf
00000360: 8a55 dc3d 115b a03e 412a 16bf 96f6 483e
00000370: 9a9d d53e 9125 033e 3dd0 50bf 7ac6 b23e
00000380: 3162 57bf 59e3 513f 3155 023f 989b 28bf
00000390: 325d 563e 04bf c03e cf60 71be 3412 a1bf
000003a0: a75c 30bf 229f c2be 3917 51bf 71eb e6be
000003b0: c640 62be c481 563e b003 80bf 3ae7 0fbf
000003c0: 3571 b7bf a9a9 573f 3bbf 48bf 68c7 2d3e
000003d0: daba 4fbf 7db0 65be d3a0 bd3e daf1 90bf
000003e0: 343e 3e3d 01a4 143e 79cc 9c3f 26d8 fd3e
000003f0: 41ed 2ebf 07d8 a33e ffd5 ccbf d525 353e

adv.bias f4 [10]
-0.2736585 -0.5539973 0.65045744 -0.56335735 0.028471133 0.47234493 -0.24399626 -0.43680808
-0.6472407 -0.73453254
00000000: f81c 8cbe c4d2 0dbf 6184 263f 3038 10bf
00000010: 4b3c e93c 32d7 f13e 28da 79be 4fa5 dfbe
00000020: 91b1 25bf 530a 3cbf

val.weight f4 [1, 50]
0.58638895 1.287584 -2.241079 0.6043708 -2.2904255 -0.5425253 0.63927627 -0.2858368
1.0126982 0.91806686 -0.86739767 0.70542425 -1.657373 -1.0806769 -1.010962 -0.6724686
-1.1005052 0.59657 -1.7978275 -1.3387518 0.38936043 0.38804293 -1.8255785 0.77441627
-1.1468291 1.2056427 0.50700873 -2.950343 0.29560748 0.60307574 0.4662406 -2.2322862
-3.360525 -2.0121784 -2.7763798 0.8120934 0.38448578 -0.26319078 -1.3687702 -2.2787507
-0.4836392 1.345022 -2.5899186 0.27134565 -1.0440652 -3.1903431 -0.32754436 -1.6430374
0.7942075 0.32005337
00000000: 961d 163f 8dcf a43f d76d 0fc0 0bb8 1a3f
00000010: 5596 12c0 f0e2 0abf 9ca7 233f 3359 92be
00000020: 18a0 813f 6e06 6b3f c60d 5ebf af96 343f
00000030: cc24 d4bf 9f53 8abf 3467 81bf e726 2cbf
00000040: 5bdd 8cbf d0b8 183f 361f e6bf 385c abbf
00000050: 405a c73e 90ad c63e 8eac e9bf 2540 463f
00000060: 4ccb 92bf 8052 9a3f 53cb 013f 6bd2 3cc0
00000070: dd59 973e 2c63 1a3f 17b7 ee3e c7dd 0ec0
00000080: d712 57c0 88c7 00c0 35b0 31c0 5ae5 4f3f
00000090: 52db c43e f1c0 86be dd33 afbf 0dd7 11c0
000000a0: 8f9f f7be ae29 ac3f 3ac1 25c0 d1ed 8a3e
000000b0: eea3 85bf 952e 4cc0 e5b3 a7be 0d4f d2bf
000000c0: 2f51 4b3f 09de a33e
