models/V1_TOKYO_03_04_03_161.pt (torch_old, 4167 bytes, 5 tensors)

fc1.weight f4 [50, 4]
000000 71 ba 07 bd ed 97 08 bf 31 bb 8b 3f 2d e8 75 bf
       -0.03313679 -0.5335682 1.0916501 -0.960574
000010 d5 0d 9e 3e 81 12 fd 3e cd 5a fb bc f7 14 2e 3f
       0.30869928 0.4942818 -0.030682946 0.6800074
000020 a8 c7 88 bf 68 1a a2 3f be 61 1b bf 10 b8 7e bf
       -1.068593 1.2664309 -0.6069602 -0.9949961
000030 54 0f 96 3f 8b a9 a5 bf a5 1a d4 bf 31 98 5a 3d
       1.1723428 -1.2942365 -1.6570631 0.053367797
000040 b0 98 e4 bf 97 75 7f bf 8c 99 5e be cc ac 24 be
       -1.7859097 -0.997888 -0.21738261 -0.16081542
000050 02 4f ba bf 59 08 a3 bf 64 bf 27 3e 5b 8d 2c be
       -1.4555361 -1.2736923 0.16381603 -0.16850798
000060 37 21 35 3f f3 f6 94 be 10 18 74 bf 1f 2e 43 be
       0.70753807 -0.29094657 -0.95349216 -0.19060563
000070 63 3b d5 bf 7b 49 70 bd 6d 78 2a bd 84 42 95 bf
       -1.6658748 -0.058663826 -0.041618753 -1.1660924
000080 90 7b 80 3e f3 fe 1c be 9a 4e 3d 3f fe b4 5d bf
       0.2509427 -0.1533163 0.7394806 -0.866043
000090 3d d5 f6 bb 8f 18 98 bf 01 68 8a 3e a8 fe 84 bf
       -0.007532744 -1.1882495 0.27032474 -1.0390215
0000a0 6e e8 00 c0 06 be a2 be 5c 07 c8 3c b8 13 c4 be
       -2.0141864 -0.317856 0.024417572 -0.38296294
0000b0 5f 01 0e bf 21 3f a3 3f 49 3b 19 3f ab 25 5f 3f
       -0.5547084 1.275364 0.59856087 0.8716685
0000c0 8c 6b b7 3f 7a 52 1f 3f 95 6b 5b 3f 93 53 bc 3f
       1.4329696 0.62235224 0.8571103 1.4713005
0000d0 32 b1 0d c0 94 55 39 3d 0b 75 9c 3e 08 09 57 bf
       -2.2139401 0.04524763 0.30558047 -0.83998156
0000e0 24 61 0c 40 28 a6 76 3f 3e d1 6c 3f 04 0d 59 3f
       2.193429 0.96347284 0.9250678 0.84785485
0000f0 39 96 9c bf 18 cd af bf b4 13 8f be 30 9d 6d bf
       -1.2233344 -1.3734465 -0.2794472 -0.92817974
000100 a7 a6 63 3f c5 5f 8f 3f 93 de 1b 3f a3 01 13 3f
       0.88926166 1.1201102 0.60886496 0.5742437
000110 f3 54 20 3e 62 b2 b8 3e 8e 10 55 3e 8c 26 64 bf
       0.15657406 0.36073595 0.20807096 -0.8912132
000120 dd 6f 14 c0 29 4f 9d bf c8 11 d9 be 71 5b 12 3d
       -2.3193276 -1.2289783 -0.4239638 0.035731737
000130 0a e3 c9 bf fb 4f aa 3e d6 3f a5 bf 71 4f 49 be
       -1.5772412 0.33264145 -1.2910106 -0.1965921
000140 6a e7 c1 be a0 03 a4 3f 27 de 61 3e 1c 2e 43 bf
       -0.37871867 1.2813606 0.220574 -0.7624223
000150 72 b2 52 bf ad 6b 86 3f 02 21 81 3e 34 1d 42 3f
       -0.82303536 1.050161 0.25220495 0.7582581
000160 63 ff bd bf e9 84 4f bf 06 69 76 be 5a 63 60 bd
       -1.4843563 -0.8106218 -0.24063501 -0.05478225
000170 2d f2 40 3f ba 0a bf 3e f3 5a 5b bf d6 43 a8 bf
       0.7536953 0.3731287 -0.8568565 -1.3145702
000180 70 9f 47 bf d0 c0 11 c0 6f 5e fb 3d b8 08 92 bf
       -0.7797766 -2.2773933 0.12273871 -1.1408911
000190 0a 5e eb 3e d2 47 b3 be e7 78 09 bf 40 ad 1e bf
       0.45970184 -0.35015732 -0.5370011 -0.6198311
0001a0 b7 0c 7e 3e 92 eb ae 3f 7c bf 89 bf 7a 9f a7 bf
       0.24809538 1.366564 -1.0761561 -1.3095543
0001b0 98 b9 fe bf 5a 07 d0 bf 7c de a3 bd a6 0a cc be
       -1.9900389 -1.6252244 -0.0800142 -0.39851874
0001c0 66 d2 d9 ba 6c 90 2f 3f fc 40 a3 bf 8f bc 6d 3f
       -0.001661849 0.68579745 -1.2754207 0.9286584
0001d0 54 3b 36 3f df dd 1c be 7d a6 8c bf de f3 a4 be
       0.7118428 -0.15319012 -1.0988308 -0.32217306
0001e0 d6 78 dc bd 24 5e 4e be a7 89 77 3f 66 c2 fb be
       -0.10765235 -0.201531 0.96694416 -0.49171752
0001f0 66 03 37 3f c5 38 06 40 13 c4 d7 3e 11 63 34 3f
       0.7148956 2.097215 0.4214178 0.70463663
000200 57 d8 0f 40 a8 51 66 40 cc dc 6b 3e b5 80 88 3f
       2.2475793 3.598734 0.23033446 1.0664278
000210 5e e3 18 40 eb 9b af 3f f2 9a df 3e e0 14 0e bc
       2.3888774 1.3719457 0.436729 -0.008671969
000220 f8 ea 13 c0 ea 27 df bf 5b 5c 1d 3d 55 f6 02 bf
       -2.3112164 -1.7434056 0.038418155 -0.5115712
000230 a0 db b6 be 64 99 42 3f 69 68 69 3f dd 46 25 3f
       -0.35714436 0.76015306 0.9117494 0.64561254
000240 73 2e bc 3f cf e6 f2 3f be 3b a8 3e 04 2d 98 3f
       1.4701675 1.8976687 0.3285808 1.1888738
000250 7e c8 6b bf eb 95 5a bf 4d a8 82 bf 4e d2 e3 3e
       -0.921028 -0.85385007 -1.0207611 0.44496387
000260 f3 2f bc bf 0d 7a ab bf e2 d7 cf bd 8b 40 bc bf
       -1.4702133 -1.3396622 -0.10148598 -1.4707197
000270 d1 1c 1e c0 9e 74 a6 bf c2 e2 53 3e c4 5b b6 be
       -2.4705088 -1.3004339 0.2069197 -0.35616887
000280 8a 00 0a c0 02 d5 fd bf d1 69 8d bd 51 9e 94 3e
       -2.156283 -1.983063 -0.069049485 0.29027036
000290 e0 87 89 bf 2e d5 3f 3f 12 ff a0 be 7e 3d a7 3f
       -1.0744591 0.7493466 -0.31444603 1.3065641
0002a0 cb 94 0f c0 58 cc b8 bf 86 35 26 bd 3c c2 c7 be
       -2.2434566 -1.4437361 -0.040578388 -0.39015377
0002b0 66 77 1f bf f7 d1 a2 3f 02 4a 74 3f d1 f4 42 3e
       -0.6229156 1.2720326 0.95425427 0.19038703
0002c0 79 8e 84 bf a2 dc 05 3f 1d bd 24 bf dc 3a 88 bf
       -1.0355979 0.52289784 -0.64351064 -1.0642962
0002d0 9b 82 1b 40 09 6c 1d 40 7d a4 01 bf 64 2a 64 3f
       2.4298465 2.459719 -0.50641614 0.8912718
0002e0 3b 11 f4 3f 87 4a e8 be ca 70 20 bf 92 48 2c 3d
       1.9067758 -0.4536936 -0.626721 0.042061396
0002f0 93 fe e7 bf bc 0d db bf 0f 0a 70 bf c0 d2 3a bf
       -1.8124565 -1.7113566 -0.9376535 -0.7297783
000300 58 ef fc 3e 28 ba 6f bf d1 01 42 bf 5e 36 0f 3e
       0.49401355 -0.93643427 -0.7578402 0.13985583
000310 1c 48 97 3e ba 55 a2 bf 04 58 26 bf 78 cd 9d be
       0.29547203 -1.2682412 -0.6497805 -0.30820823

fc1.bias f4 [50]
000000 7b ef 7e 3f 70 08 9a 3f 4a 9d 79 bf f6 54 83 3f
       0.9958417 1.2033825 -0.9750563 1.0260303
000010 6d a8 47 bf 15 a5 ff be bf 38 c5 3f 8e 2e 95 be
       -0.7799137 -0.49930635 1.5407943 -0.2913708
000020 8e 3c b6 3f bb 54 b8 3f ed 3a a3 3e 3b 80 a0 3f
       1.423723 1.4400858 0.31880894 1.2539133
000030 57 7a 0b 3f 5f be 28 bf 2d d7 c9 be 93 37 27 3f
       0.5448355 -0.65915483 -0.3942198 0.65319175
000040 86 78 08 bf ca 82 8b 3f 53 78 63 bf 69 8a 7a bf
       -0.53308904 1.0899289 -0.88855475 -0.9786745
000050 bb 30 3c 3f 71 de f9 3e 86 8c 1d bf d4 70 97 3e
       0.73511857 0.48802522 -0.61542547 0.2957827
000060 94 07 2e 3e b6 28 7c 3f 00 ce 49 3f 14 39 59 bf
       0.16995078 0.9849962 0.78829956 -0.8485272
000070 ac 2e 35 3f 5a fe 41 3f d1 61 23 3f 06 46 93 bc
       0.7077434 0.75778735 0.6382113 -0.017977726
000080 3a 87 d2 be 3b f4 6b be 53 e5 77 bf ff 9e 8d 3f
       -0.41118795 -0.23042385 -0.96834296 1.1064147
000090 1a f8 78 bf ad ac 55 3e 9e 8d ca 3e 5b 12 56 bf
       -0.9725357 0.20866652 0.3956117 -0.8362176
0000a0 42 77 29 bf e9 69 e8 be bd f4 72 bf fe a9 68 3f
       -0.661976 -0.45393303 -0.9490469 0.9088439
0000b0 c7 f3 47 bf 4b fa 3f 3e 36 da 4e bd 1e a3 20 bf
       -0.7810635 0.18747823 -0.05050107 -0.627489
0000c0 4f 32 c7 3f 63 88 8e 3f
       1.5562228 1.1135372

adv.weight f4 [10, 50]
000000 a9 63 60 3e 9c 25 92 3c 43 0d 0a bf 4a bd df bd
       0.21913017 0.0178402 -0.53926486 -0.10924776
000010 02 05 b9 bf 73 8f 2a bf 86 03 42 3e c7 b5 e4 bd
       -1.4454653 -0.66625136 0.18946657 -0.11167484
000020 75 eb 72 bd eb 22 ef 3d b8 eb e9 3e 35 12 0a 3f
       -0.05930658 0.11676582 0.45687652 0.5393403
000030 58 72 85 bf cb 31 98 be 22 d0 0b be 9f 3e e8 3d
       -1.042552 -0.2972549 -0.13653615 0.11340069
000040 64 f4 b8 3d 5c c2 a5 3d 3a f4 0e bf f0 21 1f bf
       0.09030989 0.08093712 -0.5584141 -0.6216116
000050 01 df a7 3e b1 95 a7 bd 3b 65 82 bf 0d b0 b3 3c
       0.32787326 -0.08182848 -1.0187143 0.021934533
000060 bf 39 b7 be 85 0a aa 3e 15 88 4b be 22 04 56 bf
       -0.35786244 0.3321115 -0.1987613 -0.83600056
000070 76 97 c0 3e 3f 5f c6 3d 39 18 a0 be e3 4f 64 bf
       0.37615556 0.096861355 -0.3126848 -0.891844
000080 95 4f 97 bf 7e 62 6e bf 7a 17 79 bf 12 fb 55 3e
       -1.1821162 -0.9311904 -0.9730145 0.20896557
000090 76 44 95 be 87 46 d7 3d dc ed 58 be e7 51 48 bf
       -0.29153794 0.10511499 -0.21184486 -0.78249973
0000a0 53 d5 35 bf aa b9 ce 3c 43 30 ab bf 4e db 38 3e
       -0.7102863 0.025235016 -1.3374103 0.18052408
0000b0 a3 3d e0 be f2 38 9f bf de c4 4b bf 6a 97 0d bf
       -0.43797025 -1.2439253 -0.7959727 -0.55309165
0000c0 71 76 f5 bd b9 b0 8c 3d 11 eb 04 be bd ce bb 3e
       -0.119854815 0.06869645 -0.12980296 0.36681166
0000d0 91 cd ef 3d 77 11 32 3e 65 ec 77 bf da 6f 3e bf
       0.117091306 0.17389475 -0.96845084 -0.7438942
0000e0 20 31 76 be a2 f1 37 be a4 38 c1 3d 16 b4 57 3e
       -0.24042177 -0.1796327 0.094346315 0.21064791
0000f0 87 33 0f 3b 87 47 0d be 8b 1c 85 be 10 43 f6 be
       0.002185078 -0.13796817 -0.2599834 -0.4809804
000100 9f f9 31 bf ba 21 e1 be 6c f0 de 3d f3 33 1a 3f
       -0.69521517 -0.43971044 0.108857006 0.6023552
000110 47 9b ec be 92 55 e7 be 7c 27 51 3c 7f 8f 27 bd
       -0.46212217 -0.45182472 0.012765761 -0.040908333
000120 99 f3 91 be 5c 4a a5 3e 36 4a b6 be 9f 9c 2f 3d
       -0.28506163 0.32283294 -0.35603493 0.042873975
000130 62 be 62 be 5d b5 55 bf 2e 00 f5 3c bc a9 20 3d
       -0.22142938 -0.83479863 0.029907312 0.03922437
000140 82 0c 99 3e 9c ae 15 be bc 9e e7 be 79 6e 45 bf
       0.29892355 -0.1461739 -0.45238292 -0.7712169
000150 b6 b1 25 bf 58 3a 13 3e e9 12 55 bf 5e 0a 87 be
       -0.6472429 0.14377725 -0.8323198 -0.26375097
000160 2a 5f 15 bf 0e 85 1e bf b3 ab bb bf 37 cd 34 3e
       -0.58348334 -0.61921775 -1.4661773 0.17656408
000170 98 c7 63 bf 07 a5 0e 3e a3 15 ac be 21 95 8b bf
       -0.8897643 0.1393014 -0.33610258 -1.0904886
000180 25 6a e4 be 52 eb 21 bf 59 5f 72 3e c0 3a e2 3d
       -0.44612232 -0.63249695 0.23669185 0.11046362
000190 08 06 37 3e ee 22 e4 bb d0 5e 02 bf e6 e6 77 be
       0.17873394 -0.0069621718 -0.5092592 -0.24209175
0001a0 e4 86 51 bf 45 f9 99 be a4 c2 a6 bd e7 a0 80 3e
       -0.8184645 -0.3007299 -0.081425935 0.2512276
0001b0 8d 9c ed bd 5c 85 5c 3e ee 55 5a be 54 5e 0b 3f
       -0.11602125 0.21535248 -0.21321842 0.5444081
0001c0 5f d3 a2 be 37 db 28 bf 7b e6 3e be e8 4b 81 3b
       -0.31801888 -0.65959495 -0.18642609 0.0039458163
0001d0 ff 8c 09 bd 40 59 65 3e 54 e7 c2 be 67 1c aa be
       -0.03358173 0.22397327 -0.38067114 -0.33224794
0001e0 06 41 fb bd 79 b9 10 be 6a 85 aa be 93 4d a0 3e
       -0.122682616 -0.14133252 -0.33304912 0.31309184
0001f0 93 26 2a bf ce bd 66 3e 1e da 78 be 16 6c 83 bf
       -0.6646511 0.22533342 -0.24301955 -1.026736
000200 d1 21 9f 3e 50 b0 20 3e f6 09 b1 bb 92 bf 99 be
       0.31080487 0.15692258 -0.0054027988 -0.3002897
000210 81 9b 44 bf 9f 58 0f bf 6b 0a 18 bf 91 cc 2a 3e
       -0.7679978 -0.559946 -0.59390897 0.16679598
000220 97 f3 44 bf 0b 63 a2 3c 24 84 62 be 6e aa 4a bf
       -0.7693419 0.019822618 -0.2212072 -0.79166305
000230 34 e2 9c bf fb f4 be 3c b3 fd 81 bf 5f 76 5a 3e
       -1.2256532 0.023310175 -1.0155548 0.21334217
000240 4d ee da be 26 d6 a5 bf 21 47 ce be e4 63 2d bf
       -0.42759934 -1.2955978 -0.40288642 -0.67730546
000250 66 0c 34 3e a8 55 0d 3e f1 c1 19 bd 76 a7 8d 3e
       0.17582855 0.13802207 -0.037538473 0.27666825
000260 56 c0 8f be 45 b0 70 be b3 e8 fd be 41 60 e5 be
       -0.28076428 -0.23504741 -0.49591598 -0.44799998
000270 60 5d b5 3e 57 57 d6 be 6e 4d c1 3e c2 82 dd bd
       0.35422802 -0.4186351 0.37754387 -0.10815956
000280 b1 3d a1 be de 88 8a bd fd ab fe be c6 fe e9 be
       -0.3149238 -0.067643866 -0.49740592 -0.4570219
000290 c3 72 1e bf b3 4c b9 be c4 37 e5 bd ff fa ad bd
       -0.6189386 -0.3619133 -0.11192277 -0.08495139
0002a0 15 00 29 bf 31 29 f8 bd f4 62 e9 3e cb 79 90 bc
       -0.6601575 -0.12117232 0.45583308 -0.0176362
0002b0 cb dd 1b be ca 86 47 be 5b 89 95 be b9 6f 35 3e
       -0.15221326 -0.19485012 -0.29206356 0.177184
0002c0 ac 3d aa 3e 07 d8 3c bf 20 8c 75 ba ee 54 81 be
       0.33250177 -0.7376713 -0.00093668886 -0.2526011
0002d0 84 1c 57 3e d1 a6 fb bc b0 67 74 bf 3c 1a 08 bf
       0.21006972 -0.030719193 -0.95470715 -0.5316503
0002e0 e7 e5 75 bf 0c 20 40 3d 45 3f 83 bf bb 98 bf 3d
       -0.9605393 0.046905562 -1.0253683 0.09355303
0002f0 c7 da 5c be 57 89 42 bf 04 33 4e bf 89 2e a6 3e
       -0.21567832 -0.75990814 -0.80546594 0.32457379
000300 41 af 69 bf a8 64 76 3e 98 a4 f0 be ec 91 16 bf
       -0.9128304 0.24061835 -0.47000575 -0.5881641
000310 1a de 95 bd be 94 21 bf 92 fc c6 3d 9e 6c f4 bc
       -0.07317753 -0.6311759 0.09716143 -0.029836949
000320 6b 89 00 3e d5 cb 95 3e 97 6c 03 bf ea ab 0e 3e
       0.12552421 0.29257074 -0.5133757 0.13932768
000330 36 77 85 bf b6 8f 58 bf 00 54 c1 bb e6 5e 34 be
       -1.0427005 -0.84594285 -0.005899906 -0.17614326
000340 72 e4 d9 bd 02 39 3c 3e 09 88 1e bf fd 19 07 3e
       -0.106392756 0.18381122 -0.61926323 0.13193507
000350 0b 94 06 bf c9 11 0a bf 0b d2 47 bf 0f b5 60 bf
       -0.52569646 -0.5393339 -0.78054875 -0.87776273
000360 31 2b 9b be ab 05 24 3e eb 3d 2c be 2e 70 6f be
       -0.3030639 0.16017787 -0.16820495 -0.23382637
000370 1a f7 9b 3e 10 a5 43 3e 00 7b e5 be be ec d0 bc
       0.3046196 0.19105935 -0.44820404 -0.025503512
000380 6a 1a 20 bf dc 85 b0 3e 08 c1 0e bd 8b 1b 4a bf
       -0.62540305 0.34477127 -0.034852058 -0.7894828
000390 a1 bb 52 3c 7e 88 b8 3d dc 66 52 3e 18 76 10 bf
       0.012862117 0.09010409 0.2054705 -0.56430197
0003a0 12 d5 47 bf d7 01 16 bd 55 46 55 bf 98 48 e6 3d
       -0.78059494 -0.03662285 -0.83310443 0.11244315
0003b0 e1 89 7b bf 48 15 82 3d b1 3d 17 bf 4e 45 90 be
       -0.9825726 0.06351715 -0.5907851 -0.28177875
0003c0 23 d6 a2 bf 7a 86 59 3d 76 e4 46 bf a4 4f 8d bd
       -1.2721599 0.053106762 -0.77692354 -0.06899956
0003d0 3f 1c ab be 66 11 2c bf 7a 82 81 bc 6a c5 59 bf
       -0.33419988 -0.6721405 -0.015809286 -0.85066855
0003e0 76 7a d5 3d 93 7c 0f 3e 9f 3a 51 3e 68 6c 02 3e
       0.10423748 0.14012365 0.20432518 0.12736666
0003f0 cd 1e f1 be fb ef 55 3e 94 40 44 bf e4 0a 92 be
       -0.47093812 0.20892327 -0.7666104 -0.28523934

adv.bias f4 [10]
000000 17 b7 6d 3d 66 91 d8 3d 55 e0 30 3e ec 64 39 3d
       0.058035936 0.105746076 0.17273076 0.045262262
000010 2d de 0e 3d c8 62 dd 3c ba 29 7d 3e 09 8a 38 3e
       0.034879852 0.027024642 0.24722949 0.18021406
000020 9c 50 0b 3e bd 18 8f bf
       0.13604969 -1.1179425

val.weight f4 [1, 50]
000000 cc 7b 44 3f 49 fc c4 3f 8a c5 db bf 30 2c 73 3f
       0.767514 1.5389491 -1.7169659 0.949893
000010 71 df 0b c0 d8 f4 ba bf 79 06 7c 3f 2d dd b8 be
       -2.1855128 -1.460597 0.98447376 -0.36106244
000020 0c bf 8c 3f e4 9a 89 3f 71 da 0d be a8 77 a6 3f
       1.0995803 1.0750394 -0.1385286 1.3005266
000030 f0 0e 97 be 84 54 54 bf 24 ad 91 bf 65 df 90 be
       -0.29503584 -0.8294146 -1.1380963 -0.28295437
000040 87 4a 72 bf b0 b7 4f 3f 38 e2 ea bf 2c ae 7e bf
       -0.9464497 0.8113966 -1.8350286 -0.99484515
000050 70 a2 f5 3e 2d 3d 06 3f 9e 6c e2 bf a8 48 6f 3e
       0.47975492 0.52437097 -1.7689397 0.2336756
000060 ac 7b 4c bf e4 30 77 3f 68 40 11 3f c6 0c 19 c0
       -0.7987621 0.96558976 0.567389 -2.3914046
000070 53 77 19 3f d3 ec 36 3f cc 97 62 3f 2d 80 23 bf
       0.599477 0.71455115 0.88512874 -0.63867456
000080 d8 d8 09 c0 53 8e ca bf b9 2f 1d c0 c8 55 97 3f
       -2.15386 -1.5824684 -2.4560378 1.1823053
000090 c9 2a 32 c0 53 f6 11 3e f5 ba 3e bf 16 18 fa bf
       -2.7838614 0.14254121 -0.74504024 -1.95386
0000a0 50 97 1c c0 dc 7c 49 3f d6 81 13 c0 b4 64 21 3f
       -2.4467354 0.78706145 -2.3047996 0.63044286
0000b0 c5 61 7c bf 26 46 0f c0 d1 5e ef be 29 d4 66 bf
       -0.98586684 -2.2386565 -0.46752027 -0.9016748
0000c0 50 35 98 3f 66 0f 24 3f
       1.189127 0.64085996
