models/V1_TOKYO_06_34_32_161.pt (torch_old, 4167 bytes, 5 tensors)

fc1.weight f4 [50, 4]
00000000: 63c6 edbc 481d 143e 3227 673f abc8 95bf
00000010: 821d 3f3f e35a 4d3f 3b37 873c 5dd1 163f
00000020: 87b9 87bf 2b6c a53f c9a9 07bf da45 71bf
00000030: f521 ac3f 4be4 bcbe 80a5 c7bf 494d f23d
00000040: 068f d8bf c136 a5be ad5a a8be cc9c 93bc
00000050: 734e d8bf 30b5 b3bf a051 b4bc 3694 16be
00000060: ee0f b13f a629 f6bc 5ff3 3fbf f9fe 96bc
00000070: a71b f3bf 66b0 24bf a685 27bf a10f 83bf
00000080: dc0a 6a3f 7e0e 333e dcf5 393f 30f6 3fbf
00000090: cbc6 293f f61a 1cbe 5455 393f 3c44 bcbf
000000a0: d7aa 08c0 60c7 62be c2c2 823e e113 61be
000000b0: d334 4b3e e7d6 a93f 5182 db3e 4467 943f
000000c0: 8f9e 323e d8f9 533e ce4d 363f 4d96 bd3f
000000d0: d21c 01c0 7efc 973a bf06 573e b048 2bbf
000000e0: d52d ac3e 9271 55bf b9f4 d13f 157b 843e
000000f0: fb24 e13e f768 dcbe 0bb3 98be 8148 81bf
00000100: de32 2abf 1ab0 243f dfba 923f d23c bfbe
00000110: 76a4 3b3e 3646 583e 30f2 c23d 5d4c 76bf
00000120: d2f3 0ec0 f821 39bf 630c 71bf 2476 0c3f
00000130: ab0b 47bf 95da 143f 1657 68bf 02b6 c33f
00000140: 5b70 cf3e 9a0b 3b3f 7821 d93e dc20 86bf
00000150: 87e4 b0be 18a5 4b3f c9c1 86bb 2560 b93f
00000160: 8ba5 b2bf 3bf7 4cbe 5870 efbe 67ec 3c3f
00000170: ebc1 1240 8778 8f3f 1f8e 1cbf 8f5f dbbe
00000180: e57d a9bf cf13 f1bf 7d15 13be abb9 b1bf
00000190: f5d7 863f 3667 47be ae60 28bc 6c0e 69bf
000001a0: 8b09 1840 e9f1 dc3f 0541 55be fef4 313e
000001b0: fb65 e1bf b2a9 03c0 77cd 2bbf b946 acbe
000001c0: b8be 743e 38d4 3a3f 98c2 1fbf b3de b43f
000001d0: ecbd 8d3f e631 853e faeb 49bf 5667 6c3d
000001e0: 5d44 c43e 589c 4d3f 0063 733f 58ff 903e
000001f0: e8cf 743d 1562 a33f 4697 993f f38f 213d
00000200: 01fa 0540 18ca 5d3f 0d7a 223f 4113 a73e
00000210: bb30 983e 2ce5 04c0 9d78 263f 6169 ac3d
00000220: 42be 0dc0 f6f2 e0bf 0d31 c5bd aaea 38bf
00000230: 6e19 d3bd 9624 b13f abf7 4b3f 54be 0b3f
00000240: 94de 94bf 59bf bfbf f0e0 213d 0b2e 693d
00000250: 1002 cbbf 181a 86bf 7c5f aabf 910d ea3e
00000260: df88 e9bf 9a67 b6bf b5d1 59bd f748 c1bf
00000270: 05e1 1ec0 de2f acbf 561e 9e3e 017d 4ebe
00000280: e52c 09c0 2bb9 b9bf da8b 2f3d 754d 163f
00000290: 4a7c ecbe 448b 963e 6891 33be c927 de3f
000002a0: 9ca7 05c0 4aab aabf c253 b2bc 2f53 32be
000002b0: 8541 26be b500 cb3f 2890 c73f 81c9 403f
000002c0: b22f 95bf 9716 963e 38aa 55bf d4c1 c2bf
000002d0: 1bc2 eb3f eb48 e03f 3884 44be 38c4 bf3e
000002e0: c923 0bbf 4003 d5bf 36aa 86bf 821d 2a3d
000002f0: 1ead fcbf f9cd d1bf 97ed e9be e103 23bf
00000300: 210b 893f 2a7c e6be d6b7 f6be ff2b 2f3e
00000310: b5a5 94be 02dc 8cbf ecac b2bf 4be3 7dbf
-0.029025262 0.14464295 0.9029418 -1.1701864 0.746544 0.8021681 0.016505828 0.58913213
-1.0603493 1.2923635 -0.52993447 -0.9424721 1.3447863 -0.36892924 -1.5597382 0.11831147
-1.6918647 -0.32268336 -0.3288168 -0.018019103 -1.6898941 -1.4039669 -0.022011578 -0.14704975
1.3832986 -0.030049156 -0.7498073 -0.018432127 -1.8992814 -0.6433166 -0.65438306 -1.0239145
0.9142282 0.17485997 0.72640777 -0.7498503 0.6631896 -0.1524466 0.72395825 -1.4708323
-2.1354272 -0.22146368 0.25539213 -0.2198024 0.1984437 1.3268708 0.4287286 1.1594014
0.17443298 0.20700777 0.7121247 1.4811493 -2.017384 0.0011595634 0.20998667 -0.6690779
0.33628717 -0.8337642 1.6402808 0.25875154 0.43973526 -0.43048832 -0.298241 -1.0100251
-0.6648387 0.6433121 1.1463279 -0.3735109 0.18324456 0.21120533 0.0951885 -0.9621027
-2.2336316 -0.7231746 -0.94159526 0.5486777 -0.7775218 0.5814603 -0.9075788 1.5289919
0.40515408 0.7306458 0.42408347 -1.0478778 -0.34549353 0.7954879 -0.0041124565 1.4482466
-1.395677 -0.20016186 -0.467654 0.7379822 2.2930858 1.1208657 -0.6115436 -0.42846343
-1.3241545 -1.883417 -0.14363666 -1.3884786 1.0534655 -0.19472966 -0.0102769565 -0.9103763
2.3755825 1.7261325 -0.20825584 0.17378613 -1.7609247 -2.0572324 -0.6711039 -0.33647707
0.23900878 0.7298007 -0.624063 1.4130462 1.1073585 0.26014632 -0.78875697 0.057715736
0.38333407 0.80316687 0.95072937 0.28319812 0.059768587 1.2764307 1.199929 0.03944392
2.093384 0.86636496 0.63467485 0.32631877 0.29724678 -2.0764875 0.6502779 0.08418537
-2.2147374 -1.7574146 -0.09628496 -0.7223307 -0.10307585 1.383929 0.79674786 0.5458729
-1.1630425 -1.498027 0.039521158 0.056928676 -1.5860004 -1.0476713 -1.331039 0.45713475
-1.8244895 -1.4250367 -0.053178508 -1.5100392 -2.482484 -1.3452108 0.3088252 -0.20164873
-2.1433651 -1.4509634 0.042857982 0.5871194 -0.46188575 0.29403126 -0.17535937 1.7355891
-2.088355 -1.3333523 -0.021768454 -0.17414545 -0.16235931 1.5859591 1.5590868 0.7530747
-1.165518 0.2931411 -0.8346286 -1.5215402 1.8418611 1.7522253 -0.19191062 0.3745439
-0.5435148 -1.6641617 -1.0520694 0.041532047 -1.9740331 -1.6390983 -0.4568908 -0.63677794
1.0706521 -0.45016605 -0.4818713 0.17106627 -0.29032674 -1.1004641 -1.3959022 -0.99174947

fc1.bias f4 [50]
00000000: 071b 483f 8b59 963f a0ac 82bf 5cce 483f
00000010: 25aa 49bf a0b4 41bf 8749 a83f c935 7bbe
00000020: f7c8 8e3f 97d8 233f ebd9 213d deba a73f
00000030: f2a8 613f 6f26 7dbf e9df 713f a327 a53e
00000040: ed2d 973e a617 9f3f d797 2dbf 5d9b 1abf
00000050: 25ff 873f 2b09 2d3f 823d 78be a051 9d3e
00000060: 3c3c 0cbf 9729 173f 81a4 773f 5ac3 30bf
00000070: 4d8b 943f 13a2 7b3f d38e 053f e531 4a3f
00000080: 95a2 973f 3168 163f aaf2 7fbf a3c2 6c3f
00000090: 253e b5be 8740 ebbd 3f0c cbbe 249f 72bf
000000a0: 7b1a e3be e1c9 0ebe 1711 74bf b450 283f
000000b0: bdb6 7fbe fe0d 543f d267 98be 0349 80bf
000000c0: 2fa9 a53f 3a67 863f
0.7816624 1.1746076 -1.0208931 0.7843988 -0.78775245 -0.75666237 1.3147439 -0.24532236
1.115508 0.64002365 0.039514463 1.3103902 0.88148415 -0.9888677 0.94482285 0.32256803
0.29527226 1.2429092 -0.67809814 -0.60393316 1.0624739 0.67592114 -0.24242213 0.30726337
-0.5477941 0.59047836 0.9673539 -0.6904808 1.1605011 0.9829418 0.5217106 0.78982383
1.1846491 0.58752733 -0.9997965 0.9248449 -0.35398975 -0.11486917 -0.3965778 -0.9477408
-0.4435614 -0.13944198 -0.9533858 0.65748143 -0.24972053 0.8283385 -0.2976671 -1.0022281
1.2942256 1.0500252

adv.weight f4 [10, 50]
00000000: 357d 433f 33fe 743f 14bb 16be 18d9 c93e
00000010: fa9d 07c0 f155 0dc0 b930 973f 9326 87be
00000020: 9ae4 423f 0900 103f 06ba a83d 5f13 923f
00000030: 8a97 29bf 4508 8abf e799 ffbd 835b ba3e
00000040: bf11 803f 4789 223f 4db7 f6be 3a60 943e
00000050: 4f24 703f 78e4 143e aa26 41bf 6d15 7fbf
00000060: 9188 c1be db7b 853f 1ee2 f0bf d0ab 1ebf
00000070: bf28 653f 8e6a 803f b5db 77bf 0b8f 5a3f
00000080: f4ab 92bf 11c7 16bf 5998 6bbf f4f5 0c3f
00000090: 8a77 3cbf a26b 7bbb be18 c4be f315 b6bf
000000a0: e4c9 a5bf 3afd 063f 8e0d 10c0 cdd4 00bf
000000b0: 8907 d8bd 0fbf cabf 7c1e 34be dd84 a3bf
000000c0: eaf6 153f 7eec 8e3e 5ca2 2abf b06e 0ebf
000000d0: 70cc 9d3d b5b1 23bf eafc 7fbd a842 163e
000000e0: e4aa 80bf 8678 b0be 8b20 fabe 036a 07be
000000f0: 6cfe 1ebe 9b12 62bf bc77 b6be 641f b2bd
00000100: 37d2 39bf 0de7 dabe 2eaa 6dbe b76c 8bbe
00000110: 7829 193d 1112 07bf 5f9d 1abf ce45 40bf
00000120: 83c9 31bc cf31 b2be 4a63 62be 910a aabe
00000130: 0cc6 4dbf ad50 4cbe 752e 18bf 1a36 3cbf
00000140: 92d5 23be 836e 0dbf dede 58be 5c66 febe
00000150: ccc8 a43d 8065 e9be 2706 fcbd 9b3e 2dbf
00000160: 6593 03bf 69f8 5b3d 8a02 bbbe d0fc 3fbe
00000170: 4c2a 903d b05a c2be be14 19bf 2649 22bf
00000180: 496f 21bf 32be 06be 55c7 febe ae1e bdbe
00000190: e37b 333d 1bed 8f3e c1b9 85be 8886 3ebf
000001a0: 32ec e6be fe16 a9be db89 b6be 4943 9dbe
000001b0: 09b5 3b3e 869f 233e b745 c1be dbca 453f
000001c0: 9223 62bd bdd7 3fbf 2d75 9dbe 8bc2 92be
000001d0: 06f1 f73d d4f6 b73e bff9 eabe 8fd6 0ebe
000001e0: f4db 473e 2ab1 693e 4716 6ebc 4997 ebbe
000001f0: ac05 85bf f2b9 ca3d f908 7ebf 9d68 a0bf
00000200: 1c6e 703e d34e c6be f3f4 493e 43d6 983e
00000210: 3be9 e9bc 70cb dfbe 93a2 09bf d36d 913e
00000220: 9fa1 29bf e99f 9abe 167f 0dbf 5dce e8be
00000230: 51db 51be 7dd5 e0bd a263 06bf 4fee 1b3f
00000240: ac28 1ebf 2215 a8bf b652 b6be a3a5 79bf
00000250: 44a0 ef3e 8b74 80be dabc 0abf 68a6 8fbe
00000260: 5031 9dbe a962 f7be cee5 1f3d 3423 02be
00000270: 0763 443e 724f d0be 8902 10bd a177 e2be
00000280: 9dd0 c3be d19f 39bf 70e8 41bf c2a8 70bd
00000290: a948 33bf 25fe a0be 31e4 c3be 51a9 00bf
000002a0: 7359 dabe 8d80 08bf 3ba8 9cbd 0002 53bf
000002b0: 3720 41be 39c5 41bf 025e 2abe 7301 923c
000002c0: 9e8b 55be bf50 6cbe 4e87 b9be 6aef 9cbe
000002d0: b7e3 14bf 0745 e8be abdd 5ebf e06f 92bd
000002e0: a8e0 adbe 800e 4ebf 0d04 babe 1b3d aebe
000002f0: e4b8 3ebc 17c8 77be c0ae 91be 3047 55bf
00000300: 20b0 36be b46d 18bf 934a e0be 499c 67be
00000310: 0f93 01be 2fa5 a5be 0bd3 45be 8c00 d2be
00000320: 6449 72be eefb d5be 2986 1ebe cd65 1dbf
00000330: 96b8 1abe 6da3 3dbd 9375 1cbf de7f 9bbe
00000340: 7206 0ebf be37 21be ddff 20bf 2b48 08bf
00000350: 92ca 3bbf 7cf5 16be 85d7 4dbf 9b8f babe
00000360: 05e0 99be 9ddc d8be aef2 903d bdd5 0bbf
00000370: 0463 453b 23dc c3be 5a0e a4be 5941 44bf
00000380: d0b6 d1be 3173 87be fc21 46bf 1c2e a9bd
00000390: bf90 12bf 1d3a 00bf e793 c4bd c921 30bf
000003a0: 5d12 2cbf e867 02bf 3671 29be 24ad b0be
000003b0: f0d8 4cbe 1390 a4be 1c0b 03bf 886a 5d3e
000003c0: 560f 69be 87f6 ccbe 92ef 2a3e c8c0 85be
000003d0: 1f1b a6be 7c30 24bf f83e 15bf 807b c2be
000003e0: 8b07 15bf 5ecd a6be 5ed3 7cbe 1e83 3fbf
000003f0: d657 b6be 5db6 93be 50eb bebc 76e2 7b3e
0.76362926 0.9570038 -0.14719802 0.39423442 -2.1190171 -2.2083704 1.1811744 -0.26396617
0.7613007 0.56250054 0.08238606 1.1412162 -0.66246855 -1.0783774 -0.124805264 0.36397943
1.0005416 0.6349072 -0.48186722 0.28979665 0.938054 0.14540279 -0.7544962 -0.9964207
-0.37799504 1.0428423 -1.8819005 -0.61980915 0.895153 1.0032518 -0.9681962 0.85374516
-1.1458726 -0.588975 -0.9202934 0.55062795 -0.736199 -0.0038363715 -0.38300127 -1.4225448
-1.2952237 0.52730143 -2.2508273 -0.5032471 -0.10548312 -1.5839556 -0.17589754 -1.2774922
0.58579886 0.27914804 -0.6665399 -0.55637646 0.07705009 -0.63943034 -0.062497057 0.14673865
-1.0052152 -0.34466952 -0.48852953 -0.13224034 -0.15526742 -0.8830964 -0.35638225 -0.086973935
-0.7258639 -0.42754403 -0.2320945 -0.2723138 0.037393063 -0.5276194 -0.6039638 -0.75106514
-0.010851267 -0.34803626 -0.22108188 -0.33211187 -0.8038032 -0.1995265 -0.5944589 -0.7352005
-0.1599944 -0.5524675 -0.21178767 -0.4968747 0.080461115 -0.4558525 -0.12305861 -0.67673653
-0.5139678 0.0537037 -0.36525375 -0.18748784 0.070393175 -0.37959814 -0.59797275 -0.63392866
-0.6306043 -0.13158491 -0.49761453 -0.3693747 0.04381932 0.28110585 -0.2611828 -0.7442403
-0.45102078 -0.33025354 -0.3565205 -0.30715397 0.18330778 0.15978822 -0.377485 0.7726266
-0.055209704 -0.74938565 -0.3075346 -0.2866405 0.121065184 0.35930502 -0.45893666 -0.13949035
0.19517499 0.22821489 -0.0145316785 -0.4601386 -1.0392356 0.098987475 -0.9923244 -1.2531925
0.23479503 -0.38732013 0.19722347 0.2985097 -0.028553596 -0.43709898 -0.53763694 0.28404102
-0.6626224 -0.30200127 -0.5527204 -0.45469943 -0.20493819 -0.1097822 -0.5249578 0.60910505
-0.6178081 -1.3131449 -0.35609978 -0.97518367 0.4680196 -0.25088915 -0.54194415 -0.28056645
-0.30701685 -0.4831746 0.03903752 -0.12708741 0.19178401 -0.40685612 -0.035158668 -0.44231895
-0.38245097 -0.72509485 -0.75745296 -0.05875469 -0.70032746 -0.31443897 -0.38260034 -0.50258356
-0.4264637 -0.5332115 -0.07649275 -0.82424927 -0.18859945 -0.7569156 -0.16637424 0.017822957
-0.20854041 -0.23077677 -0.36236042 -0.30651408 -0.58159965 -0.45365164 -0.8705699 -0.07150245
-0.33960462 -0.80490875 -0.36331216 -0.34030995 -0.011640761 -0.24197422 -0.28453636 -0.8331175
-0.17840624 -0.59542394 -0.43806896 -0.22618212 -0.12653755 -0.32352588 -0.19318788 -0.41016042
-0.23660809 -0.4179377 -0.15480866 -0.6148346 -0.15109476 -0.046298433 -0.61116904 -0.30370992
-0.55478585 -0.1574392 -0.62890416 -0.5323512 -0.7335597 -0.14742082 -0.8040698 -0.36437687
-0.30053726 -0.42355815 0.070775375 -0.54623014 0.0030118832 -0.38253888 -0.320422 -0.7666221
-0.40959787 -0.26455072 -0.77395606 -0.08260748 -0.57252115 -0.50088674 -0.09598523 -0.6880155
-0.6721552 -0.509398 -0.16547093 -0.34507096 -0.2000463 -0.3214117 -0.51188827 0.2162267
-0.22759756 -0.40031835 0.16692951 -0.26123643 -0.32442567 -0.6413648 -0.5829921 -0.37984848
-0.58214635 -0.32578558 -0.24690005 -0.74809444 -0.35613889 -0.2885007 -0.023305565 0.24598107

adv.bias f4 [10]
00000000: ec92 fd3e 27dc f7be 104d 163e 1f81 e1be
00000010: f7bc 02bf 7b27 17bf 1264 85be 0365 2cbe
00000020: 85df f3be 4324 d33d
0.49526155 -0.4841015 0.14677835 -0.44043824 -0.5106959 -0.5904462 -0.2605291 -0.16835408
-0.4763147 0.10309651

val.weight f4 [1, 50]
00000000: 8946 083d b07c ec3f 9748 b5bf 00ac 563f
00000010: 7499 11c0 1d86 23c0 3c81 ab3f 5de8 23bf
00000020: 4a81 9f3f c3d8 383f b0d9 35bf b343 8f3f
00000030: 1120 833e 2261 a2bf 23a0 08bf 8023 6e3e
00000040: 2214 bbbd b70c acbb f665 cebf 27e0 1ebe
00000050: cd67 103e e702 453f ca49 a6bf 52c9 9cbf
00000060: a858 79bf 57b7 a03f 02dd b7bf 9aae debf
00000070: 10a6 603f d93a 9d3f 8aca e53d 677a de3e
00000080: a868 2dbf d64c 80bf 8b5c 03c0 e9fa 5a3f
00000090: 8460 e0bf 7d7e 29bf 9827 8bbf ca8e 03c0
000000a0: d794 e4bf d928 1f3f d861 1fc0 d542 aa3e
000000b0: 7205 4bbf efe1 ebbf 097a 09bf 5270 cdbf
000000c0: 263d 8e3f 40f6 2bbe
0.033270393 1.8475552 -1.4162778 0.838562 -2.274991 -2.5550606 1.3398814 -0.64026433
1.2461331 0.7220575 -0.7103529 1.1192535 0.25610402 -1.2685893 -0.5336935 0.2325573
-0.091346994 -0.005250539 -1.6124866 -0.15515195 0.14102097 0.76957554 -1.2991269 -1.2248938
-0.97400904 1.2555951 -1.4364321 -1.7397034 0.8775339 1.2283584 0.11220272 0.4345276
-0.6773782 -1.0023448 -2.0525234 0.8553911 -1.7529454 -0.6620863 -1.0871458 -2.0555902
-1.7857922 0.62171704 -2.490347 0.33254114 -0.79305184 -1.8428324 -0.53701836 -1.6049902
1.1112411 -0.16793156
