models/V1_TOKYO_13_07_58_161.pt (torch_old, 4167 bytes, 5 tensors)

fc1.weight f4 [50, 4]
000000 c1 2a 5a 3f f9 78 2f 3f bd db 93 3f eb e2 ed bf
       0.8522149 0.68543965 1.1551434 -1.8584875
000010 73 c5 89 3f c1 61 e3 3f 34 39 da be 5b fc 98 3f
       1.0763382 1.7764207 -0.42621768 1.1952013
000020 1d f2 9f 3f 9f 7a 89 3f 75 35 0b 3f ec 53 e8 bf
       1.2495762 1.0740546 0.54378444 -1.8150611
000030 86 c8 ef 3f 44 9c c0 bf 07 0e ec be b7 12 00 3d
       1.873307 -1.5047688 -0.46104452 0.031267848
000040 19 dc 41 bf 2d 82 a5 bc ba c7 6c bf 2e 17 33 be
       -0.7572647 -0.020203674 -0.9249226 -0.17489311
000050 4b 26 69 be 9d c0 ab bf 24 cf 1e 40 eb 9b 61 3f
       -0.22768514 -1.3418156 2.4813929 0.88128537
000060 8f 89 43 40 5f 2b b9 be d7 7f f2 be e3 9b 16 3f
       3.055271 -0.36165902 -0.4736316 0.58831614
000070 31 46 21 c0 ff 64 4e bf 19 28 4b 3e a2 bd 04 c0
       -2.5199091 -0.8062286 0.19839515 -2.0740743
000080 71 b2 bc 3f 39 b6 ba 3f e1 a3 65 be b3 04 3f 3a
       1.4741956 1.458686 -0.22425796 0.0007286772
000090 48 7f 6a 3f ab 19 86 3e 25 60 b6 3e 66 15 87 bf
       0.91600466 0.26191458 0.35620227 -1.0553405
0000a0 91 ea fb 3e 51 ac 4b 3f 03 ef 15 bf ee 5e 81 3c
       0.49202397 0.7955981 -0.5856783 0.015792336
0000b0 70 71 2c 3e c6 aa ac 3f 96 ad 21 3f c0 ed 81 40
       0.16840148 1.3489616 0.63155496 4.060272
0000c0 fc b7 b0 3f 84 c6 35 40 58 79 1d be f7 ee 82 3f
       1.3806148 2.8402414 -0.1537832 1.0229176
0000d0 fc 2a 65 c0 2b e7 10 3e ff 1f 07 be 54 e9 fb bf
       -3.5807486 0.14150684 -0.131958 -1.9680581
0000e0 5a 95 6e 3f ab 14 06 3f ee f9 90 3f 18 9e 2d 3f
       0.9319664 0.52375287 1.1326272 0.67819357
0000f0 42 c2 14 bf 3c 8c bd be 39 2b e9 be 73 75 45 bf
       -0.58108914 -0.37021053 -0.4554079 -0.7713234
000100 b8 a4 82 3f be cb f5 bd e0 54 12 40 a0 b1 8f 3e
       1.0206518 -0.12001751 2.2864304 0.28065205
000110 c6 b7 f1 3f a9 82 ce 3f 91 1f 31 3f e5 e8 a8 3f
       1.8884208 1.6133624 0.6918879 1.3196074
000120 58 5a 8c bf b4 5e 8c 3f b9 4c 1c bf a0 71 37 be
       -1.0965071 1.0966401 -0.6105457 -0.17914438
000130 96 70 5a c0 8f 54 2b bf 74 73 a8 bf 9d 95 89 3f
       -3.4131217 -0.669259 -1.3160233 1.0748783
000140 f8 6e 40 3f c0 14 b2 3f 49 6b f1 3c 3d 8a 00 be
       0.75169325 1.3912582 0.029470103 -0.12552734
000150 16 3c 26 3f 9d c8 91 3f c2 b1 b5 bd 61 65 d7 3f
       0.64935434 1.1389347 -0.08871795 1.6827813
000160 96 58 7d 3d 71 7c da 3f 3e ae 83 be de 80 92 3e
       0.06185206 1.7069227 -0.25718874 0.28613943
000170 6a 7d f2 3f 5c d5 d8 3f 68 75 fb bd 8e 54 a1 3f
       1.8944523 1.6940112 -0.12278253 1.2603929
000180 1a 25 6a bf 18 34 35 c0 5f 3e 46 be ef 03 6c bf
       -0.9146286 -2.8313046 -0.1935973 -0.921935
000190 8d 0a be 3f a8 1f e9 3e 3b 2d ae be 2a b6 28 be
       1.484697 0.45531964 -0.34018883 -0.1647574
0001a0 89 d9 05 40 9e 53 2b 3f 64 4e a8 bf 3e fd 53 3f
       2.0914023 0.66924465 -1.3148923 0.8280829
0001b0 18 42 05 c0 12 94 bb bf 92 9a 69 bd 30 28 8b bf
       -2.082159 -1.4654562 -0.057032175 -1.0871639
0001c0 d0 c5 a6 3f eb 9e 83 3f 25 e5 7c 3e d8 da a0 3f
       1.3029118 1.0282873 0.24696787 1.2566786
0001d0 f0 80 a8 3e 48 b1 87 bf b5 53 fc bf 30 e5 36 bf
       0.32910872 -1.0600977 -1.9713045 -0.7144346
0001e0 0a de 86 be 47 bd a4 be 47 b8 33 3f da 4c 9d bf
       -0.26341277 -0.32175657 0.7020306 -1.2289078
0001f0 a9 91 72 3d 10 94 e7 3f f2 2a 42 3e 01 d1 4b bf
       0.059220944 1.809206 0.18961695 -0.7961579
000200 c4 64 e6 3f ea 7a 27 40 74 88 e1 be 1e 6d bf 3f
       1.7999501 2.616877 -0.44049418 1.4955175
000210 04 2a fb 3f 28 5a 87 bf cf 56 18 3f de d1 65 3f
       1.9622197 -1.0574389 0.5950746 0.89773357
000220 a6 10 4a c0 ae d5 ea bf a4 27 b0 3d 64 be 95 bf
       -3.1572661 -1.834646 0.08601311 -1.1698728
000230 19 45 81 bd 93 ee 7e 3f de a4 99 3f 51 28 a0 3e
       -0.063120075 0.99582785 1.2003438 0.3128076
000240 60 0c 63 3f 87 9c d2 3f 7f d4 47 3f da c6 fb 3f
       0.8869076 1.6454018 0.7805862 1.967006
000250 e8 35 5d 3d 87 ce 30 bf 9f b0 b3 bf c9 0c 8d 3f
       0.054006487 -0.69065136 -1.4038275 1.1019527
000260 71 2d 11 c0 8c 91 60 bf a3 92 54 be 9d 7d bb bf
       -2.2683985 -0.87722087 -0.20759062 -1.4647709
000270 40 55 aa bf 63 d8 10 c0 e9 ab 7b 3f 00 43 5f 3d
       -1.3307266 -2.2632072 0.9830919 0.054507256
000280 b0 27 12 c0 27 90 55 c0 88 27 93 3e 9c 72 80 bf
       -2.2836723 -3.3369234 0.28741097 -1.0034976
000290 46 08 15 bf 0f 1e cd 3f 5e ba 19 bf 58 96 20 3e
       -0.5821575 1.6024798 -0.6005 0.15682352
0002a0 3f c0 42 c0 d3 8f 5a bf cf 99 55 3f 76 a3 8a bb
       -3.0429838 -0.8537571 0.8343782 -0.004230912
0002b0 be 20 80 bc 94 99 f6 3f d2 87 fe 3f 0a 91 f9 3e
       -0.015640613 1.9265618 1.9885199 0.4874347
0002c0 18 d8 f8 bf 82 20 5d 3f 2e 64 81 bf 6f 74 83 bf
       -1.9440947 0.8637773 -1.0108697 -1.0269908
0002d0 ca c2 b4 3f 8b 55 c6 3f 20 a8 f2 be 8c 55 34 3e
       1.4121945 1.5494856 -0.47393894 0.17610759
0002e0 61 5d e9 3f 5f 31 94 3f 6e 66 cf be 99 72 bc 3f
       1.8231622 1.1577567 -0.40507835 1.4722472
0002f0 c1 87 55 c0 7c 06 e6 bf ee c3 56 bf de 3b fe bf
       -3.3364108 -1.7970729 -0.83892715 -1.986202
000300 e9 54 09 40 8c 73 6d bd 44 55 19 bf 75 ea bc 3f
       2.1458075 -0.057971522 -0.5989573 1.4759051
000310 af a2 aa bf 43 c0 19 bf 51 28 7c bf eb ab 5c bf
       -1.3330897 -0.60058993 -0.9849902 -0.86199826

fc1.bias f4 [50]
000000 5d a1 9e 3f 2f 2e d4 3e 5a 02 60 be c1 7f 5f bf
       1.2392994 0.41441485 -0.21875897 -0.8730431
000010 21 1f 36 be 2e f8 c2 3c a1 a5 e1 be f5 44 1a bd
       -0.17785312 0.023799982 -0.44071677 -0.03766342
000020 42 f1 da 3f 98 44 37 3f 65 95 9a 3f 79 28 c2 3f
       1.7104876 0.7158904 1.2076842 1.5168601
000030 a5 da 98 3e 18 6c 97 bf 3b b0 c9 3f 8b 4f 7e bf
       0.29854313 -1.1829863 1.5756906 -0.9934012
000040 03 32 51 3f 75 86 c9 3e 18 15 06 3f 72 7d 92 bd
       0.81716937 0.39360395 0.52375937 -0.07152833
000050 92 98 31 3f 11 56 98 3f d3 e3 21 3f 86 27 37 3f
       0.6937343 1.1901265 0.6323826 0.7154468
000060 4b d4 75 3d 6c 4e b0 3f d6 6a 76 3f 14 ab 45 bf
       0.06001691 1.3773932 0.9625677 -0.7721417
000070 89 b6 ca 3f fb 98 52 bf 4e 0e cb 3f cc 1e 86 3f
       1.5836955 -0.8226468 1.586374 1.0478148
000080 e6 4f 29 3f e5 fb be 3f 10 88 49 bf ae 86 90 3f
       0.6613754 1.4920622 -0.7872324 1.1291101
000090 b6 be 51 be 6b 52 ce 3f 71 02 d6 be 27 12 3a be
       -0.20482907 1.6118902 -0.41798738 -0.18170987
0000a0 d6 c1 45 bf 97 be 6d bf 95 54 25 3f 75 6e 07 3f
       -0.77248895 -0.9286894 0.64582187 0.5290292
0000b0 a8 04 37 bf 69 34 be bf 27 94 c5 3e a5 8a a6 bf
       -0.7149148 -1.4859744 0.38589594 -1.3011061
0000c0 e5 20 0c 40 7b 51 a2 be
       2.1895077 -0.3170279

adv.weight f4 [10, 50]
000000 5c 8a 00 40 2f 7a 25 bf 0b fc a5 3f c4 85 05 3f
       2.0084448 -0.6463956 1.2967542 0.52157235
000010 84 44 b7 bf 6c 06 73 bf f2 6a 08 bf be ff d7 3d
       -1.4317784 -0.94931674 -0.53288186 0.10546826
000020 4d 3c cb 3e f4 1d 5a bf 80 63 07 3f 3e 44 a6 3e
       0.39694443 -0.85201955 0.528862 0.3247394
000030 11 57 47 bf 48 e8 aa 3e 58 ae e4 bd 37 6a 61 3f
       -0.7786723 0.33380342 -0.11166066 0.88052696
000040 08 1e 5f 3f b0 93 90 bf 52 ab 56 3f 39 07 95 3e
       0.871552 -1.1295071 0.83855164 0.29107073
000050 f8 db af be f8 c0 9d 3f 2f 05 94 3f 7e 7f 31 bf
       -0.3434751 1.2324514 1.1564082 -0.6933516
000060 91 ed 82 bf 53 09 53 3e b5 fc 25 3f 89 2a 23 bf
       -1.022875 0.20609026 0.64838725 -0.6373678
000070 35 71 80 3f bd b1 da bd e7 75 ae 3e 63 b0 28 bf
       1.0034548 -0.10678432 0.34074327 -0.65894145
000080 97 76 d9 be d7 47 8f bf bd 23 2e bf af e8 65 bc
       -0.4247329 -1.1193799 -0.6802328 -0.014032527
000090 0d f9 17 be 1a 67 cc bd 86 2f 4d c0 ec b9 b0 3e
       -0.14841099 -0.099806026 -3.2060256 0.34516847
0000a0 0c 97 7e bf 1e 98 dd 3d 4b 26 ad bf 69 9e b5 3d
       -0.9944923 0.1082003 -1.3527311 0.08868105
0000b0 0a ea ba bf 94 88 ce 3e a1 8d 03 c0 ed 2b 3d be
       -1.4602673 0.40338576 -2.0555193 -0.18473788
0000c0 6a 66 72 3f 71 fe 15 3f 12 aa 99 be 55 52 2c bf
       0.9468752 0.5859137 -0.30012566 -0.6731313
0000d0 d0 aa 3a 3e 20 4e be be cd be 29 bf d4 ae 90 be
       0.18229222 -0.3716898 -0.66306764 -0.28258383
0000e0 3e 30 f3 bd 96 ab 53 bf 63 12 7f 3f ee 0a f1 3e
       -0.11874436 -0.82683694 0.9963743 0.4707865
0000f0 0d ce 40 3f 72 52 0f 3f 21 44 bf bf 95 d2 a0 be
       0.7531441 0.55985177 -1.4942666 -0.3141066
000100 29 b4 58 3e b5 6c b0 be 69 36 c0 3b 23 2a 69 bf
       0.21162476 -0.34457937 0.005865861 -0.9107992
000110 70 ae 49 be 55 f6 08 bf b5 dd 05 3e 35 f2 13 bf
       -0.19695449 -0.5350087 0.13072856 -0.57791454
000120 12 70 8f 3e 2d 7a e9 be 36 53 50 bf f8 48 2c 3f
       0.2801519 -0.45601025 -0.8137697 0.6729884
000130 a7 21 ad be 00 58 aa bf 76 c8 31 3f 99 c0 e3 bc
       -0.33814737 -1.3308105 0.69446504 -0.027801799
000140 34 27 d1 3e 35 03 31 3f 34 11 32 3f dd b9 64 bf
       0.40850222 0.6914552 0.695575 -0.89346105
000150 89 db 63 bf 30 17 10 bf 66 de fb be a7 9f 25 bf
       -0.8900686 -0.5628538 -0.49193114 -0.64696735
000160 2a 0d 6d bd 19 84 08 3f 54 ed 9e bf 91 f4 94 3e
       -0.057873882 0.53326565 -1.2416177 0.2909284
000170 ab ce 0d bf 10 66 12 3f 44 7d 8a bd d5 f8 3d bf
       -0.55393475 0.57186985 -0.06762174 -0.7420781
000180 7c 89 2b bf 48 97 c2 be 07 46 88 3f 43 04 87 be
       -0.6700666 -0.38006043 1.0646371 -0.2637044
000190 10 68 2e 3e 3a 8f 31 bf 90 66 2f 3f a2 2c 57 3e
       0.17031884 -0.6935917 0.6851587 0.2101312
0001a0 ff 23 9d 3e 07 4c 1b be d7 9e 54 bf fa 37 8f be
       0.30691525 -0.15165721 -0.8305487 -0.27972394
0001b0 b5 8d 51 3f 41 23 41 be 2c eb 88 bf e6 d0 d0 3e
       0.8185685 -0.18861105 -1.0696769 0.40784377
0001c0 f4 7a da bf 08 f6 cb 3b f3 83 53 3f 5d cc ec 3f
       -1.7068772 0.0062243976 0.82623214 1.8499867
0001d0 56 f3 86 3e 60 92 b2 bf 20 d4 a1 bf 49 7e f8 be
       0.26357526 -1.395092 -1.264286 -0.48533848
0001e0 bc a3 b4 3f c9 05 f6 3d e7 d0 5d 3f 9d c2 d8 be
       1.4112468 0.12012822 0.86646885 -0.42335978
0001f0 d1 b2 3b bf 3c 4e 7b 3f 74 cb 61 3f 25 46 bb be
       -0.7331973 0.9816625 0.8820107 -0.36576954
000200 60 ba c3 3f 75 32 25 3e 39 7d ae 3e b9 10 0f 3f
       1.5291252 0.16132529 0.34079912 0.5588489
000210 af f6 fa be a5 11 4e bf 82 a4 be bf 0d ba 68 bf
       -0.4901633 -0.80495673 -1.4893954 -0.9090889
000220 60 71 30 be 42 44 42 be 51 48 cd bf 20 22 91 bf
       -0.17230749 -0.18971351 -1.6037694 -1.1338539
000230 f5 1e 99 bf 80 81 93 be a9 44 b5 3e 93 f5 0d 3d
       -1.1962572 -0.28809738 0.35403946 0.034658026
000240 d3 af 87 3e 82 a4 b0 be 2e fa 50 bf 6c f9 f3 be
       0.2650133 -0.3450051 -0.81631744 -0.4765123
000250 bf 11 c1 3e aa 47 10 3f 1f 06 fb 3e db 08 10 c0
       0.37708852 0.5635935 0.49028108 -2.2505405
000260 12 30 eb bf d2 42 94 3e ba c0 3e bf 52 29 13 bf
       -1.8374045 0.2895723 -0.7451283 -0.57484925
000270 a7 da 9a 3f 85 b5 90 3e c0 32 93 3f 81 dd 0c bf
       1.2097977 0.28263488 1.1499863 -0.5502549
000280 4e 9a ea 3f 83 4b 3f 3f 9b f7 10 c0 08 c4 59 bf
       1.832834 0.74724597 -2.2651126 -0.85064745
000290 8d 85 10 40 24 07 a3 3f 3c 47 a7 bf 85 91 fc bf
       2.2581513 1.2736554 -1.3068614 -1.9731909
0002a0 ee 4b 9a 3f 65 2a be bf bc 13 2e be 66 04 12 3f
       1.2054422 -1.4856688 -0.16999716 0.5703796
0002b0 89 02 6e bd 58 b0 0c c0 36 06 d3 bf 19 67 dd be
       -0.058107886 -2.1982632 -1.648627 -0.4324272
0002c0 70 76 3d 3e cc ef 0a c0 d2 55 4c 3f bc 6e 97 bf
       0.18502212 -2.170886 0.7981845 -1.1830668
0002d0 33 1a cc 3e 27 58 66 3f 2d 2f da bf c0 2d 00 c0
       0.39863738 0.8997826 -1.7045647 -2.0027924
0002e0 7a a9 2d be 2b e0 bf 3f 96 07 7b bf 1f 11 77 3f
       -0.16959181 1.4990286 -0.9805845 0.965105
0002f0 47 d7 29 bf 47 d5 0c c0 13 da eb bf 94 88 da bf
       -0.6634411 -2.2005174 -1.8425926 -1.707293
000300 39 4a 67 bf 28 c8 91 3f 41 35 7b bf 5d d2 57 bd
       -0.9034763 1.1389208 -0.98128134 -0.052690852
000310 ca 75 9f bf 1f 9f 57 bf 57 41 09 3f 6b 71 5f 3d
       -1.2457821 -0.84227175 0.53615326 0.054551523
000320 dd 64 20 3f d9 1b f9 be 04 75 d7 be e9 7d f4 be
       0.62653905 -0.4865406 -0.42081463 -0.47752312
000330 5d e3 ba bf e5 a2 bb be e5 71 a8 bf 9b 38 32 be
       -1.4600636 -0.36647716 -1.3159758 -0.17404406
000340 c0 37 3d 3f 1a dc 45 3e 61 0c 8b 3d 4c c5 6f be
       0.7391319 0.19322243 0.067894705 -0.23415107
000350 62 42 9f bf 5e c5 1e bf 49 b5 19 bf 6e 03 45 3f
       -1.2442133 -0.6201991 -0.60042244 0.7695836
000360 d3 7a 99 3e 96 a2 44 bf 2d 90 f5 3e 36 34 12 3f
       0.2997652 -0.76810586 0.4796156 0.5711092
000370 99 81 41 3f 43 70 c6 3f 13 25 a1 3e 00 74 7a bf
       0.75588375 1.550301 0.31473598 -0.9783325
000380 87 f3 b7 3e 6a 18 47 3f f9 19 8a 3f 04 3a 2d 3e
       0.35927984 0.7777163 1.0789176 0.16916662
000390 a7 8f 5b 3f fc c2 a1 3e 57 e3 3d 3e 2d 80 a8 be
       0.8576607 0.31594074 0.18543755 -0.3291029
0003a0 f1 67 14 3e da 07 4a 3f d1 e3 ae bf 76 88 85 bf
       0.14492775 0.7891823 -1.3663274 -1.043227
0003b0 ff 34 a9 bc 9c 0c 9f bf 77 ca 23 bf 66 1b 17 bf
       -0.020655153 -1.2425723 -0.6398081 -0.5902618
0003c0 8f b7 24 c0 02 63 d4 3c 38 b2 72 be 9a 36 df 3e
       -2.5737035 0.025926117 -0.23700798 0.43596345
0003d0 f1 44 83 be 5d 87 35 bf 00 ec 02 bf 9e be 52 bf
       -0.25638536 -0.7090967 -0.5114136 -0.8232211
0003e0 df ce 46 be 9b a5 10 be 23 95 aa be c3 35 75 be
       -0.19414853 -0.14125673 -0.33316907 -0.2394629
0003f0 28 33 0c 3f 87 08 af be 89 fc 23 bf 76 19 9a bf
       0.5476556 -0.34186193 -0.64057213 -1.203902

adv.bias f4 [10]
000000 e4 bf c0 be a0 70 1c 3f 55 c9 6e be ad d5 30 3f
       -0.376464 0.6110935 -0.2331899 0.69076043
000010 ba 8e 31 3f 6a b4 b5 3d f4 54 57 3d d5 f0 e4 bd
       0.6935841 0.08872302 0.052571252 -0.111787476
000020 48 8d 10 bf 6b d6 5a bf
       -0.5646558 -0.85483426

val.weight f4 [1, 50]
000000 89 78 f1 3f f2 6b 2e c0 65 fb 12 bf 9a eb cd be
       1.886491 -2.7253385 -0.5741485 -0.40218812
000010 36 5b ca be ff 40 d8 be dd 7b 1f c0 fc 62 8e bf
       -0.39522713 -0.42237088 -2.491935 -1.1123958
000020 67 e9 9c 3f dc 66 d2 3f 5f 55 94 3f 47 3e 3a 40
       1.2258729 1.643764 1.1588553 2.910051
000030 59 b4 4d c0 53 3b e9 bf 52 e2 f7 3f cc 17 90 3f
       -3.2141325 -1.8221229 1.9365942 1.1257262
000040 a6 fa 22 bf d3 a3 ef bf 5f 95 1d bf b3 60 89 bf
       -0.6366371 -1.872187 -0.6155605 -1.0732635
000050 61 da 5f 3f bd af 19 40 d0 1b 22 3f ea be 1f c0
       0.87442595 2.4013512 0.6332369 -2.4960275
000060 48 61 e8 bf 0a e9 02 40 ae 97 0d 40 11 77 16 c0
       -1.8154688 2.0454736 2.2123828 -2.3510172
000070 f7 cc de 3f 80 53 28 3e 87 e0 59 be 9e b9 f6 3e
       1.74063 0.16438103 -0.21277057 0.4818849
000080 db fd fe bf 8d 91 86 3d 5a 33 5d c0 9d 43 03 3f
       -1.992122 0.0657073 -3.4562593 0.51275045
000090 94 4f 3c c0 8a 5e 2d 3f 4d ad e4 bf 22 e6 20 c0
       -2.942357 0.6772238 -1.7865387 -2.5140462
0000a0 7f 65 39 c0 39 16 28 c0 eb 6a be bf 5f 56 76 3f
       -2.8968198 -2.6263564 -1.4876379 0.9622554
0000b0 a9 a5 c3 bf 5a 92 4c 3f 7e 15 b7 bf 67 ba 09 c0
       -1.528493 0.79910815 -1.4303434 -2.152002
0000c0 c4 42 df 3f 7b e0 a2 bf
       1.744225 -1.2724756
