models/V1_TOKYO_06_33_01_161.pt (torch_old, 4167 bytes, 5 tensors)

fc1.weight f4 [50, 4]
00000000: 7d1f 05bf c937 e2bd 917a 5b3f 9719 9abf
00000010: f350 813e cbac 473f 778f cd3d 37ce 6f3f
00000020: aa6f 1fbf 2855 9e3f af22 3fbf 436c 83bf
00000030: 434b f53f f0c6 87bf c14f b8bf 0cc6 2c3e
00000040: bc6d b4bf 692d 6bbf c87b c9bd 7c1d 89be
00000050: 530c b3bf 90d5 b4bf 771f 3a3d 91df acbd
00000060: 27a3 763f 7352 5dbe 8d8b 54bf f29f 223e
00000070: 28ce c6bf 29c0 0dbf ad36 86be 44ea 7cbf
00000080: 9334 d93e d61c 843d 565d 4b3f 822a 55bf
00000090: 7373 ad3e b806 f8be 3654 193f 559b 9cbf
000000a0: 492c f4bf 38b5 ccbe ef93 ebbe 93c2 863e
000000b0: 715e f43a 0182 ca3f 1dc6 e43e 4a37 943f
000000c0: 62ad 483f f16d ae3b 027c 833f bf60 8d3f
000000d0: b461 e9bf 2c14 183f b7d0 a43e 8104 5ebf
000000e0: 87e2 1d3f 1477 19bf 9300 d33f 6c4b 5e3f
000000f0: c7eb 9abe bcab 82bf 2cfb bcbe eef7 a5bf
00000100: 35ba dabe a6b1 833f 45c0 753f 9f4a b03e
00000110: 6ae3 213e d8c8 8f3e a986 9b3e cb10 13bf
00000120: 3283 eebf 27ad 2dbf 31dc 51bf 42b3 5f3e
00000130: 27c0 17bf c356 093f 4ae7 bfbf 4e27 8cbe
00000140: b2a4 733e 4774 123f 8e18 b63e 9a0c 51bf
00000150: b6f5 1f3d 6d41 713f a8e6 0d3d b736 be3f
00000160: 6d71 9dbf f6a2 943e 86ab 9cbe 32e4 653f
00000170: ea48 333f 96e3 6c3e b136 34bf 0eb0 bebf
00000180: ec37 a0bf eefc e3bf a6d1 ccbb d4c3 a1bf
00000190: 0e04 163f c08c 97be 02ff 9cbe 478a fdbe
000001a0: 0928 273f c264 ab3e 7fd9 0abf d7dc b6bf
000001b0: dce1 d1bf 575d eebf 8014 4abe f76c f1be
000001c0: 45fc fd3e 27af 253f b362 70bf 24a3 dd3f
000001d0: 1e52 153f 541e 1f3d 1d39 40bf 52a5 923e
000001e0: e5f0 e6bb 7ab0 0e3e 07f4 233f cd7a 913d
000001f0: 4ad0 3e3e bdaa 5f3f d6cd aa3f e773 cb3e
00000200: 7b68 0d40 66d9 0840 8b3d 1e3f 6636 5f3f
00000210: ac95 353f e5f3 abbf 2c30 0b3f 1e0b d73e
00000220: c9d9 0ac0 8059 c4bf c02b 893d 679c 25bf
00000230: d601 2bbd cf90 a13f 328b 213f 261a 2e3f
00000240: 9b7f 9bbf 1fc0 1abf ce0e 143e 3334 123f
00000250: 4d27 b1bf 829a 76bf 83f2 5ebf 46ec a93e
00000260: 3830 aebf 1a8a 98bf e239 32be 3369 bcbf
00000270: f879 12c0 b311 acbf d986 833e 457b 0dbf
00000280: 56b2 01c0 08f6 82bf 00b7 e23d 1719 783f
00000290: 83dc 9ebe 7c5c 913e 8c16 50be 65ff ce3f
000002a0: a57a e9bf bd9b 9cbf 08f6 a2b7 1b62 dfbe
000002b0: dde7 5f3e 9507 a23f e787 a43f 2804 623f
000002c0: 51d8 5abf 81e7 563e 1fba 18bf 5567 c9bf
000002d0: fac6 0a40 6829 e43f 5ad1 e3bd 6175 373f
000002e0: 3414 be3e 5a9e bcbf f89e 94bf b48e 7ebe
000002f0: b9ef f7bf 374a d2bf fb0e 83bd 6319 02bf
00000300: cf13 023f 181e 29bf 3ab1 37bf f8e0 673e
00000310: 1819 903d 7d52 90bf 3bae 43bf 589b 77be
-0.5200117 -0.110457964 0.85733896 -1.2039059 0.25257072 0.77998036 0.10037129 0.93674034
-0.6227976 1.2369738 -0.746623 -1.0267414 1.9163593 -1.0607586 -1.4399339 0.16872424
-1.4095988 -0.91866165 -0.098380625 -0.26780307 -1.3988136 -1.4127674 0.045440163 -0.084410794
0.963427 -0.21613483 -0.8302544 0.15881327 -1.5531664 -0.5537134 -0.2621359 -0.9879496
0.42422923 0.064508125 0.79439294 -0.83267987 0.33877143 -0.48442626 0.5989412 -1.2234904
-1.9076015 -0.3998201 -0.46011302 0.26320323 0.0018643868 1.5820924 0.44682398 1.1579373
0.7838956 0.0053231646 1.0272219 1.104515 -1.8232942 0.5940578 0.32190487 -0.8672562
0.6167378 -0.59947324 1.648455 0.86833835 -0.3025801 -1.0208659 -0.3691038 -1.2966287
-0.4272019 1.0288589 0.95996505 0.3443193 0.15809408 0.2808292 0.30376175 -0.574475
-1.8633788 -0.67842335 -0.8197661 0.21845725 -0.59277576 0.5364801 -1.4992459 -0.27373737
0.23793295 0.57208675 0.3556561 -0.81659853 0.039052688 0.94240457 0.0346438 1.4860448
-1.230024 0.2903058 -0.30599612 0.89801323 0.70033133 0.23133692 -0.7039595 -1.4897478
-1.2517066 -1.7811563 -0.006250578 -1.2637887 0.58599937 -0.2959957 -0.30663306 -0.4951956
0.65295464 0.3347531 -0.5423812 -1.4286145 -1.6397052 -1.8622235 -0.19734383 -0.47153446
0.4960653 0.64720386 -0.93900603 1.7315412 0.58328426 0.038847283 -0.7508715 0.28641754
-0.00704776 0.13934508 0.6404423 0.071035005 0.18634143 0.873699 1.3344066 0.39736864
2.209502 2.138269 0.6181266 0.8719238 0.70931506 -1.3433806 0.5437038 0.4200067
-2.1695426 -1.5339813 0.06697798 -0.64691776 -0.041749798 1.2622317 0.6310302 0.6800865
-1.2148317 -0.60449404 0.14458773 0.571109 -1.3840119 -0.9632951 -0.87088794 0.33188075
-1.3608465 -1.1917145 -0.17404893 -1.4719604 -2.2886944 -1.3442901 0.25688818 -0.5526622
-2.0265098 -1.0231333 0.11070061 0.96913284 -0.31027612 0.28390872 -0.20321101 1.617169
-1.8240553 -1.2235028 -1.9426472e-05 -0.43629536 0.21865793 1.2658564 1.2853974 0.8828759
-0.8548632 0.20986749 -0.59659 -1.573466 2.1683946 1.7825136 -0.11123915 0.7166348
0.3712479 -1.4735825 -1.1611013 -0.24859124 -1.9370033 -1.6428899 -0.06399342 -0.5081999
0.50811476 -0.66061544 -0.717548 0.22644413 0.07036036 -1.1275173 -0.7643773 -0.24180353

fc1.bias f4 [50]
00000000: 4a0c 583f 5192 743f fcf6 7dbf c2a7 043f
00000010: f562 27bf af7a 43bf 993a a03f 8593 e6be
00000020: c46b 953f b2f8 773f 5f81 b73e e621 9c3f
00000030: 3c71 173f 31dc 3fbf e7c8 173f 547e 8c3e
00000040: e4e8 8dbe f79c b03f a342 a4be a871 6abf
00000050: 89a5 9e3f a71b 183f 6c03 8f3e 549d 893e
00000060: 2fd3 f4be 3d55 5a3f ae10 c53e 0e60 2ebf
00000070: a369 863e 76ea 743f 2900 5f3f 1025 383f
00000080: b2c0 a93e e9f1 353f 2116 84bf db1c 683f
00000090: 16f9 0b3d 39c7 c93d 509a 88be f058 4fbf
000000a0: ce4d 72be f8ca 8dbe de23 59bf ea45 2c3f
000000b0: a0dc a3be 3c79 1c3f fb81 8f3e b5c8 69bf
000000c0: 3b25 9a3f fd75 903f
0.8439375 0.9553576 -0.99204993 0.5181848 -0.6538537 -0.76359075 1.2517883 -0.45034423
1.1673512 0.96863854 0.3584089 1.2197845 0.59157157 -0.7494536 0.5929093 0.2744013
-0.27716744 1.3797902 -0.3208209 -0.91579676 1.2394267 0.59417194 0.27932298 0.26877844
-0.4781737 0.85286313 0.38489288 -0.6811532 0.2625247 0.9567026 0.8710962 0.7193155
0.33154827 0.7107225 -1.0319253 0.9066903 0.034173094 0.09852452 -0.2668023 -0.8099508
-0.23662493 -0.27693915 -0.84820354 0.6729418 -0.3200426 0.6112249 0.28028855 -0.9132188
1.2042612 1.1286007

adv.weight f4 [10, 50]
00000000: bbe0 243f 08ff 283f 406e a5be 4646 c8be
00000010: 2001 f6bf de68 cfbf c43f 1f3f bccf 8ebe
00000020: 61e0 233f 36dd 9a3e 63d0 1cbd 504e 393f
00000030: e2ca 97bc 47d7 8ebf e681 033f d438 1ebd
00000040: 41d8 e23e e73b 383f 38e2 f4bd 4269 3abe
00000050: c0c7 483f c9f5 663e 419f a4be 7147 b83e
00000060: 2150 3abf 3186 3f3f e4d1 bdbd 8e69 88be
00000070: 833a 423f 395b ff3e ec26 f13e 2117 d9be
00000080: 9752 7abf 144f 85be 818e 95bf c894 fb3d
00000090: 58a8 81bc 0e51 4fbd e3f7 99be b728 87bf
000000a0: c0d2 38bf 5e82 9b3e e85a e8bf 5fc4 07bf
000000b0: 7bad 4fbe e33d bbbf 13ac 7fbd d046 9cbf
000000c0: 7134 543e 11fa bc3e 4281 46bf e6fb cfbe
000000d0: cf8e ce3d b682 e8be 10c2 93be 6739 a2be
000000e0: 1d5a 2cbf 55b3 9bbe 5d65 0abf 8c02 b7be
000000f0: 09a9 c2be cd5b 3bbf a5fc 62be 907b 9ebe
00000100: 592b 0abf 9200 2cbf 90ba 5bbd 251f 98be
00000110: 42ff ccbd 313c c6be 49dd 1ebf 5a82 42bf
00000120: 52da 9dbe 4fa3 8fbd 0194 61be b8bd c6be
00000130: a937 10bf 224d 39be 3265 a7be bf1a b0be
00000140: 42cf 21be 4029 d6be 58be 30be 35f0 ffbe
00000150: 61af b23c d1ae b5be ecb4 0cbf ea15 22bf
00000160: 3b04 14bf bab2 88be 2141 77bf 5244 37be
00000170: 5f81 75be a984 88be 87f2 17bf 0896 32bf
00000180: 2775 15bf 9fdf 4fbe c068 a7be 4408 ccbe
00000190: ec4e 543e 0fa0 903e 37ec cc3d 7b48 32bf
000001a0: 5f86 81bf 79cb 03bf b28a 21be 18cd b63c
000001b0: 5c06 463e acd6 ce3e 4fc1 4bbe 8fb2 3d3f
000001c0: e1c3 f3be 624c fbbe aa6f a7be 6e5e cabe
000001d0: d28f 61be 689a 3e3f 3f88 93be ee66 dfbd
000001e0: 077f f83e f417 2a3e 5699 593e 35f0 223d
000001f0: cf88 92bf 5968 be3e bb4b 97be 01de e1bf
00000200: 3cfb 89be 7b6c 033d 85a2 8f3e f935 943e
00000210: c61f 13bf d7dd ecbe d262 69bf 973f 823e
00000220: 49c3 2cbf 80cb d1bc acaf c7be 4aab edbe
00000230: b431 b3be d89e 0f3e 97cf 50bf e14f fe3e
00000240: 8e95 ddbe 8e7e bfbf ee62 c6be 1c91 cbbf
00000250: 8281 e33e 59f3 f63d 3f5a 20bf 681a 17be
00000260: 2caf 61be 8f66 c2bd e3fe a7be 4863 29bf
00000270: 4bd1 d63e 77eb e3be 12a4 e93d f6d7 e4be
00000280: 8c6f 37bf 0972 36bf d88f 10bf 8cca 83be
00000290: 018a 19bf 839e cabe 73b3 b3be a1de e3be
000002a0: 64d7 3bbf 9987 1cbf c9fe 3a3a 8d7d 46bf
000002b0: f817 16bf 6367 7cbd cd9e 13be 6b68 663e
000002c0: 41f5 cf3e 58c0 b0be 1b15 21be e780 22be
000002d0: 7a91 10bf bc4f babe 7b45 36bf 3551 863d
000002e0: bb9b 16bf 7fee 46bf 42bf 4cbf 18bc c0be
000002f0: c380 d2bd 222f 33bf b6b1 80bf 60f6 5dbf
00000300: ed37 2abf a719 10bf 8816 d5be 25da 4bbe
00000310: eb5f 21bc fae9 03bf b8fd 64bd 6c68 acbe
00000320: 6620 f5be b427 f8be 42a2 81be 52df 33bf
00000330: b0b2 5ebe 4d8a c3be 0b51 23bf 3f06 b4be
00000340: e175 17bf 76d5 c3be db01 6cbf 1330 13bf
00000350: dfd5 09bf 4249 d3be b776 28bf 21f4 f8be
00000360: a5fa 82be b438 31bf f96e 07be 53b7 d1be
00000370: f671 90be 5eee c8be 28a7 3dbf d090 62bf
00000380: 3910 c4be ae74 d2be 85b2 5abf a049 debd
00000390: 9970 0ebf 113f fdbe 2d46 f8bd 2a68 35bf
000003a0: a5d4 2abf 2971 0fbf 233a 36be e9c6 dcbe
000003b0: 75cb 1abf f21a cebe 57e8 1dbf 7f72 c6bd
000003c0: 7d1f 46bf bf68 d8be 08a2 9dbd dbfc b6be
000003d0: 8c31 d3be e630 23bf 89c6 2dbf 1d47 cbbe
000003e0: 3d22 26bf 0273 fabe 2e5d fabe c5af 3abf
000003f0: 52f8 afbe fc70 a7be 2464 3ebc 98f4 cf3d
0.6440541 0.66014147 -0.32310677 -0.39116114 -1.9219093 -1.6203878 0.62206674 -0.27892864
0.6401425 0.30246896 -0.03828467 0.7238512 -0.01852936 -1.1159447 0.51370084 -0.038628414
0.44305614 0.71966404 -0.1195721 -0.18204215 0.78429794 0.22554697 -0.3215275 0.35992005
-0.72778517 0.74814135 -0.09268549 -0.26643032 0.7587053 0.49874285 0.47100008 -0.42400458
-0.9778227 -0.26036894 -1.1684114 0.12284237 -0.015827343 -0.05061441 -0.30071935 -1.05593
-0.7219658 0.303729 -1.8152742 -0.53034014 -0.20281021 -1.4628261 -0.062419962 -1.220911
0.2072313 0.36909536 -0.7754098 -0.4062187 0.10085832 -0.45412225 -0.28858995 -0.3168442
-0.67325 -0.30410257 -0.5406092 -0.3574413 -0.3801959 -0.7318695 -0.22166689 -0.30953646
-0.53972393 -0.6718837 -0.053644717 -0.2971126 -0.10009624 -0.38717797 -0.62056404 -0.7598015
-0.30830628 -0.070135705 -0.22029115 -0.3881662 -0.5633493 -0.1809583 -0.32694393 -0.34395406
-0.15801719 -0.41828346 -0.1726011 -0.4998795 0.021812143 -0.35484937 -0.54963565 -0.6331469
-0.57818955 -0.26698858 -0.96583754 -0.17897156 -0.23975132 -0.26663712 -0.5935444 -0.6976018
-0.58381885 -0.20300148 -0.32697105 -0.39850056 0.20733231 0.28247115 0.10005992 -0.69641846
-1.0119132 -0.5148235 -0.15775564 0.022314593 0.19338363 0.40398157 -0.1989796 0.74100584
-0.4761038 -0.49081713 -0.3270238 -0.3952517 -0.2202752 0.74454355 -0.28814885 -0.10908304
0.48534414 0.166107 0.212499 0.03977986 -1.1448001 0.37188986 -0.29549965 -1.7645875
-0.2694949 0.032085877 0.2805368 0.28947428 -0.5747036 -0.46263 -0.9116641 0.2543914
-0.6748548 -0.025609732 -0.39001215 -0.46419746 -0.34998858 0.14025438 -0.81566757 0.49670318
-0.43278164 -1.4960496 -0.38747352 -1.5903659 0.44434744 0.12058134 -0.62637705 -0.14756167
-0.22039479 -0.09492218 -0.3281165 -0.66167116 0.41956553 -0.44515583 0.11408247 -0.44696015
-0.7165458 -0.71267754 -0.5646949 -0.25740469 -0.599762 -0.3957406 -0.35097846 -0.4450579
-0.73375535 -0.61144406 0.0007133303 -0.77535325 -0.58630323 -0.061622035 -0.14416046 0.2250077
0.406168 -0.34521747 -0.15730707 -0.15869485 -0.5647198 -0.36388958 -0.7119977 0.06558458
-0.58831376 -0.77707666 -0.79979336 -0.37643504 -0.102784656 -0.69993794 -1.0054233 -0.86704063
-0.66491586 -0.5628914 -0.41618752 -0.19907434 -0.009849529 -0.51528895 -0.055906028 -0.33673418
-0.4787628 -0.4846779 -0.25319105 -0.70262635 -0.21747851 -0.38191453 -0.63795537 -0.35161015
-0.59164244 -0.38248795 -0.9219033 -0.5749523 -0.53841966 -0.4126683 -0.65806144 -0.48623756
-0.25581852 -0.6922715 -0.13225926 -0.40960178 -0.28211945 -0.3924436 -0.74083185 -0.88502216
-0.38293627 -0.41104645 -0.8542865 -0.108538866 -0.5564056 -0.49462178 -0.1212276 -0.70862067
-0.6673072 -0.56032044 -0.17795615 -0.43120506 -0.604667 -0.40254933 -0.6168265 -0.09689807
-0.773918 -0.42267415 -0.07696921 -0.35739788 -0.4124874 -0.6374649 -0.67881066 -0.39702693
-0.64895993 -0.4891587 -0.48899215 -0.72924453 -0.3436914 -0.32703388 -0.011620555 0.101540744

adv.bias f4 [10]
00000000: 5014 de3e be33 fabe f87f ba3e e587 e5be
00000010: c88f 25bf 9c8d 30bf 86a9 d5be 666e f6be
00000020: e2a8 10bf d5d2 9f3e
0.43374872 -0.488676 0.36425757 -0.44830242 -0.6467252 -0.6896608 -0.417309 -0.48131102
-0.56507695 0.3121554

val.weight f4 [1, 50]
00000000: 4b15 f83d 9e0c b23f e1f1 bdbf ae64 4c3e
00000010: cc7a 0ac0 32e0 f6bf 2a5c 5d3f fafa 00bf
00000020: ff32 7b3f eb1d 1f3f 9c4b febe 663b 703f
00000030: 4375 47bd 265b 6ebf ebdd a6be 878a bcbe
00000040: 7cdd d9be bbdf e13e 9c5a 58bf 156b f9be
00000050: 8fed b23e 7911 173f aa13 fcbe 4cba 823e
00000060: ad8f 98bf d9f7 623f 0ec2 ac3e 4aea aabf
00000070: 4925 d83e 1ff8 3c3f 6f9f 553f 841a 40bb
00000080: d2bf 9dbf f686 1ebf 1f86 0dc0 4073 2b3f
00000090: 69dc 1fbf 1f27 c9be a680 43bf f581 c9bf
000000a0: 8286 74bf a03c fe3e 6d74 04c0 1013 d93d
000000b0: 2245 3cbf 91ef f6bf 68a4 bfbd fd38 cbbf
000000c0: d4d1 543f e3a9 383e
0.12113436 1.39101 -1.483944 0.19960281 -2.163745 -1.9287169 0.86468756 -0.5038296
0.9812469 0.62155026 -0.4966706 0.93840635 -0.048695814 -0.9310783 -0.32591185 -0.36824438
-0.42551792 0.44116005 -0.8451326 -0.4871451 0.34946868 0.59011036 -0.49233752 0.25532758
-1.1918846 0.88659436 0.33741802 -1.3352749 0.42215946 0.738161 0.834464 -0.002931268
-1.2324164 -0.61924684 -2.211311 0.6697273 -0.62445694 -0.3928766 -0.76368177 -1.5742785
-0.9551774 0.49655628 -2.069606 0.10599339 -0.7354299 -1.929186 -0.0935753 -1.5876766
0.8313267 0.18033557
