models/V1_TOKYO_13_46_32_161.pt (torch_old, 4167 bytes, 5 tensors)

fc1.weight f4 [50, 4]
00000000: 5d5b c83e 5a4b bc3d 6417 8c3f a8d2 5abf
00000010: 12be 4d3e c431 de3e 2170 743b 7e0d 173f
00000020: a033 00bf 7398 603f 9cce 26be 00f5 63bf
00000030: f96b 6a3f f6ad 3fbf 9302 b3bf 4c6a 413e
00000040: 96fe febe 01b0 a53e 9a0b f13d 805f 643f
00000050: 10f7 463d e68e 58bf c4ee 1b3f 21bc 163f
00000060: a065 7c3f b66c 0dbd 393b 69bf 685f cabd
00000070: 283c c1bf 5a34 fa3d d315 63be d0fe 7dbf
00000080: fab8 0e3f d6b1 a93e 336d 5c3f bc59 14bf
00000090: e8d7 813e 83b0 6cbf 21a7 cd3e 40dc 86bf
000000a0: 57d2 99bf 70cb 073e 483d ff3e f5ec 54be
000000b0: 57f5 7abe f75e b83f d321 3d3f 1545 223f
000000c0: e262 0a3f fa09 c3be e52b 6a3f e5e2 6c3f
000000d0: 8077 a2bf 91df 973e 3ad6 373f 5a85 66bf
000000e0: 5f99 a73f fe44 3ebe 9a2e 723f 3a33 103f
000000f0: e165 21bf e580 28bf 2eaa 23be 97c8 52bf
00000100: 490a 7a3e 14dd fe3e fae0 7f3f 8ca2 b0bd
00000110: 1656 793e 513a 0c3f 6cb1 803e 7a4f 62bf
00000120: 1db0 d7bf a27e bfbe 7b24 f9be 9dd5 c33e
00000130: 74d5 7bbf a5ce 263f ac9a 5bbf d8d4 853f
00000140: b6c0 a83d 045e a03f 2c0d b83e cad6 68bf
00000150: 3e19 90be 3539 943f 16a4 a33d a092 2b3f
00000160: 0574 24bf d194 393e fbee d0bd 22be 0a3f
00000170: e0b3 153f fedf 483f 2d87 2fbf 5100 cabf
00000180: a9a3 50bf 9c3c 91bf f424 7d3c 2328 a8bf
00000190: 6e97 043f b2e7 eebd 43cf f5be 225a 68bf
000001a0: 3a52 ca3e 8209 873f 67f4 0ebf 723e a0bf
000001b0: 2e2d 8ebf 4be9 a8bf f729 17be 1f46 b5be
000001c0: 3665 a33e 6213 333f 8f51 61bf f889 893f
000001d0: 6193 1a3f dacd 963e 46e1 5ebf 3215 48be
000001e0: 887a aa3e fd62 fabd fc7a 3c3f ec64 99bd
000001f0: 868a 993e 4a26 893f 9d60 873f cb31 2cbc
00000200: f203 0240 ba10 d73f 41cb d73e ce43 953f
00000210: b7b1 b73f 1d96 4b3e 1886 683e 73bb 953d
00000220: c2a6 c6bf ff2d aabf 05cb 183e f533 32bf
00000230: efc7 d1bd 093b 603f 1f42 813f aec6 113f
00000240: c512 5bbe 365a ecbe 10e9 a23d ba32 3b3f
00000250: 2061 12bf 2525 e3be 4344 96bf 45be 2d3f
00000260: a49a a6bf aef1 4bbf 939a 183e b475 b3bf
00000270: 50ba e8bf 0785 3abf 4a9b d23e 4503 10bf
00000280: 4b69 2ebf 90c9 90bf faa8 be3e f8b8 a23f
00000290: 1a30 35bf cb6f 273f 757f f83d d4fc b03f
000002a0: 8fdc bbbf 79fd 8bbf 4195 473e 5dfd cfbe
000002b0: 6596 823e 73c1 783f 0d64 9b3f b1b1 0f3f
000002c0: 0b17 32bf 7853 683e 9831 0abe 26c9 8cbf
000002d0: 0cf1 cf3f ce7a b83f a0a9 35be 607e 953f
000002e0: e508 0c3e b194 87bf edd7 6bbf ae69 423d
000002f0: d14c a1bf 9fe1 90bf 394f f1be 19ea 4bbf
00000300: 38c5 083f 5933 39bf ff49 11bf dc19 c73e
00000310: a4b8 4b3e c6f5 90bf 8e3c 4abf bead 02bf
0.39132205 0.0919406 1.0944638 -0.85477686 0.20092037 0.43397343 0.003729828 0.5900496
-0.50078773 0.8773262 -0.16289753 -0.89045715 0.91571003 -0.7487482 -1.398516 0.18888205
-0.4980361 0.32360843 0.11769791 0.8920822 0.04857546 -0.84593046 0.609112 0.5888081
0.9859257 -0.034527503 -0.9110599 -0.098814785 -1.5096483 0.122170165 -0.22176294 -0.9921694
0.55751 0.3314349 0.86104125 -0.57949424 0.25360036 -0.92456836 0.40166572 -1.0535965
-1.2017316 0.13261199 0.4985144 -0.20793517 -0.24507652 1.4403981 0.73879737 0.6338666
0.54057133 -0.3809355 0.9147323 0.92533714 -1.2692719 0.29662755 0.7181126 -0.9004723
1.309368 -0.18581006 0.9460236 0.56328166 -0.6304608 -0.6582168 -0.15982887 -0.82337326
0.24417986 0.49778044 0.9995266 -0.08624753 0.24349245 0.54776484 0.25135362 -0.8840252
-1.685062 -0.374013 -0.48660645 0.38248911 -0.9837258 0.65159065 -0.85782886 1.045558
0.08239882 1.2528691 0.3594755 -0.9095274 -0.28144258 1.1579958 0.07990281 0.67020607
-0.6423953 0.18123175 -0.10201832 0.5419637 0.5847759 0.78466785 -0.68565637 -1.5781347
-0.81499726 -1.1346622 0.015450705 -1.3137249 0.51793563 -0.11665286 -0.4800969 -0.9076253
0.3951586 1.0549777 -0.5584168 -1.2519057 -1.1107538 -1.3196195 -0.14762102 -0.3540506
0.31913155 0.6995145 -0.88015074 1.074523 0.6038113 0.29453927 -0.8706249 -0.19539335
0.3329661 -0.12225912 0.7362516 -0.074899524 0.29988497 1.071481 1.0576359 -0.010509918
2.0314908 1.680198 0.42147258 1.1661317 1.4351109 0.19881482 0.22707403 0.07311144
-1.551964 -1.3295287 0.14921196 -0.6961053 -0.102432124 0.8759008 1.0098304 0.56943786
-0.21393879 -0.46162575 0.079546094 0.7312428 -0.5717945 -0.44364277 -1.1739582 0.67868453
-1.3015943 -0.7966565 0.14902715 -1.4020295 -1.8181858 -0.72859234 0.411341 -0.5625499
-0.68129414 -1.1311512 0.37238294 1.2712698 -0.7077652 0.6540496 0.121336855 1.3827157
-1.4676684 -1.0936729 0.1949053 -0.40622988 0.25505367 0.9717018 1.2139908 0.5613051
-0.6956641 0.22688091 -0.13495481 -1.0998886 1.6245437 1.4412477 -0.17740488 1.1679192
0.13675268 -1.0592252 -0.9212635 0.047464065 -1.2601568 -1.1318854 -0.47130755 -0.7965408
0.5342593 -0.72343975 -0.56753534 0.38886917 0.19894654 -1.1325004 -0.7899865 -0.5104636

fc1.bias f4 [50]
00000000: 443d 563e 4975 d13e 607f 82be 792e a93e
00000010: 4d70 94be 60fd 95be 2fe9 1f3f 9b83 8b3e
00000020: 8d4b c83e 5e8c 183f c5c2 ac3e d57a f53e
00000030: 1743 dcbd 194a 34be aa51 4f3e 4473 cf3c
00000040: 4208 dd3d 5535 d43e a576 5bbe 9753 09bf
00000050: 4c1e b23e 4b3b f3bd df4a b83b 646a 073d
00000060: 110b ef3d 94ea 2a3e f1aa eb3d 0d9c 8cbe
00000070: 8ad8 5d3e 6e2c ac3e a59b ccbc 0c69 d33d
00000080: 8e16 843e 5b17 593e c92d 43be fade 8f3d
00000090: 7521 7dbe 9fec f73e e74c 623e 4134 1fbe
000000a0: 4bcf 16bd ecb2 f5be d611 6cbe 991e 15bd
000000b0: 0199 b33d e49f eb3c 4900 d9bd 111f 91be
000000c0: 2da0 203f c1a6 ce3e
0.20921808 0.40909794 -0.25487804 0.33043268 -0.2899193 -0.29294872 0.62465185 0.27248845
0.3912014 0.59589183 0.33742347 0.47945276 -0.10754984 -0.17606391 0.20245996 0.025323518
0.10792591 0.4144694 -0.21431978 -0.5364317 0.3478874 -0.118765436 0.0056241597 0.033060446
0.116720326 0.16691047 0.11507214 -0.27462807 0.21664634 0.33627647 -0.02497656 0.103227705
0.25798458 0.21200316 -0.19060434 0.07024951 -0.24719794 0.48422715 0.22099648 -0.15547277
-0.036818784 -0.4798807 -0.23053679 -0.036406133 0.087694176 0.028762765 -0.105957575 -0.28344014
0.6274441 0.40361598

adv.weight f4 [10, 50]
00000000: 477b 7c3e 9a48 33bd b457 393e cb17 d5bd
00000010: 5a39 3bbe 8c29 42be e9a3 6f3e 03a5 c1be
00000020: 3597 01be 7ac4 b03d e448 cc3d c618 093e
00000030: ee8d d7bd 36b6 7fbe 774c 8c3e 016b 41bd
00000040: 96c6 8f3e 52d0 163e 1c1d d83d 3540 383e
00000050: 3a75 c03e 427b 08bd e175 32be 0d3c 9c3e
00000060: 0cce 82be 6853 e23e 67fc f6bd aba2 5ebe
00000070: 2e4f 863e 6c2e 333e c41a 99bd 623d 11be
00000080: 05af a8be cf14 7dbe 5f20 b8be 494a 3abe
00000090: a8de d83e e2ab 07bd 7e30 b0be 444d c6be
000000a0: 85f3 c63c 4451 b53e 4c3e 14bf 9729 06be
000000b0: 5a38 35be f33e f8be fcec b4bd f5e5 eabe
000000c0: e519 14be 10e3 b23d ef7c 3ebe eb92 1e3e
000000d0: 3930 613e edc2 dc3d 103f c6b9 f172 ddbc
000000e0: 123f 3abe 39ee d0bd f467 d0bd 8717 2c3e
000000f0: 8bcc d23d ab19 02be aa71 53bd 2af1 94be
00000100: 6978 a1be 64f3 b2be a000 163e 376c 073f
00000110: 8d54 013d 4941 51be 1f69 b33d 01df 45be
00000120: 069b 463e 9071 de3e 7a06 1fbe 513d a33d
00000130: 1e9b ddbd d44d 98be 49ed 043e fdd9 db3d
00000140: e5a0 8d3e 3cab 18bd a64a d73c 3b68 f4bd
00000150: a1d6 5ebe 398d 2f3d 07b3 0e3e e873 64be
00000160: 6a05 c4be 6853 9bbe e7a1 82be 2ba2 eb3e
00000170: 1079 01bf aa4a e33c 0b38 b2be ab87 1fbf
00000180: ade8 31be b97d babe b559 663e c0af e33d
00000190: 1b72 a03d d520 0dbe b439 fc3d b4ee febd
000001a0: c4b6 9a3e 3401 413e e5a5 60bc c0dd 7f3d
000001b0: e6cc eebd 7251 703e 3097 4ebe 1147 d63e
000001c0: 30fe d7bd dd7f bcbe 8db6 e9bd ddc0 86bd
000001d0: a498 723d fc9c 953e 5a6e 5ebd 78be 42bd
000001e0: 91d5 0a3e 7f67 46be 5a4f b2bc 7c8f 893e
000001f0: 84f1 09bf 9613 a43e 8b20 1fbe 4e23 38bf
00000200: bcd3 913e 5f32 813e caf4 303e 52f8 713d
00000210: 5aaf eebe 4db5 c8be d1aa 89be 6536 063e
00000220: a3f2 123c 519d 993d bc10 58be 0a92 02bf
00000230: abb1 a4ba 4679 a5bc d61c 1cbf 5825 ae3e
00000240: 967e 3ebe f195 42bf f769 7e3d 5cb3 d2be
00000250: 3166 723e bf5e 783e 731a 1abe cfd8 673e
00000260: 5faa e4bd afc9 75be 14c6 b03e 70dc 96bd
00000270: d2df bf3e 7780 1dbe 0ab3 9c3e ea33 16be
00000280: 5c93 74bd d490 96bd 6bfa 26be 211b a7bd
00000290: 7a13 5dbe 6a09 44be f3fe fc3d a8cd 46bd
000002a0: f4c4 a7be bcfd 31be 946f e93e c36b 2abe
000002b0: 377c 1c3e 0e7b 79bd 9269 fabd 43a8 843e
000002c0: 0b9c c53e fde6 94be b72e 493c 41eb 75be
000002d0: 6937 923d e0f6 233e b0d7 e1be a18b c23c
000002e0: e2aa 12bf 6192 aebd 83d6 50bd 98ee 353d
000002f0: d7d8 e33d ac2d e1be 9e2f 06bd a9f4 06bd
00000300: 8461 05bf 8c75 b93d e92c 31be 6de8 0bbe
00000310: ce23 503e 4fce e3be 0851 c93d a43b 8bbc
00000320: 7bdf c43d 21de 683e 3384 2abe 8822 1d3c
00000330: b25c 01be 440d 6fbe 4473 32bd cc9f 21bd
00000340: 26f0 68bd 16c6 5f3e 96b9 b4be d53b 243e
00000350: 146c 15be 39c3 d4be 4dff 77be 961f 96be
00000360: 5495 023e 896b e03d 6545 ac3c d67e 77be
00000370: f1ff d33e 94c1 8a3e 6348 5abe b486 323e
00000380: c059 85be cf24 c23e 528d 9d3d f429 4fbe
00000390: 29a9 813d bf9f 4a3d 6095 9a3e 7c68 3dbe
000003a0: 8457 dfbe 804e 653e e83f d9be 7d03 223e
000003b0: a80a 9f3d 0c54 403d 2577 a4be 505d 06be
000003c0: 7e06 74be d563 683e 50ec cabe deb2 cf3d
000003d0: a1ab 73bd 2164 10bf b7ea 16be 26d1 0abf
000003e0: e2c4 a43d 016e 013e d942 193e bb17 dcbb
000003f0: a5b9 8abe 0bc8 513e fb7b 063d 0c07 563e
0.24656402 -0.04377041 0.18099862 -0.10404929 -0.18283597 -0.18961161 0.2340237 -0.37821206
-0.12655337 0.08631225 0.0997484 0.13388357 -0.10525118 -0.24971852 0.27402088 -0.047221188
0.28081197 0.14727905 0.10552427 0.17993243 0.37589437 -0.033320673 -0.1742778 0.30514565
-0.25547826 0.4420426 -0.12059861 -0.2174174 0.26232284 0.17498177 -0.07475808 -0.14183572
-0.3294603 -0.24714969 -0.35962197 -0.181924 0.42357373 -0.033122905 -0.34411997 -0.38730824
0.024286041 0.35413563 -0.5790756 -0.13101803 -0.17697278 -0.48485526 -0.08834264 -0.45878568
-0.14463003 0.08734715 -0.18602346 0.15485732 0.21991052 0.10779367 -0.00037812488 -0.027032347
-0.18188122 -0.10201687 -0.101760775 0.1680585 0.1029292 -0.12705104 -0.05162207 -0.29090244
-0.31537178 -0.34951317 0.14648676 0.528995 0.031574775 -0.2043506 0.08760285 -0.1932335
0.19395074 0.43446016 -0.15529814 0.079706796 -0.10820602 -0.29746878 0.12981142 0.10734937
0.27661815 -0.037272677 0.026280712 -0.11933943 -0.21761562 0.04285929 0.13935481 -0.2230984
-0.3828538 -0.3033707 -0.25514147 0.46022162 -0.5057535 0.027745564 -0.34808382 -0.6231639
-0.17373915 -0.36424044 0.22495158 0.11117506 0.07834264 -0.13782056 0.123156935 -0.12447873
0.30217564 0.18848115 -0.013711427 0.062467337 -0.11660175 0.23468569 -0.20174861 0.41851094
-0.10546529 -0.36816302 -0.11411772 -0.065797545 0.0592276 0.29221332 -0.05430446 -0.047544926
0.13558032 -0.19375418 -0.021766353 0.26867282 -0.5388415 0.32046193 -0.15539758 -0.7192887
0.28481853 0.25233743 0.1728088 0.059074707 -0.46618158 -0.39200822 -0.26888135 0.13106687
0.008968982 0.07500709 -0.21100134 -0.5100409 -0.0012565156 -0.02019943 -0.609815 0.34012866
-0.18602976 -0.7601004 0.062112775 -0.41152465 0.23671795 0.24254893 -0.15049152 0.226413
-0.11165308 -0.24002717 0.34526122 -0.07366264 0.3747545 -0.15381037 0.30605346 -0.14668241
-0.059710845 -0.073518425 -0.16306464 -0.08159471 -0.21589461 -0.19144216 0.12353315 -0.048535973
-0.3276745 -0.17381948 0.4559294 -0.1664267 0.15281759 -0.06090837 -0.12227167 0.25909624
0.38595614 -0.2908248 0.012279204 -0.24015523 0.07139475 0.16012144 -0.4410987 0.02374822
-0.57291996 -0.08524013 -0.050985824 0.044416994 0.11125343 -0.43980157 -0.032760255 -0.03294817
-0.5210192 0.090556234 -0.17302288 -0.13662882 0.20326158 -0.44493338 0.098299086 -0.016996212
0.09612938 0.22740985 -0.16651992 0.009590752 -0.12633017 -0.23344904 -0.043566957 -0.039459035
-0.05686965 0.21852908 -0.3529784 0.16038449 -0.1459201 -0.41555193 -0.24218483 -0.29320973
0.12752277 0.10958011 0.021029184 -0.24169478 0.41406205 0.27100813 -0.21316676 0.17434198
-0.26045036 0.37918708 0.0769297 -0.20230848 0.06331093 0.049468752 0.3019209 -0.18496889
-0.43621457 0.22393227 -0.4243157 0.15821643 0.077657044 0.046955153 -0.3212215 -0.13121533
-0.23830602 0.22694333 -0.39633417 0.10141538 -0.05948985 -0.56402785 -0.14737974 -0.54225385
0.08045365 0.1263962 0.14966907 -0.006716696 -0.2709476 0.20486467 0.03283308 0.20901126

adv.bias f4 [10]
00000000: a763 b0bc f5aa c53d a37e 2b3e e214 9f3d
00000010: 3755 553d abf8 51bb f6b0 423e 83d5 ebbd
00000020: 519e 753d 5b36 86be
-0.021531893 0.09651748 0.16747527 0.07767655 0.05208322 -0.0032039087 0.19012818 -0.115153335
0.059965435 -0.26213345

val.weight f4 [1, 50]
00000000: 5d64 3fbe b87e 0f3f 55de ddbe 2ded b43e
00000010: c575 0c3f 2c1f 523e 4294 a83e 67a9 67be
00000020: d98d 183e f408 913e 59f8 2abd c62d d73e
00000030: 3a22 fe3d 3a63 3bbc 812a 90be e3f6 0abe
00000040: e872 8abe 0e9c 653e 72d1 d2be 9f47 d43b
00000050: 1865 5a3e 4631 9d3e 832e 81be ae0d 9d3e
00000060: 74d6 a9be aa71 f33e 4c14 ca3e 8a4e 31bf
00000070: 7fe1 e33d 9a64 813e 2ca3 923e f39a 65bd
00000080: 4243 73bf b258 10bf 105b 5cbf d2f8 bc3e
00000090: b87c b13e 782c 73be 9525 0dbf cc42 35bf
000000a0: ee78 053e 5cd5 413f 9a15 18bf 7987 8d3d
000000b0: 939e bfbe dce0 adbf 9c71 09be 8548 31be
000000c0: fcea c13e ece9 9a3c
-0.1869063 0.5605273 -0.43333688 0.353372 0.548672 0.20519704 0.32925612 -0.22623216
0.1489786 0.28327143 -0.04174075 0.4202711 0.12408872 -0.011437232 -0.28157428 -0.13570742
-0.27040792 0.22422811 -0.4117542 0.0064782645 0.21327627 0.30701655 -0.25230798 0.306745
-0.33171427 0.47547656 0.3946861 -0.69260466 0.11126994 0.25272065 0.28640115 -0.056055974
-0.950245 -0.5638534 -0.8607645 0.36908585 0.34665465 -0.23747432 -0.5513547 -0.7080505
0.13034412 0.75716186 -0.5940796 0.06910605 -0.3742567 -1.3584247 -0.13422245 -0.1731282
0.3787459 0.01891037
