models/V1_TOKYO_02_42_45_161.pt (torch_old, 4167 bytes, 5 tensors)

fc1.weight f4 [50, 4]
000000 b9 32 17 3f c8 ba 1e 3f 6e ae 9c 3f d9 25 55 bf
       0.5906177 0.62003756 1.2240732 -0.83260876
000010 20 96 6c 3d ab 25 41 3e 6c 4c 0f bd 3c f7 20 3f
       0.057760358 0.18862025 -0.03498499 0.6287725
000020 8c d7 54 bf 19 02 1a 3f 7f 94 38 bc 77 9b 78 bf
       -0.831414 0.6015945 -0.011265873 -0.9711222
000030 a2 34 8a 3f b0 79 72 bf 24 4c d3 bf c4 ff 6e 3e
       1.0797312 -0.9471693 -1.6507611 0.23339754
000040 29 70 1f bf c1 98 55 3f 2e bf 30 be a4 31 3c 3f
       -0.6228052 0.8343621 -0.1726043 0.73513246
000050 4d 78 9e bc fa 6a 55 bf 0a 87 81 3f 63 53 0d 3f
       -0.019344473 -0.8336636 1.0119336 0.55205363
000060 da 5a 70 3f c4 52 08 3c 28 24 5e bf d2 7e 48 3c
       0.9388863 0.008320514 -0.8677392 0.012237268
000070 06 f7 d7 bf 20 10 01 bd a8 3e 99 bd ea 53 26 bf
       -1.687226 -0.03150952 -0.07482654 -0.6497179
000080 4d 30 0c 3f c2 16 96 3c 3d 03 39 3f c0 c9 61 bf
       0.547612 0.018321399 0.72270566 -0.8819847
000090 8f e5 14 3e 10 a2 6b bf d7 fd f4 3e 06 dc a6 bf
       0.14540695 -0.9204416 0.47849914 -1.3035896
0000a0 c2 db c2 bf d3 75 f1 3d 1d f1 1d 3f 20 4a 7b be
       -1.5223315 0.11790051 0.61696035 -0.24539995
0000b0 e1 23 33 be 24 96 b5 3f 89 f4 11 3f dd 6e 35 3f
       -0.17494155 1.4186444 0.57013756 0.7087229
0000c0 9b 9f 8b 3f 50 72 1f bf 71 2d 2d 3f 13 0f af 3f
       1.0908083 -0.622838 0.67647463 1.3676475
0000d0 61 55 f1 bf 8a 78 f8 be c7 5d 23 3f 89 10 6b bf
       -1.885418 -0.48529464 0.6381497 -0.91822106
0000e0 a3 22 c9 3f 8b 11 15 3f 02 66 89 3f c8 e9 92 3e
       1.5713695 0.58229893 1.0734255 0.28693986
0000f0 e1 b1 05 bf 69 bb b8 be 1b 0b 04 bf cf 26 7b bf
       -0.52224547 -0.36080483 -0.51579446 -0.9810609
000100 4e b6 79 3f 5c 66 8c 3f b7 5e e6 3e 2f 8f 80 3d
       0.975438 1.0968738 0.44994137 0.0627731
000110 43 60 c1 3d 17 c5 27 3f 1e 70 b1 3e fd a6 37 bf
       0.094421886 0.6553511 0.3465585 -0.7173918
000120 74 ea 00 c0 23 3b 0d bf f4 37 e6 be ff 56 90 3e
       -2.01431 -0.5516836 -0.44964564 0.28191373
000130 01 1d cc bf ab cc 2e be 51 d0 82 bf 1d 30 08 3f
       -1.5946351 -0.17070262 -1.0219823 0.53198415
000140 1e c5 6a 3e 0c a3 86 3f 8a 72 84 3f 89 c1 14 bf
       0.22926757 1.0518508 1.0347455 -0.5810781
000150 d0 86 0b bf 01 d7 89 3f 13 cf c5 be eb 93 80 3f
       -0.5450258 1.0768739 -0.38634548 1.0045141
000160 6d af 9e bf 7d 0d 45 be e0 d7 03 be 87 9e 99 3e
       -1.2397286 -0.19243427 -0.12875319 0.3000376
000170 f8 e6 13 3f db 33 46 3f 3c 24 82 bf 2d c4 9e bf
       0.57774305 0.77422875 -1.0167308 -1.2403618
000180 d7 32 04 bf b4 e0 c7 bf 8d 8b 6f 3d ab 70 89 bf
       -0.51640075 -1.5615449 0.058482695 -1.0737509
000190 4e 1c 18 3f d7 20 18 be 78 86 1c bf be a6 43 bf
       0.5941819 -0.14856277 -0.61142683 -0.76426303
0001a0 44 dd 38 3f a1 fa dd 3f 5c 99 1f bf f7 4a 95 bf
       0.72212625 1.7342111 -0.6234338 -1.1663502
0001b0 12 9b ad bf 1a 7d ba bf 99 48 8b be a3 77 ee be
       -1.3562949 -1.4569428 -0.27203825 -0.4657565
0001c0 50 c1 5b bd 44 90 3a 3f e0 67 80 bf 4c 04 9e 3f
       -0.053651154 0.7287638 -1.00317 1.2345061
0001d0 a6 75 26 3f 68 db 9c 3e ed 9a 6b bf 69 95 80 3c
       0.6502327 0.30636144 -0.92033273 0.015696244
0001e0 73 b9 33 3e 3c 93 bf be c5 b1 9b 3f 2f 03 c0 be
       0.17551212 -0.37417018 1.2163626 -0.3750243
0001f0 36 1c 92 3f c4 d7 ee 3f 02 1f 3b 3f 31 43 94 3e
       1.1414859 1.8659596 0.7309419 0.28957513
000200 68 ce d3 3f aa f3 24 40 e7 ec f9 3e 7c b3 2d 3f
       1.6547365 2.577372 0.48813555 0.67851996
000210 4a 9c ce 3f e1 15 37 3f f5 1f fd 3e 25 26 e2 be
       1.6141446 0.7151776 0.49438444 -0.44169727
000220 ef a0 df bf 02 9d 9f bf 27 dd 15 3e b6 33 2c bf
       -1.7470988 -1.246979 0.14635144 -0.67266405
000230 89 de 66 be ec cc 11 3f 56 a4 b8 3f ef 35 54 3e
       -0.22545828 0.5695331 1.4425151 0.20723699
000240 5d 64 9e 3d 6b 23 13 bf e0 f2 0c 3e 0e 17 84 3f
       0.077339865 -0.5747592 0.13764524 1.0319536
000250 e0 3e 6c bf c2 62 7c bf 8b af 88 bf 81 94 ef 3e
       -0.9228344 -0.9858819 -1.0678571 0.46792987
000260 82 91 be bf 39 7d 36 bf 0b 9f ba 3d 10 08 98 bf
       -1.4888155 -0.71284825 0.09112366 -1.187746
000270 8e 97 03 c0 99 2c 4a bf d7 43 eb 3e 8a 62 f2 be
       -2.0561252 -0.789743 0.45950195 -0.47340804
000280 4f c9 c5 bf 9c a6 e6 bf f7 9d 08 3e 45 5d 34 3f
       -1.545206 -1.8019595 0.13341509 0.7045482
000290 f5 95 34 bf 25 e5 1c 3f 58 dd 1f be c3 33 d7 3f
       -0.70541316 0.61287147 -0.1561178 1.6812671
0002a0 e6 95 d7 bf ff 1d 85 bf af d3 2c 3e c6 31 f9 be
       -1.684262 -1.0399779 0.16877626 -0.48670787
0002b0 df 83 49 3f 82 15 61 3f eb 73 99 3f 68 3b 1d 3f
       0.78716844 0.87923443 1.19885 0.6141877
0002c0 12 4b 59 bf cd af 40 3e 02 22 75 be 46 1a 82 bf
       -0.84880173 0.18817063 -0.23938754 -1.0164268
0002d0 df a3 bd 3f ab 3a cb 3f 2e 42 2a bf 98 41 28 3f
       1.4815634 1.5877279 -0.6650723 0.6572509
0002e0 10 f5 9a 3e 48 02 9a bf 4a cb 84 bf 17 ac bc bc
       0.30265093 -1.2031946 -1.0374539 -0.023031278
0002f0 80 eb cb bf 91 c9 cf bf 9f 29 e7 be 34 41 4a bf
       -1.5931244 -1.6233388 -0.45148942 -0.7900574
000300 48 c3 16 3f fa 2f 2d bf a1 b1 2f bf 2f db 43 3e
       0.58891726 -0.6765133 -0.68630415 0.1912658
000310 11 5b 9b 3e 23 9d 78 bf 38 6e 26 bf d6 fb fd be
       0.30342916 -0.9711477 -0.6501193 -0.49606198

fc1.bias f4 [50]
000000 7c 22 a2 3e 08 6f 80 3f 69 e4 38 bf 75 21 4c 3f
       0.31666934 1.0033884 -0.72223526 0.7973855
000010 f0 d3 0e be b6 ab 9d 3e 66 48 9b 3f c2 dc 8f be
       -0.13948035 0.30795068 1.2131469 -0.28098112
000020 03 d7 99 3f 3e b8 63 3f 97 b2 23 3f a0 fd 8e 3f
       1.2018741 0.88953006 0.6394438 1.117115
000030 8f ca 68 3f 1e 97 1f bf 31 75 8d 3e 14 2d c9 3e
       0.9093408 -0.6233996 0.27628472 0.39292204
000040 8e bd 98 3b 2d bd 49 3f 55 4b 35 bf 01 ee ee be
       0.0046612686 0.78804284 -0.7081807 -0.46665958
000050 f5 cc 88 3e 59 50 c6 3e 33 15 ad be 2e db b6 3d
       0.2671887 0.38733175 -0.33805236 0.08928524
000060 d2 4a 00 bf da 7d 03 3f 64 44 00 be c8 c4 3b bf
       -0.50114167 0.5136391 -0.12526089 -0.7334714
000070 39 9a fd 3e 9d 29 35 3f 6d b3 1a 3f 1b 75 b2 3e
       0.49531725 0.7076662 0.6043003 0.3485497
000080 b2 24 1a 3f 81 72 55 3d e3 cf 72 bf e7 ad 32 3f
       0.6021224 0.052111153 -0.9484846 0.69796604
000090 8e 90 56 3e d8 39 25 3e 09 1d 8e be a5 2b 30 bf
       0.2095358 0.16135347 -0.27756527 -0.68816596
0000a0 52 12 0e bf 79 15 b5 be a1 0d 52 bf 5c 1f e7 3e
       -0.55496705 -0.35367945 -0.82052046 0.45141113
0000b0 4d a6 fb be 82 c8 00 3f 92 b3 75 3e e4 e2 80 bf
       -0.49150315 0.5030595 0.23994282 -1.0069242
0000c0 11 f6 99 3f 1e ad 3c 3f
       1.2028219 0.73701656

adv.weight f4 [10, 50]
000000 ca c4 89 3e 4c 54 f3 3d 18 e4 b1 be e9 35 c9 bd
       0.2690795 0.11881313 -0.34744334 -0.09824736
000010 0e 51 10 bf 63 53 b4 be 76 c7 8b 3e 0d 75 c5 be
       -0.5637368 -0.3521987 0.27300614 -0.38565865
000020 fe 63 01 bd 3e 2b a4 3c 8e c7 26 3e f3 68 01 3f
       -0.0315895 0.02004015 0.16287062 0.50550765
000030 0e 6b 4a bf 94 3e 23 bf 92 b8 f0 be de 3e ff 3d
       -0.790696 -0.6376736 -0.47015816 0.12463163
000040 cf 60 d3 3d 49 00 e4 3d 12 7d 36 be 83 0a af 3d
       0.10321199 0.11132867 -0.17821148 0.08546927
000050 f3 5a d6 3e 9b 14 8e 3d 89 9a b4 be af 28 a3 3d
       0.41866264 0.06937524 -0.3527415 0.07966744
000060 f5 f7 e8 be 5a 87 a3 3e 13 57 bb be d0 a1 19 bf
       -0.45501676 0.31939203 -0.3658987 -0.6001253
000070 9f 6a a5 3e 5f c3 33 3e ad 8f bc 3e 41 7f 1a bf
       0.32307908 0.17554997 0.36828366 -0.60350424
000080 76 5e 68 bf d5 20 50 bf 78 ae 6e bf 35 74 83 3e
       -0.90769136 -0.813001 -0.9323497 0.25674596
000090 b1 ec 21 bd b0 41 d7 3d 52 ff a8 be 9a f2 3b bf
       -0.039532367 0.10510576 -0.33007294 -0.73417056
0000a0 55 26 07 bf fb 25 8c 3e 6d d4 94 bf f5 13 69 be
       -0.52792865 0.27372727 -1.1627327 -0.22761519
0000b0 8f 4e 6f be b0 08 93 bf 0e c7 ed bd 35 49 36 bf
       -0.23369811 -1.1487026 -0.11610232 -0.71205455
0000c0 db d4 85 bd fc 76 c1 3d bd 48 8a be 2c f7 8d 3e
       -0.065347396 0.094465226 -0.2700862 0.2772764
0000d0 49 57 bb be 19 25 8b bd 1f 0f 42 be 30 d2 63 be
       -0.3659003 -0.06794185 -0.1895108 -0.22248149
0000e0 cd b8 9e be bc 7c 84 bd 23 bf 0a 3e 9d 66 b2 3e
       -0.31000367 -0.06469104 0.13549475 0.34843913
0000f0 48 42 bc 3e e8 15 46 3e 21 7c 07 bf 8a 1e 5d be
       0.3676932 0.19344294 -0.5292378 -0.21593681
000100 0d 17 40 bf 59 bd 20 be 83 15 84 be 45 dd 24 3f
       -0.7503517 -0.1569723 -0.25797662 0.6440013
000110 fd 6e 29 bf 9f 7e 3e bf 29 2e 26 3e ad 82 32 3e
       -0.6618498 -0.7441196 0.16228546 0.17432661
000120 96 0a a8 bd d3 0b 20 3e b7 a5 8d be 21 d9 25 be
       -0.08205144 0.1562951 -0.27665493 -0.1619611
000130 d7 5f df be ae d3 a8 bf 5b 40 93 3e c3 99 9e bd
       -0.43627807 -1.31896 0.28760037 -0.077441715
000140 ff cb db 3e 37 b6 57 bf f7 ba 27 bf 6d 6e ad be
       0.42929074 -0.8426241 -0.6551966 -0.3387331
000150 88 9b 1b bf 66 c4 30 3e 84 ab 00 be 5b 85 9a be
       -0.60784197 0.1726242 -0.12565428 -0.30179867
000160 85 1a 64 be 42 41 7b be 2b e4 75 bf 56 4e b0 3e
       -0.22275741 -0.24536613 -0.9605128 0.34434766
000170 67 77 42 bf 3d ab d5 be d6 3e d7 be f3 ca 7b bf
       -0.75963444 -0.41732207 -0.42040128 -0.9835655
000180 81 b3 d1 be 78 20 a7 bf 77 e6 6c 3e c6 82 f0 3c
       -0.40957263 -1.3056784 0.2313479 0.029359233
000190 50 66 e3 3e c6 78 c5 be 2b 5a 0c be 85 62 6e be
       0.44413996 -0.38568705 -0.13706271 -0.2327977
0001a0 62 0d 80 3e 49 1a 1a be ae 9c a4 bd 14 14 c5 3b
       0.2501021 -0.1504909 -0.08037697 0.0060143564
0001b0 a7 53 28 be f1 e4 8b 3e 76 5b e6 be 8b 0a 26 3f
       -0.16438161 0.27323106 -0.44991654 0.6485984
0001c0 68 1b bf be a1 8b 6c bf 2b 19 0e bf 78 db 0f 3e
       -0.37325597 -0.92400557 -0.55507153 0.14048564
0001d0 09 3c 90 be 6b d3 79 3e 6f 92 04 bf 9b 5b fa be
       -0.28170803 0.24397056 -0.5178594 -0.48898014
0001e0 c3 bb a0 3e b0 d6 84 3e 60 d9 1d bf 56 82 15 3e
       0.3139325 0.25945044 -0.6165981 0.146005
0001f0 53 cd 9e be a1 f2 a4 3e b7 d6 e2 be bc bc 45 bf
       -0.31016025 0.3221636 -0.4430444 -0.7724111
000200 1c 3b 44 3e 32 84 3e 3e 5e e3 4f 3f 5b 87 1d bf
       0.19163173 0.18605116 0.8120631 -0.6153466
000210 ca bc 1c bf 36 91 3a bf cd 2f 1f bf f6 75 c3 be
       -0.6122557 -0.72877824 -0.62182313 -0.38175935
000220 27 4a c1 bd e0 43 a5 3d 91 33 db bd 5a 0b 9e bf
       -0.094379716 0.08069587 -0.10703195 -1.2347214
000230 ad c8 3f bf a8 73 89 bc f4 c9 99 bf ec e0 a0 bd
       -0.7491558 -0.016778782 -1.2014756 -0.078554004
000240 ed 2c 00 be 3c 44 55 bf 18 fc 87 3c 6e ae cc be
       -0.12517138 -0.8330724 0.0165997 -0.3997683
000250 5f f1 47 3e ca cd 73 3e 4e b5 b4 bd b9 12 98 3d
       0.1952567 0.23808971 -0.088236436 0.07425446
000260 ba 4a 96 be 55 14 b6 be 34 68 41 3e dd 22 04 be
       -0.29353887 -0.35562387 0.18887407 -0.12903924
000270 e8 a8 73 3e 8f f6 b8 be 71 da 75 3e c1 20 2a be
       0.23794901 -0.3612561 0.2400911 -0.16614057
000280 9c d0 84 be 7c 1e 1e be a2 a6 e9 be 72 d0 d7 be
       -0.25940406 -0.15441316 -0.45634943 -0.4215122
000290 2a 7d 33 bf ec ba 55 bd 4b b0 ce 3c 2e 79 52 be
       -0.7011286 -0.052180216 0.025230547 -0.20554039
0002a0 3c f9 2e bf 22 fb d9 be 0d 7d 23 3f 33 10 85 be
       -0.6834905 -0.42574412 0.6386269 -0.25988922
0002b0 18 98 1c be f8 1c b0 be 73 94 13 be 41 05 57 3d
       -0.15292394 -0.343971 -0.14412098 0.052495245
0002c0 10 71 05 3e f1 c1 29 bf d6 62 f9 bd 22 07 c6 be
       0.13031411 -0.66311556 -0.121770546 -0.38677317
0002d0 f0 74 30 3e 95 a3 75 be ce 9e 3a bf 2c 6d bc be
       0.17232108 -0.23988183 -0.72898567 -0.36802042
0002e0 b9 b2 62 bf d3 ee 9e 3c d8 2a 70 be c5 9b ca bd
       -0.8855396 0.01940099 -0.23453844 -0.09892992
0002f0 1f df 74 bd 42 d8 3c bf 83 3a f3 be 27 6d 2d be
       -0.059783097 -0.73767483 -0.47505578 -0.1693617
000300 91 67 58 bf 92 e0 8f bc 51 8f 8d be d2 a4 25 be
       -0.8453303 -0.017563138 -0.27648404 -0.16176155
000310 92 72 a4 3d 18 62 44 bf 8d ad 07 bd 2d 49 1b be
       0.08029665 -0.7671218 -0.033124495 -0.15164633
000320 9b ba 80 3e 6e b1 88 3d 64 9d 0d be 36 1e ee bc
       0.2514237 0.06674467 -0.13829571 -0.02906714
000330 13 46 7b bd b9 35 98 be 63 33 e0 bd 6a 9a 41 be
       -0.061346125 -0.29728487 -0.10947301 -0.1890656
000340 5d 8f 27 3e 69 73 dd 3e 37 79 02 bf 41 7f e1 bc
       0.16363283 0.43252113 -0.5096621 -0.0275265
000350 94 a8 46 be 39 c6 4a bf 84 d4 cc be 87 50 2f be
       -0.19400245 -0.79208714 -0.40005887 -0.17120562
000360 78 26 0f be e6 40 16 3e 3a 94 78 be 6c 65 56 be
       -0.13979518 0.14673194 -0.24275294 -0.20937127
000370 5b 32 bf 3e 78 bf 11 3e 84 41 03 bf 2a 35 12 be
       0.37343106 0.14233196 -0.51271844 -0.14278093
000380 dd 60 b8 be 5c 91 a0 3e fb d9 8f be 60 20 13 bf
       -0.360114 0.313609 -0.28095993 -0.57471275
000390 60 0d ea bd 06 b2 95 bd 80 86 a9 3e fa bd 12 bf
       -0.11428332 -0.07309346 0.33110428 -0.5732113
0003a0 92 d8 46 bf 18 56 7e bc 02 63 45 bf 4a da d3 3d
       -0.7767421 -0.015523456 -0.771042 0.1034437
0003b0 f1 19 11 3d e1 4c f2 ba 75 95 fc be 26 6b ea be
       0.03542513 -0.0018486046 -0.49332777 -0.45784873
0003c0 e5 59 4f bf 30 1c f8 3e be db 3e bf 79 b4 c8 bc
       -0.80996543 0.48459005 -0.7455405 -0.024500119
0003d0 f1 c1 aa bc 0c 40 50 bf be 4e 06 bc 79 6b 4c bf
       -0.020844432 -0.8134773 -0.008197485 -0.7985149
0003e0 e3 4e 85 3d a5 93 1a 3e 92 36 c2 3d 9a e9 13 3d
       0.06509187 0.15095384 0.09483065 0.03611145
0003f0 99 63 12 bf a5 00 e5 3d ec b6 97 be 1a d9 b8 3d
       -0.57183224 0.111817636 -0.29631746 0.09025784

adv.bias f4 [10]
000000 80 73 08 3e eb c5 a0 3e b8 55 52 3e f6 b7 6b bd
       0.1332531 0.31401 0.20540512 -0.057548486
000010 12 93 f7 bc 01 5e 91 bd e9 0a 23 bd 49 4e 04 be
       -0.030221496 -0.07098008 -0.039805327 -0.12920488
000020 5c 03 8a be 5a f6 a2 be
       -0.26955688 -0.31828576

val.weight f4 [1, 50]
000000 37 46 a4 3e ee 9f 73 3f d8 41 95 bf cc 8c 1f 3f
       0.3208482 0.9516591 -1.1660719 0.62324214
000010 5f f4 6c 3e 92 d0 b6 3e da 40 33 3f 2a 14 cc be
       0.23140095 0.35706002 0.7002083 -0.39859134
000020 ac 71 4c 3f 94 92 26 3f 4b ad 30 3d 55 0f 99 3f
       0.7986095 0.6506741 0.043134015 1.1957804
000030 cf b4 ad 3e 49 21 25 bf bb 18 d1 be 5d 65 48 3e
       0.33927009 -0.64503914 -0.4083918 0.19569917
000040 c4 5c 0b bf 56 e3 e9 3e c2 81 9f bf 92 38 a1 be
       -0.54438424 0.45681256 -1.2461474 -0.31488472
000050 ba ec e2 3e c8 0b 61 3f 19 41 61 bf 6a af b6 3b
       0.44321233 0.879086 -0.87989956 0.00557511
000060 17 db 04 bf 60 14 21 3f 39 dd 66 bd e9 0c d0 bf
       -0.51896805 0.62921715 -0.056363318 -1.625394
000070 4b 9c 04 3f 78 00 00 3f 20 2c 6d 3f ce 36 0c bf
       0.51800984 0.50000715 0.92645454 -0.54771125
000080 63 ed 6f bf 9c 58 53 bf 75 94 f3 bf 13 d7 53 3f
       -0.937216 -0.8255708 -1.902968 0.8275005
000090 0f 72 07 3f be d3 5d bd bb 57 1d bf 72 72 b0 bf
       0.52908415 -0.05415701 -0.6146199 -1.3784926
0000a0 65 21 8c bf 54 11 6c 3f c5 b0 ce bf b2 b3 e4 3d
       -1.0947691 0.9221394 -1.6147696 0.11167087
0000b0 e2 d0 e3 be 89 f4 92 bf 7d 75 88 3e 7e cb 6e bf
       -0.44495302 -1.1480876 0.26652136 -0.93279254
0000c0 75 64 64 3f b5 d5 a0 3e
       0.89215785 0.31413046
