models/V1_TOKYO_12_29_36_161.pt (torch_old, 4167 bytes, 5 tensors)

fc1.weight f4 [50, 4]
0.2324448 0.25473797 0.9724346 -1.0254774 0.2228046 0.3762852 -0.02553836 0.63046855
-0.29656196 1.1209316 -0.06555638 -1.15927 1.2304049 -0.68955684 -1.3103284 0.37681764
-0.5048589 0.14107646 0.104513966 0.38501024 -0.05317054 -0.83646184 0.6743692 0.45410097
1.17301 0.14874405 -0.87259954 0.11139428 -1.1416229 0.73650396 -0.38852274 -0.73926896
0.82309467 0.19151874 0.7957234 -0.344594 0.038444802 -0.991887 0.47306493 -1.0949086
-1.1445842 0.2902769 0.47851962 -0.26203486 -0.1656472 1.3246828 0.6417148 0.7435378
0.97263765 -0.1547991 0.6953714 1.1511457 -1.017591 0.5323093 0.92963994 -0.9630781
0.9016643 -0.6167032 1.235213 0.29599482 -0.114302985 -0.2500256 -0.33465108 -0.8917052
0.22876711 0.60431856 0.9778092 -0.04347818 0.5642694 0.60550493 0.32072535 -0.49454477
-1.2922055 0.17640457 -0.7808304 0.61529315 -1.015474 0.6154132 -0.82969075 0.9747536
0.43394893 1.1483015 0.5236637 -0.49319735 -0.10626056 1.0269659 -0.098824985 0.77154344
-0.5297395 0.3849734 -0.17315733 0.52800626 1.032383 0.80798316 -0.7602934 -1.0169528
-0.17055455 -0.88016355 -0.12081814 -1.2614018 0.68142384 -0.016053183 -0.6138959 -0.54603857
0.8365899 1.0497017 -0.64246255 -0.5947877 -0.56825906 -1.1301008 -0.61811984 0.013708345
0.52635556 0.7361166 -0.83202136 1.1821086 0.8041055 0.3945969 -0.8874667 0.062090497
0.34968418 -0.028317913 0.7787035 -0.071213864 0.21189958 1.0784006 1.0386993 -0.060862366
1.0590296 1.1536224 1.0410316 0.88856775 0.7376218 -0.49325964 0.55522513 -0.25027332
-1.1372604 -0.7330591 0.104673 -0.4818437 0.14953138 0.7979456 0.9840402 0.64952046
0.11769807 -0.36836725 0.14991628 0.7479746 -0.5318044 -0.3717448 -1.189391 0.5790696
-0.9011394 -0.10734934 0.16928004 -1.2313437 -1.3660998 0.12665889 0.69571424 -0.39845863
-0.8911085 -1.1776482 0.27760053 1.0108663 -0.7089042 0.6022859 0.18533155 1.01694
-0.85684276 -0.5350067 0.4398171 0.013267338 0.71901643 0.98955846 1.0599936 0.774889
-0.373675 0.91810423 -0.28636435 -1.0679315 0.6231963 0.81941694 -0.13684155 0.6368782
0.33978835 -0.98963946 -0.8222627 0.09532273 -0.6849335 -0.69897926 -0.9336375 -0.71039355
0.79260415 -0.6937486 -0.609771 0.48765948 0.23495956 -0.9841239 -0.8999438 -0.5012961
00000000: 0206 6e3e 046d 823e 79f1 783f d842 83bf
00000010: e426 643e 74a8 c03e d335 d1bc 6366 213f
00000020: f8d6 97be b07a 8f3f 6c42 86bd f662 94bf
00000030: e87d 9d3f cc86 30bf d7b8 a7bf 3eee c03e
00000040: 6f3e 01bf 5976 103e 6b0b d63d 1020 c53e
00000050: 5ac9 59bd 5d22 56bf 76a3 2c3f ec7f e83e
00000060: 3125 963f 5c50 183e af62 5fbf af22 e43d
00000070: b320 92bf 868b 3c3f 74ec c6be bb40 3dbf
00000080: 55b6 523f 7d1d 443e 87b4 4b3f a06e b0be
00000090: 4c78 1d3d 4eec 7dbf 9135 f23e f725 8cbf
000000a0: bc81 92bf 2d9f 943e 8600 f53e 6f29 86be
000000b0: 6b9f 29be 358f a93f 6c47 243f 7e58 3e3f
000000c0: c8fe 783f a883 1ebe dc03 323f be58 933f
000000d0: 6c40 82bf 6c45 083f e2fc 6d3f 498c 76bf
000000e0: 79d3 663f 43e0 1dbf 761b 9e3f a28c 973e
000000f0: af17 eabd 5b03 80be 6357 abbe cb46 64bf
00000100: ed41 6a3e 9fb4 1a3f b451 7a3f 2d16 32bd
00000110: f673 103f 5f02 1b3f 1d36 a43e f934 fdbe
00000120: fd66 a5bf 66a3 343e 80e4 47bf da83 1d3f
00000130: 0dfb 81bf b88b 1d3f 9d66 54bf 7489 793f
00000140: 8e2e de3e 8bfb 923f d30e 063f 5d84 fcbe
00000150: 239f d9bd 9e73 833f c164 cabd df83 453f
00000160: 029d 07bf 3c1b c53e 2850 31be 6b2b 073f
00000170: 2025 843f fcd7 4e3f 97a2 42bf 822b 82bf
00000180: daa5 2ebe 6652 61bf 806f f7bd 9d75 a1bf
00000190: cb71 2e3f f781 83bc 4828 1dbf 2fc9 0bbf
000001a0: c12a 563f a05c 863f 6d78 24bf 0244 18bf
000001b0: 6d79 11bf 25a7 90bf 1a3d 1ebf f798 603c
000001c0: 3dbf 063f 2372 3c3f 5aff 54bf 564f 973f
000001d0: dcd9 4d3f 9b08 ca3e 0531 63bf 9b52 7e3d
000001e0: ce09 b33e f8fa e7bc 1d59 473f 93d8 91bd
000001f0: 34fc 583e 0809 8a3f 19f4 843f d14a 79bd
00000200: 488e 873f e6a9 933f 8640 853f 2d79 633f
00000210: c8d4 3c3f 878c fcbe 3c23 0e3f d323 80be
00000220: c091 91bf c3a9 3bbf cc5e d63d 38b4 f6be
00000230: c11e 193e 2a46 4c3f 0fea 7b3f f946 263f
00000240: b00b f13d a29a bcbe a783 193e 437b 3f3f
00000250: 5524 08bf 5655 bebe f73d 98bf e83d 143f
00000260: 12b1 66bf f9d9 dbbd bf57 2d3e ac9c 9dbf
00000270: 5cdc aebf deb2 013e 541a 323f c502 ccbe
00000280: b01f 64bf 2dbd 96bf a821 8e3e 1164 813f
00000290: bf7a 35bf 692f 1a3f 8ec7 3d3e 172b 823f
000002a0: 0c5a 5bbf 33f6 08bf b52f e13e 405f 593c
000002b0: 7611 383f b453 7d3f dfad 873f 205f 463f
000002c0: 5452 bfbe e108 6b3f 599e 92be fbb1 88bf
000002d0: cb89 1f3f 4fc5 513f 3120 0cbe 730a 233f
000002e0: bdf8 ad3e 0359 7dbf cf7f 52bf 9038 c33d
000002f0: cd57 2fbf 4ef0 32bf de02 6fbf 5adc 35bf
00000300: 1be8 4a3f 8299 31bf f419 1cbf 81ae f93e
00000310: 3d99 703e 8bef 7bbf b862 66bf f154 00bf

fc1.bias f4 [50]
0.3648015 0.2470783 -0.2155521 0.17089099 -0.4372113 -0.32965022 0.54623383 0.5079891
0.37105834 0.39622906 0.359168 0.46302596 0.009216882 -0.22717823 0.12168403 -0.04099617
0.107611544 0.33436072 -0.045313783 -0.6105874 0.04543499 -0.086412586 0.123097554 -0.13114238
0.24900194 0.070954 -0.051331613 -0.00748836 0.14328854 0.26157483 -0.09988677 0.10961492
0.33004254 0.21098603 0.1729033 0.056491382 -0.16517995 0.50748116 0.5217876 0.012539845
-0.01857299 -0.5083468 0.051483486 -0.05465168 0.22618838 -0.36353382 -0.13144456 -0.21666737
0.5712142 0.35571712
00000000: 43c7 ba3e 1802 7d3e b1b9 5cbe 0cfe 2e3e
00000010: 29da dfbe eac7 a8be fbd5 0b3f 930b 023f
00000020: 5cfb bd3e 89de ca3e dee4 b73e bd11 ed3e
00000030: 6802 173c 69a1 68be 7a35 f93d 9aeb 27bd
00000040: 7163 dc3d 5431 ab3e f29a 39bd 754f 1cbf
00000050: 0a1a 3a3d 15f9 b0bd 921a fc3d 304a 06be
00000060: 5dfa 7e3e 5550 913d 1941 52bd eb60 f5bb
00000070: 3bba 123e 23ed 853e 6f91 ccbd ca7d e03d
00000080: 56fb a83e b90c 583e 900d 313e 8263 673d
00000090: ef24 29be 49ea 013f df93 053f ec73 4d3c
000000a0: 6226 98bc 0423 02bf 59e0 523d 71da 5fbd
000000b0: ed9d 673e 1b21 babe 6799 06be 0dde 5dbe
000000c0: 183b 123f 8e20 b63e

adv.weight f4 [10, 50]
0.17498657 -0.08857521 0.2618829 -0.102984525 -0.22517794 -0.16129538 0.22152373 -0.26237527
-0.13900635 0.005297372 0.23985666 0.122566834 -0.023369867 -0.04889948 0.3408883 0.10881909
0.2825721 0.053514715 0.2708243 0.3155926 0.3041162 -0.0473758 -0.08460918 0.25063816
-0.0712925 0.39036068 -0.13188241 0.046550937 0.28318852 0.18159778 -0.06622808 -0.14604002
-0.09044871 -0.1134985 -0.005317048 -0.18326388 0.37973264 -0.0033527643 -0.14911683 -0.07457788
0.07089635 0.25481698 -0.18532032 -0.10659996 -0.094819814 -0.07231209 -0.059762273 -0.23485328
-0.152858 0.07649464 -0.21540149 0.13505541 0.22957072 0.07974641 -0.12334777 0.022568908
-0.19500627 -0.017142525 -0.06362119 0.17749548 0.19884624 -0.1346577 0.094870195 -0.13239093
-0.19927329 -0.18578409 0.19736119 0.41710013 0.18088911 -0.1299739 -0.060551338 -0.21299158
0.2689823 0.32106996 0.055018317 -0.004220168 -0.17883909 -0.03552853 0.14399217 0.083612084
0.34498084 -0.008687409 0.33869216 0.06348629 0.12433593 0.08900179 0.06607295 -0.20324144
-0.208462 -0.018012878 -0.2714847 0.28613606 -0.1338417 0.12370457 -0.30137226 -0.13903742
-0.19151972 -0.16110258 0.23443061 0.07712874 0.01435861 -0.16075616 0.18312383 -0.032796435
0.104052216 0.1602156 0.04897571 0.0860334 -0.046115987 0.221368 -0.20784475 0.3783648
0.023457238 -0.299056 -0.018533096 0.14357002 -0.0041537625 0.3349328 0.023324085 -0.04332872
0.1397321 -0.18885948 -0.05237296 0.38084134 -0.3030372 0.4139126 -0.037183017 -0.42640287
0.33408028 0.3211858 0.14644207 0.0072705364 -0.06311807 -0.1395652 0.08231972 0.07637809
-0.04684969 0.08113033 -0.073778726 -0.27693146 0.0046285153 -0.24279769 -0.20040405 0.33696422
-0.15152997 -0.21452641 0.1774644 -0.17779471 0.31934968 0.27564776 -0.23072717 0.186503
-0.016063223 -0.20809639 0.15059754 -0.1032937 0.40536967 -0.04046883 0.2922015 -0.20944676
0.011826012 -0.14827594 -0.097772166 0.04380485 -0.17863023 0.0059933434 0.07869256 -0.1373994
-0.1719484 -0.073919035 0.36296687 -0.21196574 0.19930659 -0.08831492 0.09733321 0.25295395
0.3983772 -0.021611327 0.07424304 -0.18057913 0.078387626 0.10264344 -0.22006205 0.13682699
-0.25165933 -0.1259953 -0.14092453 0.09917887 0.29599908 -0.20259771 -0.09905661 -0.2454326
-0.20804879 0.09449108 -0.06979096 0.26373664 0.24070431 -0.1945541 0.118242614 0.00733873
0.07493845 0.14712149 -0.35786584 0.006632669 -0.25580087 -0.25207895 -0.081180945 0.01653271
-0.040426448 0.18164432 -0.2630046 0.09359673 -0.08912754 -0.37970594 -0.21103986 -0.23752956
0.15762103 -0.09772936 0.17615262 -0.14660971 0.18109776 0.19608814 -0.14577219 -0.09563094
-0.12068263 0.22854085 -0.1464526 0.1366275 0.06134425 0.013198526 0.32217264 -0.17528185
-0.22622451 0.33970597 -0.08946982 0.14017528 -0.09759474 0.089711554 -0.17933178 0.13413149
-0.1365934 0.07846811 -0.0043211086 0.14093351 -0.11414839 -0.1750077 -0.028867153 -0.35264397
0.06497691 0.1293218 0.14615895 0.019426912 -0.32100278 0.31590113 -0.14244516 0.22751074
00000000: ae2f 333e eb66 b5bd 8415 863e 8de9 d2bd
00000010: 0c95 66be 9e2a 25be 1ed7 623e 0d56 86be
00000020: ae57 0ebe 9495 ad3b fc9c 753e 5204 fb3d
00000030: 2a72 bfbc d24a 48bd e988 ae3e 8bdc de3d
00000040: 4aad 903e 3f32 5b3d 7ca9 8a3e 5a95 a13e
00000050: 1eb5 9b3e 200d 42bd 9447 adbd a553 803e
00000060: cd01 92bd 5bdd c73e 2f0c 07be 32ac 3e3d
00000070: 16fe 903e c5f4 393e 96a2 87bd 848b 15be
00000080: 2c3d b9bd e771 e8bd a23a aebb 87a9 3bbe
00000090: 516c c23e 0dba 5bbb 15b2 18be 4abc 98bd
000000a0: 1b32 913d 5f77 823e 9cc4 3dbe 1451 dabd
000000b0: e430 c2bd 5c18 94bd 49c9 74bd 617d 70be
000000c0: cf86 1cbe 39a9 9c3d 3592 5cbe f74b 0a3e
000000d0: 9614 6b3e 1652 a33d c19d fcbd 6ee2 b83c
000000e0: b9af 47be 7b6e 8cbc d44b 82bd 60c1 353e
000000f0: 599e 4b3e b5e3 09be 4e4b c23d 7d91 07be
00000100: 4c0e 4cbe 2f3e 3ebe 0d19 4a3e 268e d53e
00000110: ff3a 393e e117 05be ae04 78bd 771a 5abe
00000120: 0cb8 893e 4863 a43e e35a 613d 5649 8abb
00000130: 9821 37be 5d86 11bd af72 133e d03c ab3d
00000140: 54a1 b03e a255 0ebc 0f69 ad3e 1a05 823d
00000150: d6a3 fe3d 9246 b63d 4151 873d 861e 50be
00000160: 1077 55be be8f 93bc 0b00 8bbe 6d80 923e
00000170: cc0d 09be d258 fd3d 774d 9abe d35f 0ebe
00000180: bf1d 44be 13f8 24be 940e 703e acf5 9d3d
00000190: 6040 6b3c 439d 24be d084 3b3e 8e55 06bd
000001a0: 5419 d53d 8f0f 243e c19a 483d 4732 b03d
000001b0: 1ee4 3cbd 4bae 623e 41d5 54be 08b9 c13e
000001c0: 6529 c03c de1d 99be b8d2 97bc 0504 133e
000001d0: 491c 88bb 507c ab3e 2712 bf3c 7579 31bd
000001e0: ee15 0f3e 6164 41be 0785 56bd a3fd c23e
000001f0: b127 9bbe 5aec d33e 384d 18bd 7a51 dabe
00000200: 920c ab3e 7772 a43e e9f4 153e ae3d ee3b
00000210: 0c44 81bd 2eea 0ebe 3e97 a83d 1e6c 9c3d
00000220: 76e5 3fbd a927 a63d 4d19 97bd f6c9 8dbe
00000230: cdaa 973b f59f 78be b836 4dbe 9386 ac3e
00000240: ac2a 1bbe d0ac 5bbe 3ab9 353e d10f 36be
00000250: cd81 a33e b421 8d3e be43 6cbe a4fa 3e3e
00000260: 0597 83bc 3817 55be 3e36 1a3e a68b d3bd
00000270: 9d8c cf3e a5c2 25bd 6f9b 953e 3679 56be
00000280: e4c1 413c a6d5 17be c63c c8bd b76c 333d
00000290: d8ea 36be cf63 c43b 9129 a13d 6eb2 0cbe
000002a0: 3e13 30be dd62 97bd cbd6 b93e 8c0d 59be
000002b0: 0717 4c3e 74de b4bd a256 c73d 2e83 813e
000002c0: 19f8 cb3e 3d0a b1bc bc0c 983d bce9 38be
000002d0: b189 a03d b936 d23d f257 61be 601c 0c3e
000002e0: 7ed9 80be e904 01be 854e 10be 4b1e cb3d
000002f0: 318d 973e c675 4fbe 31de cabd af52 7bbe
00000300: be0a 55be 8a84 c13d 90ee 8ebd 7d08 873e
00000310: 317b 763e 3139 47be 2f29 f23d bb79 f03b
00000320: 5479 993d 04a7 163e 313a b7be dc56 d93b
00000330: 55f8 82be 7e10 81be 3242 a6bd 9b6f 873c
00000340: 3496 25bd f800 3a3e 8aa8 86be a4af bf3d
00000350: 8088 b6bd d168 c2be d51a 58be f33a 73be
00000360: 6867 213e 5526 c8bd 5a61 343e db20 16be
00000370: b171 393e 54cb 483e 4e45 15be 27da c3bd
00000380: 7428 f7bd 9d06 6a3e acf7 15be 14e8 0b3e
00000390: 1c44 7b3d a13e 583c d0f3 a43e 167d 33be
000003a0: 66a7 67be f1ed ad3e f43b b7bd 1c8a 0f3e
000003b0: c0df c7bd b1ba b73d c0a2 37be c459 093e
000003c0: 24df 0bbe e3b3 a03d 1698 8dbb e050 103e
000003d0: a2c6 e9bd 3835 33be cf7a ecbc c08d b4be
000003e0: 9d12 853d ef6c 043e b1aa 153e 3025 9f3c
000003f0: 7a5a a4be cbbd a13e 25dd 11be 93f8 683e

adv.bias f4 [10]
-0.046604645 0.09681516 0.13453038 0.052325442 0.030099977 0.05699897 0.18425262 -0.09292073
0.05208666 -0.028127946
00000000: 83e4 3ebd 0747 c63d 55c2 093e 3453 563d
00000010: 3a94 f63c c177 693d b8ac 3c3e 394d bebd
00000020: d258 553d 946c e6bc

val.weight f4 [1, 50]
-0.25063294 0.41713354 -0.4868199 0.3914453 0.169673 0.1552122 0.32732105 -0.16645421
0.17629574 0.072192214 0.024785824 0.32828823 0.35817805 0.1318806 -0.09235678 0.0029735726
-0.26782757 -0.042611282 -0.23177528 0.17801307 -0.09535018 0.21228927 -0.16082287 0.05418851
-0.12263002 0.35468695 0.2455178 -0.32377174 0.20090263 0.27364582 0.32290497 -0.081579804
-0.23396401 -0.13122112 -0.39973342 0.3345293 0.082322955 -0.2562725 -0.3604372 -0.32577455
0.103272155 0.29853496 -0.046624642 0.12915333 -0.3789926 -0.23815995 0.03357367 0.06741329
0.4189887 -0.08765014
00000000: f652 80be 8792 d53e 7540 f9be 856b c83e
00000010: c2be 2d3e f2ef 1e3e a096 a73e f972 2abe
00000020: df86 343e 83d9 933d a40b cb3c 6515 a83e
00000030: 1d63 b73e b50b 073e 8d25 bdbd 45e0 423b
00000040: b220 89be 2b89 2ebd 8056 6dbe 0f49 363e
00000050: f546 c3bd 5c62 593e c0ae 24be c5f4 5d3d
00000060: 7325 fbbd 8799 b53e 0569 7b3e 69c5 a5be
00000070: 6bb9 4d3e 4e1b 8c3e cd53 a53e 5013 a7bd
00000080: 4394 6fbe d45e 06be dca9 ccbe 6d47 ab3e
00000090: f098 a83d 2636 83be 3a8b b8be eccb a6be
000000a0: 5a80 d33d 93d9 983e 7bf9 3ebd c540 043e
000000b0: 510b c2be 34e0 73be 8b84 093d fb0f 8a3d
000000c0: b085 d63e eb81 b3bd
